tfLite/sign_language_detect_model.tflite (tflite, 96296 bytes, 7 tensors)

sequential/dense_1/MatMul f4 [10, 32]
00000000: c596 74bf d04d d23e 6e3b d83e 9e86 1e3e
00000010: 7019 dbbe 8ae8 24bf e93c 003e 89e6 70bf
00000020: 9018 06bf 95f3 7dbe 5b38 c13e 1d58 acbe
00000030: 5f4e 38bf 6eca 52bf 6452 7c3f 668c 553e
00000040: 9dc9 443e f3b6 c8be 453b 32be f7a7 48bf
00000050: f2d9 ad3e 0dad d13e 25f7 03bf 538e 41be
00000060: 33f0 f6bf 7e33 05bf 181d 77be 34c9 a93e
00000070: 2184 6ebe 6fca f9bd ee69 15bf fa67 af3e
00000080: d75a 613d 6841 6b3c b41c 973e 1ed5 d7be
00000090: fe08 8cbf f826 97bd 5e78 1e3f 0634 6abc
000000a0: 26c2 a9be c58f 24bf 5268 d83b 4286 3a3e
000000b0: 77d3 e3bd 53f7 0a3f df0c 9abe e15c c33d
000000c0: 5f69 55bf d82b 78be 9c26 09be e684 dcbe
000000d0: b849 35bf bc38 cf3e edbf 943d 3b99 1d3f
000000e0: 6389 693e 12ce 8d3c 26dd febe 8176 a8be
000000f0: e1a1 19bf 90bd 873e c3f1 87be a0e0 7a3e
00000100: 52b1 6ebe acfb f63e 577e fcbe cb05 263f
00000110: d647 1bbf 7967 46bf decc 4b3e e9e5 303e
00000120: 6d53 f2be ad89 64bf 3811 c73e 1e42 a13c
00000130: 1488 e8be ac10 81bf b45d 62bf f0d0 00bf
00000140: ce02 f9be 4cbd ec3e 7064 d63e 6636 223c
00000150: e7ef 20bf 6374 623e 0196 2dbf 28cb 55bf
00000160: be0b 8cbf b389 393e 18c0 0dbc 297b d53e
00000170: 07cd 8ebe 3e02 63be c15d 12be 3bb7 2bbf
00000180: 7bbf 5e3e aa52 60bf edd8 4a3e 9439 69be
00000190: 040e 803e 3f68 c93e 163b 42bf 0905 743e
000001a0: 9072 1cbe b5a8 29bc 6f90 56bf 910f 85be
000001b0: 84bb 773e 41da f2bd 78e9 1b3f 4c0c 58be
000001c0: b7ba 48bf 8a4a c03e 525f 97bf ff3b c53e
000001d0: dd47 8d3e d023 38bf 6f43 13bf d72d 7d3d
000001e0: 65ab 76be cd71 7fbf 3c3c 243f 1f5c 8e3d
000001f0: 74c4 21be 0c6f 4abf 289c da3e bee6 0ebf
00000200: f68e 3cbf 5f18 443d d405 48be 3518 bebc
00000210: 5ebd aa3e c593 7abf 9698 6ebf c9ed 8abe
00000220: 3f95 4c3e 38d6 603d c1fe 49bf e4df 5cbf
00000230: 1dd3 b8be 021f ecbe 135e 493d 50e1 e5be
00000240: 89c9 23be 1082 f53e f9a1 a43e e6d6 6f3e
00000250: db96 80bf 3ad2 13bf 117e 1abf 5b6a 99be
00000260: ab58 8d3c e5b0 77bd f570 35bd 2d06 543e
00000270: e09e bb3d 7f09 f43e 4b36 a53e a94f 263e
00000280: 7eb0 653e 314f ffbe 507d c0be 3dab 643e
00000290: d207 a0be f9b0 20bf 42aa 46bf 0e5b 39bf
000002a0: 82a3 ff3e 8e9b ea3e be0d 0e3f 5646 00bf
000002b0: 0277 bab9 0a28 9d3e fbcf 7e3f e952 06be
000002c0: 659e febe 24ee 23bf 9f39 d63e 6c22 fe3b
000002d0: 340f ee3c 4e0b 56bf c341 193f 976e 02be
000002e0: 298c efbf c841 89bd 9246 fabf e0bb 40bf
000002f0: 95f5 2bbe 26cc b53e abfb 7c3e ff70 b13e
00000300: c0c2 22bf 4850 e13e f876 093e a3c6 a83e
00000310: 3c9c fdbe 402b 1abf 8613 053e 8998 133f
00000320: 78c9 1c3f f461 85bf 9204 b1be e213 02bf
00000330: 3f87 15bc 8987 3b3e 3640 d23c 5d0c 89bd
00000340: 16bb 0c3f 35d6 31bd 68e4 743d a764 b0bf
00000350: b4f7 57be 1463 2ebf 54bb 03bf f8c6 36bf
00000360: 799c 76bf 3634 883d 13c5 bbbd 9806 f5be
00000370: 70fc 04bf 3623 a2be fb2a 67be 4238 83bf
00000380: 9d26 393f ca21 9b3e e682 00bf 2a87 bc3e
00000390: 8c7f 44bf 9d21 5abc 4154 c2be da19 643e
000003a0: 3ad5 31bf 82e6 383f 179a 0dbe 441e 273f
000003b0: 85f3 3abf 9c46 023f 9166 e6be c771 05bf
000003c0: 46f4 103d 43ee 7dbf 88ce c7be 6e41 163e
000003d0: 31e9 2d3f 1572 89be 9779 a13c 00a9 ad3e
000003e0: 8843 c3bf ad81 f43e 9bed 173f 2a15 eebe
000003f0: a72d ec3e b99c 07bf 1d0c 62bf cdf6 d53d
-0.95542556 0.4107499 0.4223284 0.1548104 -0.42792845 -0.64417326 0.12523235 -0.9410177
-0.5238123 -0.2479995 0.37738308 -0.33660975 -0.71994585 -0.82340133 0.9856322 0.20854339
0.19217534 -0.3920208 -0.17405422 -0.78381294 0.33955342 0.4095234 -0.5154899 -0.18901949
-1.9292053 -0.52031696 -0.24132192 0.33161318 -0.2329259 -0.12196814 -0.5836476 0.34259015
0.055018272 0.014358856 0.29514086 -0.42154783 -1.0940244 -0.073804796 0.61902416 -0.01429463
-0.33155936 -0.64281875 0.006604233 0.18215278 -0.11124318 0.54283637 -0.30087945 0.095391996
-0.8336391 -0.24235475 -0.13393635 -0.43070143 -0.7081561 0.40472972 0.072631694 0.61561936
0.22806315 0.017310176 -0.49778098 -0.3290291 -0.6001263 0.26511812 -0.26551637 0.2449975
-0.2330983 0.48238885 -0.4931514 0.6485259 -0.6065649 -0.77501637 0.1990237 0.17275204
-0.47329274 -0.89272577 0.38880324 0.019684847 -0.4541632 -1.0083213 -0.8842423 -0.50318813
-0.48634952 0.46238172 0.41873503 0.009900665 -0.6286606 0.2211471 -0.6780701 -0.83513117
-1.0941083 0.18118934 -0.008651756 0.41695526 -0.27890798 -0.22168824 -0.14293577 -0.6707646
0.21752732 -0.87626135 0.19809313 -0.2277587 0.25010693 0.39337346 -0.7587141 0.23830046
-0.15278077 -0.010355164 -0.8381414 -0.2598844 0.24192625 -0.11858035 0.6090312 -0.21098441
-0.78409904 0.3755687 -1.1825964 0.38522336 0.2759389 -0.71929646 -0.5752477 0.061811294
-0.2408882 -0.9978302 0.6415441 0.069511645 -0.15797597 -0.79075694 0.42697263 -0.55820835
-0.7365564 0.047874805 -0.19533473 -0.023204902 0.333476 -0.9788173 -0.9320158 -0.2713454
0.19978808 0.054891795 -0.7890435 -0.8627913 -0.36098567 -0.46117407 0.04916198 -0.44898462
-0.15994848 0.47950792 0.32154825 0.23421821 -1.0046037 -0.57742655 -0.6034861 -0.29963955
0.017254194 -0.060471434 -0.044297177 0.20705481 0.091611624 0.47663495 0.32267985 0.16241325
0.22430608 -0.49865106 -0.37595606 0.22330947 -0.31255966 -0.6277004 -0.7760354 -0.72404563
0.49929434 0.45821804 0.5548972 -0.50107324 -0.00035565352 0.3069461 0.99536103 -0.13117565
-0.4973022 -0.6403525 0.41840836 0.0077555683 0.029059984 -0.83611 0.5986597 -0.12737499
-1.8714648 -0.06702 -1.9552786 -0.75286674 -0.16792901 0.35507315 0.24705379 0.34656522
-0.63578415 0.44006562 0.13424289 0.32964048 -0.4953326 -0.60222244 0.12995729 0.57654625
0.61244917 -1.0420518 -0.345738 -0.5081159 -0.009126483 0.18313421 0.025665384 -0.06691811
0.5497297 -0.043417174 0.059788138 -1.3780717 -0.21090585 -0.6811993 -0.51457715 -0.7139735
-0.9633251 0.066505834 -0.09168448 -0.47856593 -0.5194769 -0.3166749 -0.2257499 -1.0251544
0.72324544 0.30299217 -0.50199735 0.36821872 -0.7675712 -0.013313678 -0.37954906 0.22275487
-0.6946598 0.72226727 -0.13828312 0.65280557 -0.7302783 0.5088899 -0.45000127 -0.52126735
0.035389207 -0.99191684 -0.39024758 0.14673397 0.67933947 -0.2684485 0.019711299 0.33918
-1.5254984 0.47755185 0.5934693 -0.46500522 0.4612858 -0.52973515 -0.88299733 0.10447464

sequential/dense/BiasAdd/ReadVariableOp f4 [32]
00000000: 6b6a 58bd 9c67 ad3e 3d6a af3e 8965 f9bd
00000010: 8fae d23e 257a 33bd cc54 d03e 5222 263e
00000020: 559e 9c3e 3231 79bd 5ffd 1d3d 0d51 bbbd
00000030: 6001 4b3d 857a ca3e 0036 9b3e e2f7 2f3d
00000040: 0da9 c03e d34a a63e bef6 d73e 1602 cf3e
00000050: 2080 3abd 25b4 44be d9a9 8cbd 3e23 c43e
00000060: 108c 653f 73c4 6f3e 19cd f73d fb23 ba3d
00000070: 38a1 e0bc 48c5 9f3e 9a09 203f 719a d53d
-0.052835863 0.3386811 0.3426074 -0.121775694 0.41148803 -0.043817658 0.40689695 0.1622403
0.30589548 -0.060837932 0.03857171 -0.091463186 0.04956186 0.395466 0.30314636 0.04296101
0.37628976 0.3247896 0.42180437 0.4043128 -0.045532346 -0.19209345 -0.06868333 0.38308138
0.89666843 0.23414783 0.12099666 0.09088894 -0.027420625 0.312052 0.6251465 0.10429848

sequential/dense_1/BiasAdd/ReadVariableOp f4 [10]
00000000: 780b 8cbe 822f a63e 44ce 61be cb52 833c
00000010: cbe3 9b3e 5da1 173e 59fd 023e 4f6c 9cbe
00000020: 250a 103e 05dd 6cbe
-0.273525 0.3245812 -0.2205134 0.01603069 0.3044723 0.14807649 0.12791957 -0.30551383
0.1406637 -0.23131187

sequential/dense/MatMul i1 [32, 64] scale=0.013561046 zero_point=0
00000000: ff0e d9e8 0909 c8f0 fc05 1a05 e51f eb00
00000010: f4ff dee3 e9fa 08f2 0ed7 f6f6 f5f5 101a
00000020: f4e0 18c2 08ff 17e6 e606 1cf6 fce8 e401
00000030: e302 07d2 0510 0a02 fa0d 14e2 e40a ec24
00000040: e9fc 18f8 f80f 05ff fcf5 ef01 fefc 12f8
00000050: f40f f30b 11f2 e41e 1a09 f420 1509 16ff
00000060: 1710 f601 1715 ff1d 1d16 faf7 f9e6 f50e
00000070: fc2c f5f6 e5fc ef04 0af3 1ef1 0d50 0cfc
00000080: 08f8 faf0 f301 04f1 0908 d7fc 02fb 2a0b
00000090: 1719 eb02 d900 0910 0213 f128 0614 effc
000000a0: f108 fc12 1e00 b11d e414 d6f6 ee15 ffe4
000000b0: 1601 fd0b 1b1e 17ec 07f1 0720 0405 08e1
000000c0: 0b0f f5fb edf9 19c9 f2f9 defd 18ff f20a
000000d0: fce4 04ef 0d06 f9ed 09f0 f626 f2fc 05ea
000000e0: 0be2 eb07 200e 13fb 0afd 1cf4 01eb 22f7
000000f0: f202 96e9 f5f3 eefc 0314 26f7 f618 fbe7
-0.013561046 0.18985464 -0.5288808 -0.32546508 0.12204941 0.12204941 -0.75941855 -0.21697673
-0.054244183 0.06780523 0.3525872 0.06780523 -0.36614823 0.42039242 -0.28478196 0.0
-0.16273254 -0.013561046 -0.46107554 -0.3932703 -0.31190404 -0.08136627 0.108488366 -0.18985464
0.18985464 -0.55600286 -0.13561046 -0.13561046 -0.1491715 -0.1491715 0.21697673 0.3525872
-0.16273254 -0.43395346 0.32546508 -0.84078485 0.108488366 -0.013561046 0.31190404 -0.3525872
-0.3525872 0.08136627 0.37970927 -0.13561046 -0.054244183 -0.32546508 -0.37970927 0.013561046
-0.3932703 0.027122092 0.09492732 -0.6238081 0.06780523 0.21697673 0.13561046 0.027122092
-0.08136627 0.1762936 0.27122092 -0.40683138 -0.37970927 0.13561046 -0.27122092 0.48819765
-0.31190404 -0.054244183 0.32546508 -0.108488366 -0.108488366 0.20341569 0.06780523 -0.013561046
-0.054244183 -0.1491715 -0.23053777 0.013561046 -0.027122092 -0.054244183 0.24409883 -0.108488366
-0.16273254 0.20341569 -0.1762936 0.1491715 0.23053777 -0.18985464 -0.37970927 0.40683138
0.3525872 0.12204941 -0.16273254 0.43395346 0.28478196 0.12204941 0.298343 -0.013561046
0.31190404 0.21697673 -0.13561046 0.013561046 0.31190404 0.28478196 -0.013561046 0.3932703
0.3932703 0.298343 -0.08136627 -0.12204941 -0.09492732 -0.3525872 -0.1491715 0.18985464
-0.054244183 0.596686 -0.1491715 -0.13561046 -0.36614823 -0.054244183 -0.23053777 0.054244183
0.13561046 -0.1762936 0.40683138 -0.20341569 0.1762936 1.0848837 0.16273254 -0.054244183
0.108488366 -0.108488366 -0.08136627 -0.21697673 -0.1762936 0.013561046 0.054244183 -0.20341569
0.12204941 0.108488366 -0.55600286 -0.054244183 0.027122092 -0.06780523 0.5695639 0.1491715
0.31190404 0.33902615 -0.28478196 0.027122092 -0.5288808 0.0 0.12204941 0.21697673
0.027122092 0.25765988 -0.20341569 0.54244184 0.08136627 0.27122092 -0.23053777 -0.054244183
-0.20341569 0.108488366 -0.054244183 0.24409883 0.40683138 0.0 -1.0713226 0.3932703
-0.37970927 0.27122092 -0.5695639 -0.13561046 -0.24409883 0.28478196 -0.013561046 -0.37970927
0.298343 0.013561046 -0.040683135 0.1491715 0.36614823 0.40683138 0.31190404 -0.27122092
0.09492732 -0.20341569 0.09492732 0.43395346 0.054244183 0.06780523 0.108488366 -0.42039242
0.1491715 0.20341569 -0.1491715 -0.06780523 -0.25765988 -0.09492732 0.33902615 -0.74585754
-0.18985464 -0.09492732 -0.46107554 -0.040683135 0.32546508 -0.013561046 -0.18985464 0.13561046
-0.054244183 -0.37970927 0.054244183 -0.23053777 0.1762936 0.08136627 -0.09492732 -0.25765988
0.12204941 -0.21697673 -0.13561046 0.51531976 -0.18985464 -0.054244183 0.06780523 -0.298343
0.1491715 -0.40683138 -0.28478196 0.09492732 0.43395346 0.18985464 0.25765988 -0.06780523
0.13561046 -0.040683135 0.37970927 -0.16273254 0.013561046 -0.28478196 0.46107554 -0.12204941
-0.18985464 0.027122092 -1.4374708 -0.31190404 -0.1491715 -0.1762936 -0.24409883 -0.054244183
0.040683135 0.27122092 0.51531976 -0.12204941 -0.13561046 0.32546508 -0.06780523 -0.33902615

sequential/lstm/while/lstm_cell/BiasAdd/ReadVariableOp f4 [256]
00000000: 0d9f 9cbd cf7b cebd aeba 0dbd 716e 8abc
00000010: f786 efbd 3043 38bd 83db 02bd 65db 5a3d
00000020: 2cd2 103d 17ba 2fbd 1844 8fbd 009b c5bc
00000030: 9e5e cdbd 7c8c e5bd fda6 163d 80cc 79bd
00000040: 097b a3bd c356 30bb bbab 42bd c875 b1bd
00000050: d031 d0bd 3686 abbd 23ff 43bc 532b babd
00000060: 8363 ccba fecf 68bd 547d 07be 6965 d3ba
00000070: 4e84 22bd 47da b9bd 24e0 bdbc 211d 823c
00000080: 8554 d8ba 3bd9 103d 672e 7c3d 63f4 f9bb
00000090: 06ba 74bd 2fc2 f6bd 0b06 55bd bb96 c7bc
000000a0: bdf6 e6bc bd63 17bd e84f 72bb 6e8a 43bd
000000b0: c0f8 ebbd 8d98 1d3d b959 8abd 0927 afbd
000000c0: 02e7 6bbd c1a7 bbbd d056 273c 47f1 2c3d
000000d0: 852b 88bc e2e7 48bc 8e4d bd3b 0f73 94bc
000000e0: 57cb 6c3d bb2e 0c3d 7f57 2abd ab1b 863c
000000f0: 149f a5bd ef02 dbbd 6151 bdbd 9856 a0bd
00000100: a693 8b3f b560 783f df31 7d3f 855b 8b3f
00000110: 4a20 643f 9742 813f 6368 6b3f 25ea 973f
00000120: 4b8d 9c3f 975e 5f3f 58ce 833f 174a 793f
00000130: 859c 633f 20af 8a3f 7aec 643f a216 723f
00000140: af18 7b3f 1607 773f 1ca3 6b3f a4c4 7b3f
00000150: 09ce 853f b209 6d3f 0743 873f c1af 6b3f
00000160: 4ea8 883f 1dd5 963f 6ae4 563f 0d61 843f
00000170: 2929 823f 3d57 823f af6d 7d3f 6169 773f
00000180: 6630 9d3f b0b0 863f 3fb4 8a3f 9a3f 773f
00000190: 138d 773f 8831 863f 7a55 933f 4ae2 723f
000001a0: 81b6 873f d3aa 833f 922b 803f 8e5f 6b3f
000001b0: affb 8e3f 74ea 983f 36b8 813f 81a2 7d3f
000001c0: a99c 873f ad8c 6b3f 363c b13f c013 833f
000001d0: 3ef5 793f 1286 7c3f f047 8f3f 5f9b 773f
000001e0: 92c4 843f 19b3 893f 4620 823f 40c4 633f
000001f0: bd99 723f 82d1 773f 5678 5d3f 967d 773f
00000200: fa06 7dbd 630d 56bd 0966 673d f710 1bbd
00000210: 6190 c6bd 69dc f3bc aaa6 77bd ec92 983e
00000220: e545 81bd b428 c0bc 9e08 b4bd 7941 41bd
00000230: 2ff9 fb3b 2b76 d9bd 762b 11bd 2a54 7fbd
00000240: b9b2 cabd ecf8 b7bd 57a9 59bd 248c 25bd
00000250: 4c4c 2dbd 8f60 5cbd 8076 b83d 85ee 08bd
00000260: 988c 7e3d c22f de3c 5498 aebd efc3 1a3e
00000270: e9a6 42bc 67cd b8bd d32f 3bbc 4111 d5bd
00000280: ca8c c03c 411a 213e cf69 be3d be8f 46be
00000290: 7187 36bd 66ef a9bd e8d5 4dbc 71a3 78bd
000002a0: a7d0 ba3a af04 67bc aaf3 963d a636 b4bd
000002b0: 5677 e8bd 2a94 a03d 267f 9bbd 13aa 1e3e
000002c0: a3cd e03c 234f b6bd a4d4 343e b9cd 8b3d
000002d0: 4d4d f03d 6de9 7d3e 79f5 37bc a598 b2bc
000002e0: d887 2d3d 33bf c63b 3d37 a4bd 6760 babd
000002f0: 3547 69bd d6cf f1bd a942 cfbd 4378 89bd
00000300: 5155 54bd c31c ebbd 6b58 493b 3fe4 1e3b
00000310: f73a f4bd b95e 3ebd 2d36 4bbd e3c0 073c
00000320: 6279 143e 7134 74bd 2691 17bd 429c 98bc
00000330: a600 03be 85e8 0bbe bfdc 9cbc 8cb8 efbc
00000340: 63a2 87bc be5c 3ebc 67c5 d7bc 8dab db3c
00000350: e45f e5bd a62c d3bd 1b37 013d 3639 bebd
00000360: cd9c 50bd 69be acbd 7b04 2bbe 9394 fbbc
00000370: 712d 6dbd d81c c5bb 401b d6bd 44b9 30bd
00000380: 49fe ee3c dd19 6fbd 22c6 10bd aad9 a8ba
00000390: 1bf7 73bd c7c2 283d df0e 933e 8240 ccbc
000003a0: 64c6 193e 04ec 473c 2dc3 d23d 9f97 a5bd
000003b0: 23e4 58bd 8a15 ce3c 29d4 4e3e eb50 16be
000003c0: 61fa 28bd f05a 9839 bfbb aebd 8e40 3c3d
000003d0: df61 86bc 2c6a b3bd 858a 8c3d 0fdf 42bc
000003e0: 2899 c2bd c938 38bb de0e debd 968d cebd
000003f0: e16e f5bd d463 753d 2bc6 ddbd d4ad 0bbd
-0.07647524 -0.10082208 -0.03460186 -0.016898366 -0.116956644 -0.04498595 -0.031947624 0.053431887
0.035356686 -0.04290208 -0.0699541 -0.024121761 -0.100278124 -0.11208436 0.036780346 -0.060986042
-0.079824515 -0.0026907183 -0.047527056 -0.08665043 -0.10165751 -0.08375208 -0.011962685 -0.09090295
-0.0015593622 -0.05683898 -0.13231403 -0.0016128245 -0.039676957 -0.09074836 -0.023178168 0.01588303
-0.0016504681 0.035363417 0.06156769 -0.00762801 -0.05974772 -0.12048756 -0.052007716 -0.024363866
-0.028193826 -0.036960352 -0.0036973897 -0.04773944 -0.11522055 0.038475562 -0.067553945 -0.08552367
-0.057593353 -0.09162856 0.010213569 0.042222288 -0.016622314 -0.012262316 0.0057770675 -0.01812127
0.057811107 0.034224253 -0.04158735 0.016370615 -0.08086982 -0.10693919 -0.092440374 -0.078290164
1.0904434 0.97022563 0.9890422 1.0887305 0.8911177 1.0098447 0.91956156 1.186833
1.2230619 0.8725371 1.0297346 0.9737868 0.88910705 1.0834694 0.89423335 0.94565785
0.9808454 0.9649519 0.9204576 0.98346925 1.0453502 0.9259292 1.056733 0.92065054
1.0676363 1.1783787 0.8394228 1.0342118 1.0168811 1.0182873 0.9899549 0.9664517
1.2280395 1.0522671 1.0836257 0.96581423 0.9669964 1.0483866 1.151046 0.9487654
1.0602571 1.0286506 1.0013297 0.9194268 1.1170558 1.194655 1.0134342 0.99076086
1.0594684 0.9201153 1.38465 1.0240402 0.97639835 0.98642075 1.1193829 0.9672145
1.0372488 1.0757781 1.0166099 0.8897133 0.94765836 0.9680406 0.86511743 0.96676004
-0.06177423 -0.05225886 0.056493793 -0.037857976 -0.09695507 -0.029768186 -0.060461678 0.29799592
-0.063121594 -0.023456909 -0.08790706 -0.04718158 0.007689617 -0.10618242 -0.03544184 -0.062336124
-0.0989737 -0.08983025 -0.05314001 -0.04041685 -0.04230909 -0.053803023 0.09006977 -0.033430595
0.0621458 0.027122382 -0.08525148 0.15113805 -0.011880615 -0.090235524 -0.011424976 -0.104036815
0.023504633 0.15732671 0.09297525 -0.19390771 -0.04456276 -0.08297615 -0.012563206 -0.060702745
0.0014252857 -0.014100238 0.07370694 -0.08799486 -0.113508865 0.0784076 -0.07592611 0.15494566
0.027441805 -0.08901813 0.17659241 0.06826348 0.11733494 0.24796076 -0.011227959 -0.021801302
0.04236588 0.006065273 -0.08018348 -0.091004185 -0.056952674 -0.1180722 -0.10120136 -0.06712391
-0.051839177 -0.11480095 0.0030722867 0.0024244932 -0.11925309 -0.046477053 -0.049612213 0.008285734
0.14499429 -0.059620325 -0.03700366 -0.018629197 -0.12793216 -0.13662918 -0.019148229 -0.029262803
-0.016556924 -0.011618791 -0.026339246 0.0268152 -0.1119993 -0.103112504 0.031546693 -0.09288256
-0.050930787 -0.08434755 -0.16700928 -0.030710494 -0.057904664 -0.0060154013 -0.10454416 -0.043145433
0.029173987 -0.058374275 -0.035345204 -0.0012882252 -0.05956183 0.04120138 0.28722283 -0.024933103
0.15017086 0.012202267 0.10291133 -0.0808556 -0.052951943 0.025156755 0.2019812 -0.14679305
-0.041254405 0.00029059453 -0.085319035 0.04596 -0.01640409 -0.08760485 0.06862358 -0.011894002
-0.095018685 -0.0028110018 -0.108426794 -0.10085599 -0.11984039 0.059909657 -0.10828813 -0.034101322

sequential/lstm/while/lstm_cell/MatMul_11 i1 [256, 64] scale=0.01131858 zero_point=0
00000000: f7fa ebff 000c f2fb 1f08 f9f6 f1fa f009
00000010: e9ed f4fe f1fc f2f8 ec07 01f8 fd05 fffa
00000020: f709 eeec 0505 f3fe 11fd 01ff f5fd fbde
00000030: fe02 e804 0100 0ee4 faff fefb fcf4 0201
00000040: fff9 fd09 f30f 0507 0700 edfa 0dff f404
00000050: fb01 f315 fc01 f104 ff0e 030c 1601 fdfb
00000060: 0c0b f103 fefa e8fd fd02 f40f fcec f3fd
00000070: fffb 0001 0e0e 060b 0113 f1fb 0103 f8ff
00000080: 2102 fbf1 fc0b 02e3 fe0d 00f9 2405 f1fb
00000090: f910 faf7 25f8 f207 13f4 00f9 030d 09ff
000000a0: 01d0 ecf6 f4f2 fd03 0100 fd01 15da 0111
000000b0: f9e9 12e9 3020 050d fc2b 00df f807 21fb
000000c0: 040a f5f5 0600 14fd 0a0a fbfa 08fd f8f9
000000d0: 0bf5 f4fd fb02 fb02 0809 f4ef 0200 f60d
000000e0: 0f0c 1306 f003 fefc ea0e 09fc f8fd e900
000000f0: f9fe 020d 04f8 03fb f5f9 1603 07ef 0807
-0.10186722 -0.06791148 -0.23769018 -0.01131858 0.0 0.13582297 -0.15846013 -0.0565929
0.35087597 0.09054864 -0.07923006 -0.1131858 -0.1697787 -0.06791148 -0.18109728 0.10186722
-0.26032734 -0.21505302 -0.13582297 -0.02263716 -0.1697787 -0.04527432 -0.15846013 -0.09054864
-0.2263716 0.07923006 0.01131858 -0.09054864 -0.03395574 0.0565929 -0.01131858 -0.06791148
-0.10186722 0.10186722 -0.20373444 -0.2263716 0.0565929 0.0565929 -0.14714155 -0.02263716
0.19241586 -0.03395574 0.01131858 -0.01131858 -0.12450438 -0.03395574 -0.0565929 -0.38483173
-0.02263716 0.02263716 -0.27164593 0.04527432 0.01131858 0.0 0.15846013 -0.31692025
-0.06791148 -0.01131858 -0.02263716 -0.0565929 -0.04527432 -0.13582297 0.02263716 0.01131858
-0.01131858 -0.07923006 -0.03395574 0.10186722 -0.14714155 0.1697787 0.0565929 0.07923006
0.07923006 0.0 -0.21505302 -0.06791148 0.14714155 -0.01131858 -0.13582297 0.04527432
-0.0565929 0.01131858 -0.14714155 0.23769018 -0.04527432 0.01131858 -0.1697787 0.04527432
-0.01131858 0.15846013 0.03395574 0.13582297 0.24900876 0.01131858 -0.03395574 -0.0565929
0.13582297 0.12450438 -0.1697787 0.03395574 -0.02263716 -0.06791148 -0.27164593 -0.03395574
-0.03395574 0.02263716 -0.13582297 0.1697787 -0.04527432 -0.2263716 -0.14714155 -0.03395574
-0.01131858 -0.0565929 0.0 0.01131858 0.15846013 0.15846013 0.06791148 0.12450438
0.01131858 0.21505302 -0.1697787 -0.0565929 0.01131858 0.03395574 -0.09054864 -0.01131858
0.37351316 0.02263716 -0.0565929 -0.1697787 -0.04527432 0.12450438 0.02263716 -0.32823882
-0.02263716 0.14714155 0.0 -0.07923006 0.4074689 0.0565929 -0.1697787 -0.0565929
-0.07923006 0.18109728 -0.06791148 -0.10186722 0.41878748 -0.09054864 -0.15846013 0.07923006
0.21505302 -0.13582297 0.0 -0.07923006 0.03395574 0.14714155 0.10186722 -0.01131858
0.01131858 -0.54329187 -0.2263716 -0.1131858 -0.13582297 -0.15846013 -0.03395574 0.03395574
0.01131858 0.0 -0.03395574 0.01131858 0.23769018 -0.43010604 0.01131858 0.19241586
-0.07923006 -0.26032734 0.20373444 -0.26032734 0.54329187 0.36219457 0.0565929 0.14714155
-0.04527432 0.48669896 0.0 -0.37351316 -0.09054864 0.07923006 0.37351316 -0.0565929
0.04527432 0.1131858 -0.12450438 -0.12450438 0.06791148 0.0 0.2263716 -0.03395574
0.1131858 0.1131858 -0.0565929 -0.06791148 0.09054864 -0.03395574 -0.09054864 -0.07923006
0.12450438 -0.12450438 -0.13582297 -0.03395574 -0.0565929 0.02263716 -0.0565929 0.02263716
0.09054864 0.10186722 -0.13582297 -0.19241586 0.02263716 0.0 -0.1131858 0.14714155
0.1697787 0.13582297 0.21505302 0.06791148 -0.18109728 0.03395574 -0.02263716 -0.04527432
-0.24900876 0.15846013 0.10186722 -0.04527432 -0.09054864 -0.03395574 -0.26032734 0.0
-0.07923006 -0.02263716 0.02263716 0.14714155 0.04527432 -0.09054864 0.03395574 -0.0565929
-0.12450438 -0.07923006 0.24900876 0.03395574 0.07923006 -0.19241586 0.09054864 0.07923006

sequential/lstm/while/lstm_cell/MatMul i1 [256, 252] scale=0.042378392 zero_point=0
00000000: 00ff 02fb 0100 0200 02fe fc03 fbfb fefd
00000010: 00fe 0101 03fe fb05 feff 03fd 0303 0203
00000020: 0100 fe05 fdfd fffc 0203 01fe 0300 fb05
00000030: 0000 03fc 0002 ff01 0201 0007 fefc fefb
00000040: 0201 ffff 0404 fd07 fefe 03fd 00ff fe01
00000050: 0400 fb06 fbff 02fd 00ff 0003 0605 f303
00000060: fffe fe00 fe03 ff00 0303 0403 fefe 0000
00000070: ffff 01ff 0306 ed03 fcff ffff 01fe feff
00000080: fe02 0205 fdfb fffe 0003 0202 0507 f2f9
00000090: fc00 fffe 0100 0102 0205 fefe fffe fffe
000000a0: 01ff 0001 0206 f6f8 fbfd 0200 fefe ff02
000000b0: 0003 fe00 00ff fffd 0003 0001 0007 f8f4
000000c0: fffe 00fd 0002 0000 0403 fdfd fdfb 01fd
000000d0: fe00 ffff 0204 f8f8 fdfc 02fe 02ff fe03
000000e0: ff04 fa00 fb00 04fe ff01 00fe 0205 e9fe
000000f0: fcfc 01ff 0201 fe00 0406 16ff fefe fffc
0.0 -0.042378392 0.084756784 -0.21189196 0.042378392 0.0 0.084756784 0.0
0.084756784 -0.084756784 -0.16951357 0.12713517 -0.21189196 -0.21189196 -0.084756784 -0.12713517
0.0 -0.084756784 0.042378392 0.042378392 0.12713517 -0.084756784 -0.21189196 0.21189196
-0.084756784 -0.042378392 0.12713517 -0.12713517 0.12713517 0.12713517 0.084756784 0.12713517
0.042378392 0.0 -0.084756784 0.21189196 -0.12713517 -0.12713517 -0.042378392 -0.16951357
0.084756784 0.12713517 0.042378392 -0.084756784 0.12713517 0.0 -0.21189196 0.21189196
0.0 0.0 0.12713517 -0.16951357 0.0 0.084756784 -0.042378392 0.042378392
0.084756784 0.042378392 0.0 0.29664874 -0.084756784 -0.16951357 -0.084756784 -0.21189196
0.084756784 0.042378392 -0.042378392 -0.042378392 0.16951357 0.16951357 -0.12713517 0.29664874
-0.084756784 -0.084756784 0.12713517 -0.12713517 0.0 -0.042378392 -0.084756784 0.042378392
0.16951357 0.0 -0.21189196 0.25427034 -0.21189196 -0.042378392 0.084756784 -0.12713517
0.0 -0.042378392 0.0 0.12713517 0.25427034 0.21189196 -0.5509191 0.12713517
-0.042378392 -0.084756784 -0.084756784 0.0 -0.084756784 0.12713517 -0.042378392 0.0
0.12713517 0.12713517 0.16951357 0.12713517 -0.084756784 -0.084756784 0.0 0.0
-0.042378392 -0.042378392 0.042378392 -0.042378392 0.12713517 0.25427034 -0.80518943 0.12713517
-0.16951357 -0.042378392 -0.042378392 -0.042378392 0.042378392 -0.084756784 -0.084756784 -0.042378392
-0.084756784 0.084756784 0.084756784 0.21189196 -0.12713517 -0.21189196 -0.042378392 -0.084756784
0.0 0.12713517 0.084756784 0.084756784 0.21189196 0.29664874 -0.5932975 -0.29664874
-0.16951357 0.0 -0.042378392 -0.084756784 0.042378392 0.0 0.042378392 0.084756784
0.084756784 0.21189196 -0.084756784 -0.084756784 -0.042378392 -0.084756784 -0.042378392 -0.084756784
0.042378392 -0.042378392 0.0 0.042378392 0.084756784 0.25427034 -0.42378393 -0.33902714
-0.21189196 -0.12713517 0.084756784 0.0 -0.084756784 -0.084756784 -0.042378392 0.084756784
0.0 0.12713517 -0.084756784 0.0 0.0 -0.042378392 -0.042378392 -0.12713517
0.0 0.12713517 0.0 0.042378392 0.0 0.29664874 -0.33902714 -0.5085407
-0.042378392 -0.084756784 0.0 -0.12713517 0.0 0.084756784 0.0 0.0
0.16951357 0.12713517 -0.12713517 -0.12713517 -0.12713517 -0.21189196 0.042378392 -0.12713517
-0.084756784 0.0 -0.042378392 -0.042378392 0.084756784 0.16951357 -0.33902714 -0.33902714
-0.12713517 -0.16951357 0.084756784 -0.084756784 0.084756784 -0.042378392 -0.084756784 0.12713517
-0.042378392 0.16951357 -0.25427034 0.0 -0.21189196 0.0 0.16951357 -0.084756784
-0.042378392 0.042378392 0.0 -0.084756784 0.084756784 0.21189196 -0.974703 -0.084756784
-0.16951357 -0.16951357 0.042378392 -0.042378392 0.084756784 0.042378392 -0.084756784 0.0
0.16951357 0.25427034 0.93232465 -0.042378392 -0.084756784 -0.084756784 -0.042378392 -0.16951357
