tensorflow_lite/sign_language_detect_model.tflite (tflite, 241576 bytes, 7 tensors)

sequential/dense_1/MatMul f4 [10, 64]
000000 a0 f2 1e be c9 f6 62 be 92 cd ec bd 5d a2 34 be
       -0.15522242 -0.22164454 -0.11562647 -0.17640062
000010 a0 22 54 be c8 fc 63 3e b6 5a 12 3e b4 00 e7 3d
       -0.20716333 0.22264397 0.14292416 0.11279431
000020 bf 87 31 3c f1 ee 47 3e a5 ac 8c 3e 14 85 3b 3d
       0.010835587 0.19524743 0.27475467 0.04578121
000030 c3 3f d9 be 31 c5 19 3e af 6b 8f 3e f9 c3 51 be
       -0.4243146 0.15016629 0.28011844 -0.20484914
000040 94 3e 2d be 0d da 6f 3e 41 d0 01 be 4d 4b fc bd
       -0.16918403 0.23423024 -0.12677099 -0.1231905
000050 f3 97 33 be 10 21 6d bd 5c 84 cf bd 12 63 2c 3e
       -0.17538433 -0.05789286 -0.101326674 0.16834667
000060 20 0d 6e be bd 5f 35 bd dc 59 78 3e c0 9f c2 3d
       -0.23247194 -0.044280756 0.24253029 0.09503126
000070 5c 0c 5d bb af b2 46 3e 53 a7 ba 3c 15 08 89 3e
       -0.003372929 0.194041 0.022784865 0.2676398
000080 d4 c3 34 be 48 8b 87 bd 89 98 4a 3e 48 45 37 be
       -0.17652828 -0.06618363 0.1978475 -0.17897522
000090 bb 7e 9f 3c 07 1c d4 bd 92 fc a1 be 59 92 14 be
       0.01946961 -0.10356908 -0.31638008 -0.14508952
0000a0 a5 c7 df bd a8 dc 20 bd 95 6e 52 3e 67 8f 84 3d
       -0.10926751 -0.039272934 0.20549996 0.06472664
0000b0 85 d2 1d 3e e3 04 e8 3d c6 ba 78 3e a3 e6 6e 3e
       0.15412338 0.11329057 0.24289998 0.23330168
0000c0 d0 79 1d 3e d5 7e 43 be af 8f 9b be 1e cd 39 3e
       0.15378499 -0.19091351 -0.3038306 0.18144652
0000d0 e3 ec 5b 3e 53 e0 1f 3d a4 62 42 3e b4 44 be bd
       0.21477084 0.03903229 0.18982941 -0.09290448
0000e0 d1 2c 81 3e 55 69 26 be 6f 39 58 be 80 31 3d 3e
       0.25229505 -0.16251118 -0.21115659 0.18475914
0000f0 6c b4 06 3e 40 1b 3c be 7a 6d 76 be 8f 37 47 3e
       0.13154763 -0.1836977 -0.240652 0.19454788
000100 29 8c c5 bc 5e 2b 65 be bd ea 3e 3e 15 e8 84 3e
       -0.024114685 -0.22379825 0.18644233 0.25958315
000110 c3 78 f6 3c 63 2b d9 be d0 38 f8 bd b1 cd 5d 3c
       0.03008688 -0.42415914 -0.12120211 0.01353781
000120 e4 10 4a be a7 39 bc 3d 08 f5 3d 3d aa e1 7d be
       -0.19733006 0.09190684 0.046376258 -0.24793115
000130 5a 03 12 be d2 75 93 be 8e b5 90 bd f0 4f ae bd
       -0.14259091 -0.28800827 -0.07065879 -0.085113406
000140 55 f3 6a bc dd d0 b6 3d 90 70 89 be b4 32 eb be
       -0.014340241 0.08926556 -0.2684369 -0.4593712
000150 d6 d4 4e be aa 3e 9c be e1 dc 19 bd 18 6c f0 bb
       -0.20198378 -0.3051656 -0.037564162 -0.0073371045
000160 5f 4f 25 3e d7 2a 99 3d 4c eb 33 3e c9 2f 25 be
       0.16143559 0.07478874 0.17570227 -0.1613151
000170 9a 02 90 be 74 55 63 3e f8 3a 8c be f2 35 c4 3d
       -0.28126985 0.22200567 -0.2738874 0.09580602
000180 d4 5b 38 3e cf 5a b0 3e b9 9f 86 3e 82 8b c2 bc
       0.1800378 0.3444428 0.26293734 -0.023748163
000190 8f 6e 02 3e e1 a6 3a 3e aa a3 74 bd f2 d9 81 3e
       0.12737487 0.18227722 -0.059726395 0.25361592
0001a0 e2 c8 84 3e 16 6d 88 bd 88 a8 4b 3e 05 c3 78 3e
       0.2593451 -0.066614315 0.19888508 0.24293144
0001b0 21 9e 9a be f8 4b 6e bd 74 97 a1 3e 8f 58 f1 bd
       -0.30198768 -0.05817792 0.31560862 -0.11784469
0001c0 74 97 15 be 2e cd ed bd 03 c6 34 3e 52 83 37 3d
       -0.14608556 -0.116114005 0.1765366 0.04480297
0001d0 0e 96 88 bd 88 45 65 3e d0 e3 a9 3e ae 12 12 be
       -0.06669246 0.22389805 0.3318162 -0.14264938
0001e0 a3 9e f0 be 22 05 82 bd fe 47 2b 3e f5 bd d9 3d
       -0.4699603 -0.06348635 0.16726682 0.106319346
0001f0 00 cf d0 3d c8 99 4a bd 1b d1 49 be ce 46 45 be
       0.10195732 -0.049463063 -0.19708674 -0.19265291
000200 e3 e7 c2 bc 54 6c bd be 80 1a 00 bd 6d 49 71 3d
       -0.023792213 -0.3699671 -0.031275272 0.058907915
000210 d5 86 b8 bc 7a 4c 82 3d fb 16 e2 bd 8a 87 d5 bd
       -0.02252523 0.06362243 -0.110395394 -0.10426243
000220 7e 82 65 3e 64 87 b4 bd e0 43 a3 b9 49 fc 7c be
       0.2241306 -0.08814886 -0.00031140354 -0.24705614
000230 47 fa ed 3c ce 7b 8a be 34 a6 21 3e 8f 87 d4 3d
       0.029050006 -0.2704758 0.15786058 0.10377418
000240 cb 87 86 be ff 52 4b 3e 8d 8f 93 3d dc b1 1c be
       -0.26275477 0.19855879 0.072051145 -0.15302223
000250 dc 7e 53 be f1 4a ff 3d e0 fa b2 bd 92 70 63 be
       -0.20653862 0.12465466 -0.08739257 -0.22210911
000260 65 c5 74 3d 87 15 a3 be 39 19 d5 3c 88 13 ab bd
       0.059758563 -0.31852362 0.026013004 -0.08353335
000270 8f 86 b7 3e a4 1e 77 bd 30 92 68 3e 69 1d dc 3d
       0.35844848 -0.060331956 0.22712016 0.10747797
000280 cc 5a 80 3e 3a fb 0c be 6b 66 81 be ce d8 bb bd
       0.25069273 -0.1376771 -0.2527345 -0.091722116
000290 f7 61 99 bd 8d 25 b8 3d a4 7e 93 be 3a f8 39 3d
       -0.074893884 0.08991537 -0.28807557 0.045402743
0002a0 90 e7 95 3e 02 2a 94 be bd 63 d2 3d 1b 4a d3 bc
       0.2927823 -0.289383 0.1027293 -0.025792172
0002b0 b8 bd c1 bd 4f 90 72 3e d6 50 e0 bc 31 e1 32 3e
       -0.09460014 0.23687862 -0.027382296 0.17468716
0002c0 53 58 2a 3e be 74 8d 3d 2d f1 61 3e 82 ca 0c 3d
       0.16635256 0.069070324 0.22064658 0.034372814
0002d0 f1 dd 26 be 5c 9f 11 3e 5c 57 05 bd ba ca ee bd
       -0.16295601 0.14220947 -0.032554016 -0.11659761
0002e0 b1 9c 8c 3e e5 0f 09 3b 6a 12 8c 3e 44 c2 88 be
       0.27463296 0.0020914015 0.273578 -0.26710713
0002f0 c8 0e 81 be f2 a1 15 be 34 0d fc bd 01 d3 a7 3e
       -0.2520659 -0.14612558 -0.12307206 0.3277817
000300 5b 92 83 3e 5d 63 84 3e 18 e3 12 3c bb 20 5e 3e
       0.25697598 0.25857058 0.008965276 0.21692173
000310 d9 58 29 bd 94 6d 6b bd 75 ea 9e bd fc 21 01 be
       -0.041344497 -0.05747755 -0.07759563 -0.1261062
000320 27 07 5a 3e 86 fd e1 3d 7a 6e 8c bd 49 42 c8 3d
       0.21291791 0.11034684 -0.06857009 0.09778268
000330 ba 21 9d bd 61 5f 87 be 8a f9 3b be ed 4d be 3d
       -0.076724485 -0.26439956 -0.1835691 0.09292207
000340 a5 5d d2 bd 0b f2 96 be 49 17 81 3e 6b 9f 89 3e
       -0.102717675 -0.2948154 0.25213078 0.2687944
000350 5e 1b aa bd d7 f8 0d 3e ae 51 d3 bd f1 2e 0c be
       -0.08306001 0.13864456 -0.103183135 -0.13689782
000360 74 23 85 bd 64 a4 2e 3c 4b fc 4d 3e 6a 12 c0 bd
       -0.06500903 0.010659311 0.20115773 -0.09378512
000370 13 cd f0 bd 6c 61 bd 3d 55 19 69 bd d3 63 13 3e
       -0.11757865 0.092470974 -0.056908924 0.14393549
000380 e3 ee bb be 1f 0a 54 3e 79 eb 61 be 23 7f d8 bd
       -0.36705694 0.20706986 -0.22062482 -0.105711244
000390 96 5d 14 3e 03 ac 4f 3e b0 1a b3 bd 59 e1 99 3d
       0.14488825 0.20280461 -0.087453246 0.07513685
0003a0 95 66 39 be f2 2c 68 be 82 96 19 3e 0d cf 60 be
       -0.18105538 -0.22673395 0.1499882 -0.21953984
0003b0 42 03 2e be 64 e7 34 3e cd 97 46 be 7c c3 02 3d
       -0.1699343 0.17666394 -0.19393845 0.03192471
0003c0 6f 41 47 3d 3c 0b 9d be 08 e9 69 3e eb 73 09 3e
       0.048646387 -0.30672634 0.228428 0.13423125
0003d0 fc 3b 85 bc a9 4e 05 3d 51 38 9f be 23 b3 54 3e
       -0.016263954 0.03254572 -0.31097654 0.2077146
0003e0 f2 aa 15 be f6 ad 4f 3e f1 f3 59 3e 4f 74 ea 3c
       -0.14615992 0.20281205 0.21284463 0.028619913
0003f0 b1 c1 ee bc 73 65 0a be 0e 50 83 3e c2 4e a4 be
       -0.029145094 -0.13515262 0.25647014 -0.32091337

sequential/dense/BiasAdd/ReadVariableOp f4 [64]
000000 b4 67 74 3c 0e 6a 31 3e 18 63 15 bd eb c0 3b 3d
       0.014917303 0.17325613 -0.036471456 0.045838278
000010 1b 27 3b 3e 7f ce f7 3d 6d 8e fb bc 57 c5 d6 3d
       0.18276636 0.12099933 -0.030707562 0.10486858
000020 32 6e 61 3d c5 d5 05 3e 6a 8f 80 3b 5d 3b 8a bc
       0.05503673 0.13069828 0.0039233463 -0.01687401
000030 52 92 ae 3d b4 1c d2 3d 90 b5 00 3e 94 97 c0 3d
       0.08524002 0.10259381 0.1256926 0.09403911
000040 7f bd 29 3e f7 4e 59 3d 24 4a 52 3d f1 ea 7e 3e
       0.16576193 0.053053822 0.051340237 0.2489431
000050 83 67 90 3d 60 c6 a5 bd e9 93 bf bb 42 9e 20 3d
       0.07050993 -0.08094478 -0.0058464897 0.039213426
000060 42 03 c7 3c 86 4c 00 3e 9a 31 c8 3d 07 db 6a 3c
       0.024293546 0.12529191 0.09775086 0.014334447
000070 4d 11 f3 3b 30 e8 f8 3b 61 bf 5e bd eb 34 ba 3c
       0.007417834 0.0075960383 -0.054381732 0.022730311
000080 96 17 3d 3e 76 73 f3 3d cb eb 2c 3e e0 a8 0d 3d
       0.18466029 0.11887257 0.16886823 0.03458488
000090 b4 97 a2 3c 8e f6 5c 3d 7d ab e2 3d 38 6f e6 3d
       0.019847728 0.05394607 0.11067865 0.11251682
0000a0 b8 b8 b4 bc 9d 20 0b 3c 3f 9a e3 3d fc bb 0d 3e
       -0.022060737 0.008491662 0.111134045 0.13841242
0000b0 bd 33 73 3d da 9c 29 3b b6 8d f4 3d ef d7 02 3d
       0.059375513 0.0025880844 0.11941092 0.03194421
0000c0 48 72 de 3c c6 e0 bd 3d 89 2b 5a ba d6 a7 d9 bb
       0.027154103 0.09271388 -0.0008322527 -0.006642322
0000d0 2f 46 1d 3d fa 71 e2 bc 3d 1f 03 3e f4 f7 14 3d
       0.03839701 -0.027642239 0.12804885 0.03636928
0000e0 c2 6d 9b 3c 8a 57 3a 3e bf c2 f0 3c 90 8f c2 3c
       0.018973235 0.18197456 0.029389737 0.023750097
0000f0 03 18 6b 3d 1d 05 63 3d 29 eb 9f 3d 9f 31 42 3d
       0.057395946 0.0554248 0.07808525 0.047410604

sequential/dense_1/BiasAdd/ReadVariableOp f4 [10]
000000 38 58 12 bd 4b 7d 42 3d 25 a4 0a bd fb ee fd 3c
       -0.035728663 0.04748277 -0.033847947 0.030997744
000010 b3 f0 8d 3c bb d3 ee bc 16 b8 42 3e 7f cd f8 bd
       0.017326688 -0.029153695 0.19015536 -0.1214857
000020 42 45 ee bd 17 c2 b4 3d
       -0.11634304 0.08826082

sequential/dense/MatMul i1 [64, 128] scale=0.0046412214 zero_point=0
000000 fd e5 02 23 ff 07 28 19 e5 04 0d e6 23 ed f9 0a
       -0.013923664 -0.12531298 0.009282443 0.16244274 -0.0046412214 0.03248855 0.18564886 0.11603054 -0.12531298 0.018564885 0.06033588 -0.12067176 0.16244274 -0.08818321 -0.03248855 0.046412215
000010 df 1b f1 12 06 dd 00 d5 06 12 2f 19 03 d8 0e f8
       -0.1531603 0.12531298 -0.06961832 0.08354198 0.027847327 -0.16244274 0.0 -0.19957252 0.027847327 0.08354198 0.2181374 0.11603054 0.013923664 -0.18564886 0.0649771 -0.03712977
000020 e1 f1 28 e7 05 07 e6 0a d5 b9 e8 0e 0a e8 08 db
       -0.14387786 -0.06961832 0.18564886 -0.11603054 0.023206107 0.03248855 -0.12067176 0.046412215 -0.19957252 -0.32952672 -0.11138931 0.0649771 0.046412215 -0.11138931 0.03712977 -0.17172518
000030 fd 13 1e 07 e7 21 1b 1c 23 4d c0 0a eb f7 20 1b
       -0.013923664 0.08818321 0.13923664 0.03248855 -0.11603054 0.1531603 0.12531298 0.1299542 0.16244274 0.35737404 -0.29703817 0.046412215 -0.09746565 -0.04177099 0.14851908 0.12531298
000040 06 ca ec 10 dd dd e3 f0 1a e0 1a f7 fa f1 eb f5
       0.027847327 -0.25062597 -0.09282443 0.07425954 -0.16244274 -0.16244274 -0.13459542 -0.07425954 0.12067176 -0.14851908 0.12067176 -0.04177099 -0.027847327 -0.06961832 -0.09746565 -0.051053435
000050 00 fa 15 e5 18 e4 31 22 08 fa 25 ef f3 32 18 04
       0.0 -0.027847327 0.09746565 -0.12531298 0.11138931 -0.1299542 0.22741985 0.15780152 0.03712977 -0.027847327 0.17172518 -0.07890076 -0.06033588 0.23206107 0.11138931 0.018564885
000060 e4 02 08 f2 0c 0f 10 11 f2 d8 11 e0 ed f7 14 3c
       -0.1299542 0.009282443 0.03712977 -0.0649771 0.055694655 0.06961832 0.07425954 0.07890076 -0.0649771 -0.18564886 0.07890076 -0.14851908 -0.08818321 -0.04177099 0.09282443 0.2784733
000070 e4 eb e2 14 fe 11 0a fa ea 18 f5 bd 02 d7 f1 fb
       -0.1299542 -0.09746565 -0.13923664 0.09282443 -0.009282443 0.07890076 0.046412215 -0.027847327 -0.10210687 0.11138931 -0.051053435 -0.31096184 0.009282443 -0.19029008 -0.06961832 -0.023206107
000080 3e fa 0e 0d 25 1b 07 25 1a d6 2c 13 ec f7 04 43
       0.28775573 -0.027847327 0.0649771 0.06033588 0.17172518 0.12531298 0.03248855 0.17172518 0.12067176 -0.1949313 0.20421374 0.08818321 -0.09282443 -0.04177099 0.018564885 0.31096184
000090 02 f0 35 0b 06 ec d6 1c f3 37 1e ac 10 e2 1b 28
       0.009282443 -0.07425954 0.24598473 0.051053435 0.027847327 -0.09282443 -0.1949313 0.1299542 -0.06033588 0.25526717 0.13923664 -0.3898626 0.07425954 -0.13923664 0.12531298 0.18564886
0000a0 df 18 19 fa eb 30 eb 37 1a 16 1b e7 f0 e2 16 04
       -0.1531603 0.11138931 0.11603054 -0.027847327 -0.09746565 0.22277862 -0.09746565 0.25526717 0.12067176 0.10210687 0.12531298 -0.11603054 -0.07425954 -0.13923664 0.10210687 0.018564885
0000b0 1a 4d 47 fa d4 39 11 22 f8 49 2f ff fd 1b 02 23
       0.12067176 0.35737404 0.32952672 -0.027847327 -0.20421374 0.2645496 0.07890076 0.15780152 -0.03712977 0.33880916 0.2181374 -0.0046412214 -0.013923664 0.12531298 0.009282443 0.16244274
0000c0 f1 07 0f 20 f2 fe f6 e1 07 0b 24 2e 02 e8 12 2f
       -0.06961832 0.03248855 0.06961832 0.14851908 -0.0649771 -0.009282443 -0.046412215 -0.14387786 0.03248855 0.051053435 0.16708396 0.21349618 0.009282443 -0.11138931 0.08354198 0.2181374
0000d0 14 19 1b e0 34 22 0f ff 1b 2e 32 eb 23 07 21 c8
       0.09282443 0.11603054 0.12531298 -0.14851908 0.24134351 0.15780152 0.06961832 -0.0046412214 0.12531298 0.21349618 0.23206107 -0.09746565 0.16244274 0.03248855 0.1531603 -0.2599084
0000e0 bf e4 00 52 15 1c 31 29 f8 1d e6 19 be fa f0 1c
       -0.3016794 -0.1299542 0.0 0.38058016 0.09746565 0.1299542 0.22741985 0.19029008 -0.03712977 0.13459542 -0.12067176 0.11603054 -0.3063206 -0.027847327 -0.07425954 0.1299542
0000f0 fe cc 19 27 f6 1b fa 06 f9 1c 32 f2 eb ec 1e 0b
       -0.009282443 -0.24134351 0.11603054 0.18100764 -0.046412215 0.12531298 -0.027847327 0.027847327 -0.03248855 0.1299542 0.23206107 -0.0649771 -0.09746565 -0.09282443 0.13923664 0.051053435

sequential/lstm/while/lstm_cell/BiasAdd/ReadVariableOp f4 [512]
000000 d4 da d5 3c 63 6c a4 ba 62 16 0f bd 81 7b f1 3c
       0.026105322 -0.0012544509 -0.034933455 0.029477837
000010 95 ad ff 3c 7d 80 54 3c ef 19 41 3c db 11 33 bd
       0.0312107 0.012970087 0.011785968 -0.0437182
000020 53 42 f1 bb 49 c6 24 bc 2d 55 0c 3d 81 d2 2b 3c
       -0.007362643 -0.0100570405 0.034260917 0.0104872
000030 99 e7 05 bd 03 e3 36 3c b9 20 8c bc cf 76 11 3d
       -0.03269157 0.011162522 -0.017105447 0.035513695
000040 b0 15 2b 3d 5f a4 a7 bc 4e 78 4a bc db 3f 0c 3d
       0.04176873 -0.02046412 -0.012357784 0.034240585
000050 72 d9 fb 3a e9 70 03 3d 56 13 48 bb 07 9c 99 bc
       0.0019214584 0.0320901 -0.0030529103 -0.018751157
000060 ba ea 52 3c 04 86 5b bd f3 05 06 3d 65 dc 50 bb
       0.012873346 -0.053594604 0.032720517 -0.0031869647
000070 08 86 04 bd bc 1b 61 bc 4d e8 8d bc 15 c4 de bb
       -0.032354385 -0.013739523 -0.017322684 -0.006798277
000080 58 dc 42 bc a0 eb 9e bc 34 b0 ea 3b b9 7b ed 3c
       -0.011893354 -0.019399464 0.0071621183 0.02898966
000090 3d d5 79 3b 33 61 22 3d 61 c1 78 3c 7b ee d9 3c
       0.0038121485 0.039643478 0.015182824 0.026602974
0000a0 d0 14 8a bc ea 08 00 3e 34 ab a1 bc 8a 47 85 bd
       -0.016855627 0.125034 -0.019734956 -0.065077856
0000b0 f2 d4 cc bb d6 33 a9 bb 22 63 8f bc cc c5 de bc
       -0.006250971 -0.00516365 -0.017503325 -0.027193926
0000c0 03 6a 9d 3d 60 3e d8 bb b0 0a 2d 3e 2e f2 97 bc
       0.07686236 -0.0065992326 0.16898608 -0.018548097
0000d0 45 5b df 3c 79 59 0e 3c 9c 2e 9f 3b ca 85 12 bd
       0.0272652 0.008688324 0.004857851 -0.035772122
0000e0 6e 61 09 3d 9a 39 c9 3c e3 2a 77 bc 9b 53 c3 3d
       0.03354018 0.0245636 -0.015085909 0.09537431
0000f0 69 7c 94 ba 0e 93 ff 3c 52 96 28 bd e9 78 5f 3c
       -0.0011328581 0.03119805 -0.04115898 0.013639667
000100 c3 7c 7a bc a8 8c d6 3b a6 7e 3d 3d f5 fd 12 3c
       -0.015288535 0.0065475293 0.04626336 0.008971681
000110 67 23 bd bc 38 54 99 3b 56 67 b8 bc 4c 0e 2f bd
       -0.02308817 0.004679229 -0.022510212 -0.042738244
000120 51 ad ce 3c 82 92 24 bc c9 20 96 3b 7a 66 40 3d
       0.025229128 -0.010044696 0.004581545 0.04697273
000130 5e bc 1a 3c 02 e2 08 bc 91 78 ad bc 04 b9 2f bc
       0.009444324 -0.008354666 -0.021175655 -0.0107252635
000140 e1 6e ae 3d 10 05 76 bd c9 a8 11 3c 7d 2b b4 3c
       0.08517242 -0.06006342 0.008890339 0.021993393
000150 9f ce 4f 3c 5e d4 15 3d 29 f3 b8 bc 0f c1 2b 3d
       0.01268354 0.036579482 -0.022576885 0.041932162
000160 a9 f7 69 bc 48 62 e6 3c fc 93 29 bc 31 82 a6 bc
       -0.014280238 0.028123036 -0.010350224 -0.020325752
000170 ba e7 cf bc 5a 94 98 bc e9 18 02 3d d5 2b 15 3d
       -0.02537905 -0.018625427 0.031762037 0.036418755
000180 f1 a7 e4 3c 71 e0 14 bd ea 43 1d 3c 40 5d a0 3d
       0.027912112 -0.036346857 0.0095987115 0.07830286
000190 c1 46 1e bd ea 80 21 bc 6a 89 56 3d 31 be b1 3c
       -0.038641695 -0.009857396 0.052377142 0.021697136
0001a0 73 77 1d 3d 80 b6 ab 3b 29 66 89 bd 42 85 3c 3d
       0.038443994 0.0052402616 -0.06708939 0.046025522
0001b0 71 9e 42 bb 90 2d da bc 1b f1 5d 3d a6 b3 2c 3e
       -0.002969649 -0.026633054 0.054185014 0.16865405
0001c0 77 47 90 bb 07 20 90 3c 48 c3 25 bc a1 69 57 bc
       -0.0044030505 0.017593397 -0.010117359 -0.0131477425
0001d0 33 d8 02 bd c4 cc ba 3c a3 2f 8b bc 18 38 82 3c
       -0.031944465 0.022802718 -0.016990488 0.015895888
0001e0 50 7e 82 bc 37 64 1e 3b b3 ca 5d 3c 46 cf b3 3b
       -0.015929371 0.002416862 0.013537097 0.0054873554
0001f0 a8 8b 0f 3e 3c 0c 04 bd 8b e2 c2 3c e3 e8 9c bc
       0.14018118 -0.03223823 0.023789665 -0.019154018
000200 e9 83 82 3f 4e 01 77 3f 9c 2e 70 3f c1 39 84 3f
       1.0196506 0.96486366 0.9382112 1.0330125
000210 8b e8 8f 3f 6a 77 87 3f 4e 2a 76 3f a6 65 6e 3f
       1.1242841 1.0583317 0.961583 0.93123853
000220 f4 05 83 3f e2 c3 7f 3f 0f e7 81 3f c4 e2 80 3f
       1.0236192 0.9990827 1.0148638 1.0069203
000230 4a 6d 70 3f f5 f3 7c 3f 33 7c 7e 3f b4 ea 86 3f
       0.9391676 0.9880975 0.9940826 1.0540376
000240 a2 70 83 3f e8 a0 77 3f e0 ce 7d 3f ff 88 82 3f
       1.0268748 0.967299 0.9914379 1.0198058
000250 56 ea 7f 3f 49 4b 82 3f 95 a7 86 3f 58 a6 83 3f
       0.99966943 1.0179225 1.0519892 1.0285139
000260 13 32 86 3f 74 8a 77 3f 10 a5 86 3f a1 de 7e 3f
       1.0484031 0.9669564 1.0519123 0.99558455
000270 df ce 78 3f 48 c6 79 3f fb cf 7e 3f 04 a3 80 3f
       0.9719066 0.9756818 0.99536103 1.0049748
000280 9c 3e 88 3f 37 0a 7e 3f d4 b8 83 3f 27 bd 73 3f
       1.0644107 0.99234337 1.029078 0.952105
000290 1c d5 80 3f 7e d2 89 3f b5 b9 7c 3f e0 c2 80 3f
       1.0065036 1.0767362 0.98720866 1.0059471
0002a0 01 d0 84 3f 2d 22 93 3f 95 e3 78 3f a4 03 6b 3f
       1.0375978 1.1494805 0.9722226 0.9180243
0002b0 f2 e7 7a 3f dc 93 82 3f cc 2f 7d 3f c4 c2 77 3f
       0.9801017 1.0201373 0.9890106 0.96781564
0002c0 1e a6 84 3f 5f 47 86 3f b9 67 96 3f 20 35 80 3f
       1.0363195 1.0490531 1.1750404 1.0016212
0002d0 00 10 82 3f 98 42 87 3f 7f 3a 81 3f e9 96 79 3f
       1.0161133 1.0567198 1.0095977 0.97495896
0002e0 e7 77 87 3f d4 ea 84 3f 68 7d 83 3f d5 72 a7 3f
       1.0583466 1.0384164 1.0272646 1.3081919
0002f0 21 92 7c 3f f8 49 83 3f eb 8f 76 3f 61 9e 85 3f
       0.98660475 1.0256948 0.9631335 1.0438958
000300 ff a8 7d 3f 58 d9 7b 3f 65 f1 84 3f 88 55 83 3f
       0.9908599 0.98378515 1.0386168 1.0260477
000310 55 1f 81 3f 3d dd 82 3f fb d3 7f 3f 20 f2 76 3f
       1.0087687 1.0223767 0.9993283 0.96463203
000320 9c 33 83 3f c2 b7 81 3f ef 98 7d 3f 47 7d 8c 3f
       1.0250125 1.0134203 0.99061483 1.0975732
000330 fc 79 7c 3f 1a 6c 7c 3f f8 20 84 3f 1b 63 7d 3f
       0.98623633 0.9860245 1.0322561 0.9897935
000340 99 5c 8f 3f c3 ee 77 3f be e9 82 3f ee 8f 84 3f
       1.1200134 0.96848696 1.0227582 1.0356424
000350 39 9b 87 3f cf b5 88 3f 5d 23 78 3f cb 57 82 3f
       1.0594245 1.0680484 0.9692896 1.0183042
000360 ca 36 78 3f 0b f1 84 3f 4f b7 87 3f 9a f2 80 3f
       0.969586 1.038606 1.0602816 1.0074036
000370 03 25 76 3f 89 ff 87 3f 27 60 82 3f 85 4f 82 3f
       0.96150225 1.0624858 1.0185593 1.0180517
000380 65 2a 7f 3f 75 61 77 3f 7b d2 80 3f c8 c5 88 3f
       0.99674064 0.9663308 1.0064234 1.0685358
000390 97 b8 74 3f e2 2d 80 3f 6a be 83 3f b4 cf 86 3f
       0.9559416 1.0014002 1.0292485 1.0532136
0003a0 18 11 84 3f 33 c6 83 3f cf 89 83 3f 57 b6 83 3f
       1.0317717 1.0294861 1.0276431 1.0290021
0003b0 71 5f 84 3f c3 e3 77 3f 23 a9 7b 3f 1a df a4 3f
       1.0341626 0.9683191 0.9830496 1.2880585
0003c0 6b 15 7d 3f 60 c6 7f 3f b7 c7 7e 3f 02 2b 7f 3f
       0.98860806 0.9991207 0.9952349 0.99675
0003d0 48 7f 80 3f da 86 7f 3f 58 93 7e 3f e1 52 83 3f
       1.0038843 0.9981514 0.9944358 1.0259668
0003e0 e5 4a 7d 3f 23 81 7a 3f dd 0b 83 3f 39 55 7d 3f
       0.98942405 0.97853297 1.0237995 0.98958164
0003f0 3f ce 8c 3f b7 ad 78 3f c4 a6 7d 3f db 05 81 3f
       1.1000441 0.9714007 0.9908259 1.0079912

sequential/lstm/while/lstm_cell/MatMul_11 i1 [512, 128] scale=0.005599909 zero_point=0
000000 e6 01 03 0f fa 09 18 09 01 08 f7 05 f5 12 06 ef
       -0.14559764 0.005599909 0.016799727 0.083998635 -0.033599455 0.05039918 0.13439782 0.05039918 0.005599909 0.044799272 -0.05039918 0.027999545 -0.061598998 0.10079836 0.033599455 -0.09519845
000010 02 02 f4 12 15 f3 11 0f 0c f3 fa 07 04 0d ff f5
       0.011199818 0.011199818 -0.06719891 0.10079836 0.11759809 -0.07279882 0.09519845 0.083998635 0.06719891 -0.07279882 -0.033599455 0.039199363 0.022399636 0.07279882 -0.005599909 -0.061598998
000020 f5 f9 f8 ee 0e 03 16 0b 0c 0a fb ff 0b 07 ff 01
       -0.061598998 -0.039199363 -0.044799272 -0.10079836 0.07839873 0.016799727 0.123197995 0.061598998 0.06719891 0.05599909 -0.027999545 -0.005599909 0.061598998 0.039199363 -0.005599909 0.005599909
000030 f9 02 19 0b 04 0b fb 01 ee fb f5 fb fa fe 05 fb
       -0.039199363 0.011199818 0.13999772 0.061598998 0.022399636 0.061598998 -0.027999545 0.005599909 -0.10079836 -0.027999545 -0.061598998 -0.027999545 -0.033599455 -0.011199818 0.027999545 -0.027999545
000040 0a 0e f3 03 fb f4 fb 01 ff f3 12 12 03 02 f3 fe
       0.05599909 0.07839873 -0.07279882 0.016799727 -0.027999545 -0.06719891 -0.027999545 0.005599909 -0.005599909 -0.07279882 0.10079836 0.10079836 0.016799727 0.011199818 -0.07279882 -0.011199818
000050 f3 0b ed fb 0d ec 03 fe 0d 0c 01 14 0e 03 07 02
       -0.07279882 0.061598998 -0.10639827 -0.027999545 0.07279882 -0.11199818 0.016799727 -0.011199818 0.07279882 0.06719891 0.005599909 0.11199818 0.07839873 0.016799727 0.039199363 0.011199818
000060 0c fe 06 02 07 f3 04 e8 fb e3 08 21 fe f3 04 0d
       0.06719891 -0.011199818 0.033599455 0.011199818 0.039199363 -0.07279882 0.022399636 -0.13439782 -0.027999545 -0.16239735 0.044799272 0.184797 -0.011199818 -0.07279882 0.022399636 0.07279882
000070 ec ea f8 f7 08 0a ea f7 f3 fb 0e 07 0a 04 04 fc
       -0.11199818 -0.123197995 -0.044799272 -0.05039918 0.044799272 0.05599909 -0.123197995 -0.05039918 -0.07279882 -0.027999545 0.07839873 0.039199363 0.05599909 0.022399636 0.022399636 -0.022399636
000080 0f f9 06 0d 00 0d 04 11 03 0f fe 01 f9 0e f4 07
       0.083998635 -0.039199363 0.033599455 0.07279882 0.0 0.07279882 0.022399636 0.09519845 0.016799727 0.083998635 -0.011199818 0.005599909 -0.039199363 0.07839873 -0.06719891 0.039199363
000090 fe fe 01 fb fb f7 f7 02 0a fe 0c f7 03 05 00 0a
       -0.011199818 -0.011199818 0.005599909 -0.027999545 -0.027999545 -0.05039918 -0.05039918 0.011199818 0.05599909 -0.011199818 0.06719891 -0.05039918 0.016799727 0.027999545 0.0 0.05599909
0000a0 f7 f7 ec fa 14 04 03 0e 07 03 fe 0a 00 0e 02 07
       -0.05039918 -0.05039918 -0.11199818 -0.033599455 0.11199818 0.022399636 0.016799727 0.07839873 0.039199363 0.016799727 -0.011199818 0.05599909 0.0 0.07839873 0.011199818 0.039199363
0000b0 fd 03 f8 f0 10 f7 f7 05 03 03 06 f5 f2 f3 f5 f3
       -0.016799727 0.016799727 -0.044799272 -0.089598544 0.089598544 -0.05039918 -0.05039918 0.027999545 0.016799727 0.016799727 0.033599455 -0.061598998 -0.07839873 -0.07279882 -0.061598998 -0.07279882
0000c0 00 f6 f2 ff fe ff 03 ff 08 fd f2 f1 01 f8 ff f9
       0.0 -0.05599909 -0.07839873 -0.005599909 -0.011199818 -0.005599909 0.016799727 -0.005599909 0.044799272 -0.016799727 -0.07839873 -0.083998635 0.005599909 -0.044799272 -0.005599909 -0.039199363
0000d0 05 f8 fe f1 01 0b fd 01 01 f4 03 f8 0b 1b 07 fb
       0.027999545 -0.044799272 -0.011199818 -0.083998635 0.005599909 0.061598998 -0.016799727 0.005599909 0.005599909 -0.06719891 0.016799727 -0.044799272 0.061598998 0.15119754 0.039199363 -0.027999545
0000e0 f4 0c 00 0b fa f8 00 fd ff 06 02 f0 ff 00 02 fe
       -0.06719891 0.06719891 0.0 0.061598998 -0.033599455 -0.044799272 0.0 -0.016799727 -0.005599909 0.033599455 0.011199818 -0.089598544 -0.005599909 0.0 0.011199818 -0.011199818
0000f0 f9 01 03 00 08 04 05 06 02 f6 f7 fd 06 04 f0 fb
       -0.039199363 0.005599909 0.016799727 0.0 0.044799272 0.022399636 0.027999545 0.033599455 0.011199818 -0.05599909 -0.05039918 -0.016799727 0.033599455 0.022399636 -0.089598544 -0.027999545

sequential/lstm/while/lstm_cell/MatMul i1 [512, 297] scale=0.00785186 zero_point=0
000000 fa 03 00 08 01 fe f9 0c 0c fd f1 0b 01 f9 f4 fe
       -0.047111157 0.023555579 0.0 0.06281488 0.00785186 -0.01570372 -0.054963015 0.094222315 0.094222315 -0.023555579 -0.11777789 0.08637045 0.00785186 -0.054963015 -0.094222315 -0.01570372
000010 05 04 f9 fb fd 07 03 09 0a f9 03 f9 0e 01 02 ff
       0.0392593 0.03140744 -0.054963015 -0.0392593 -0.023555579 0.054963015 0.023555579 0.07066674 0.0785186 -0.054963015 0.023555579 -0.054963015 0.10992603 0.00785186 0.01570372 -0.00785186
000020 fb 04 f6 09 f9 fb 0a 03 fc 0b 03 07 fc 09 0a 09
       -0.0392593 0.03140744 -0.0785186 0.07066674 -0.054963015 -0.0392593 0.0785186 0.023555579 -0.03140744 0.08637045 0.023555579 0.054963015 -0.03140744 0.07066674 0.0785186 0.07066674
000030 0f fc 01 0d 0d f8 03 00 0b 00 09 08 0e f7 06 0b
       0.11777789 -0.03140744 0.00785186 0.102074176 0.102074176 -0.06281488 0.023555579 0.0 0.08637045 0.0 0.07066674 0.06281488 0.10992603 -0.07066674 0.047111157 0.08637045
000040 01 01 f9 0d 01 fe 0d 0e 0e 03 08 0c fc 07 03 06
       0.00785186 0.00785186 -0.054963015 0.102074176 0.00785186 -0.01570372 0.102074176 0.10992603 0.10992603 0.023555579 0.06281488 0.094222315 -0.03140744 0.054963015 0.023555579 0.047111157
000050 07 fa 06 fb 03 05 f7 fb f7 f7 4c f3 fc f6 33 f6
       0.054963015 -0.047111157 0.047111157 -0.0392593 0.023555579 0.0392593 -0.07066674 -0.0392593 -0.07066674 -0.07066674 0.5967413 -0.102074176 -0.03140744 -0.0785186 0.40044484 -0.0785186
000060 f3 fd 25 01 f8 fc 2a 08 ff f7 1a f6 01 03 08 01
       -0.102074176 -0.023555579 0.2905188 0.00785186 -0.06281488 -0.03140744 0.3297781 0.06281488 -0.00785186 -0.07066674 0.20414835 -0.0785186 0.00785186 0.023555579 0.06281488 0.00785186
000070 f5 04 fe 06 f6 07 0b f2 fe f3 04 f3 03 fe 0b f3
       -0.08637045 0.03140744 -0.01570372 0.047111157 -0.0785186 0.054963015 0.08637045 -0.10992603 -0.01570372 -0.102074176 0.03140744 -0.102074176 0.023555579 -0.01570372 0.08637045 -0.102074176
000080 f2 05 01 f4 f7 00 0f f6 f9 fc 02 f4 01 07 08 fe
       -0.10992603 0.0392593 0.00785186 -0.094222315 -0.07066674 0.0 0.11777789 -0.0785186 -0.054963015 -0.03140744 0.01570372 -0.094222315 0.00785186 0.054963015 0.06281488 -0.01570372
000090 fe 06 02 fe fe f6 0e fc ff 05 10 f6 fa 08 0d f3
       -0.01570372 0.047111157 0.01570372 -0.01570372 -0.01570372 -0.0785186 0.10992603 -0.03140744 -0.00785186 0.0392593 0.12562975 -0.0785186 -0.047111157 0.06281488 0.102074176 -0.102074176
0000a0 ff fb 13 06 06 03 0a 08 f8 ff ff fe fe f8 ff fb
       -0.00785186 -0.0392593 0.14918533 0.047111157 0.047111157 0.023555579 0.0785186 0.06281488 -0.06281488 -0.00785186 -0.00785186 -0.01570372 -0.01570372 -0.06281488 -0.00785186 -0.0392593
0000b0 ff f7 f9 f9 05 00 fa fe 0a ff 12 00 07 0a 00 02
       -0.00785186 -0.07066674 -0.054963015 -0.054963015 0.0392593 0.0 -0.047111157 -0.01570372 0.0785186 -0.00785186 0.14133348 0.0 0.054963015 0.0785186 0.0 0.01570372
0000c0 02 05 f7 09 00 01 fa 01 f9 00 ff 07 03 00 fa fb
       0.01570372 0.0392593 -0.07066674 0.07066674 0.0 0.00785186 -0.047111157 0.00785186 -0.054963015 0.0 -0.00785186 0.054963015 0.023555579 0.0 -0.047111157 -0.0392593
0000d0 0d 05 fc 05 03 f8 05 fc 06 06 00 fe fb 0c ff ff
       0.102074176 0.0392593 -0.03140744 0.0392593 0.023555579 -0.06281488 0.0392593 -0.03140744 0.047111157 0.047111157 0.0 -0.01570372 -0.0392593 0.094222315 -0.00785186 -0.00785186
0000e0 0c 0b f3 05 fa 09 03 f9 fe 06 fa 07 f9 fb ff 01
       0.094222315 0.08637045 -0.102074176 0.0392593 -0.047111157 0.07066674 0.023555579 -0.054963015 -0.01570372 0.047111157 -0.047111157 0.054963015 -0.054963015 -0.0392593 -0.00785186 0.00785186
0000f0 10 f9 fc 06 fe 0b 10 02 fb 06 f1 0a 0c 06 0d fc
       0.12562975 -0.054963015 -0.03140744 0.047111157 -0.01570372 0.08637045 0.12562975 0.01570372 -0.0392593 0.047111157 -0.11777789 0.0785186 0.094222315 0.047111157 0.102074176 -0.03140744
