tensorflow_lite/sign_language_detect_model.tflite (tflite, 554608 bytes, 8 tensors)

sequential/lstm/Read_2/ReadVariableOp f4 [1024]
000000 01 d2 35 3c 37 9d 7c 3b 45 b2 be bb 6a 02 5a 3c
       0.011097432 0.0038545856 -0.005819591 0.01330624
000010 16 ba a4 3b b0 e4 0d 3c eb 95 7f 3b cd 5d 5b 3c
       0.005027066 0.00866048 0.003899927 0.013389063
000020 68 4f 81 3a 52 d5 f9 bb 2e 8f 6d bc 5e c4 bf 3a
       0.0009865584 -0.0076243067 -0.014499469 0.0014630666
000030 e8 88 18 3c 6f c0 e2 3c c0 c8 eb 3a 7b 61 1e 3c
       0.009309985 0.02767965 0.0017988905 0.009666796
000040 80 1b 36 bc 36 6e 2e 3d 64 31 ff 3b 28 48 d4 3c
       -0.011114955 0.042585574 0.0077878702 0.025913313
000050 f2 f6 61 3b 1f 40 9d 3c 53 65 12 3c 32 56 80 3c
       0.0034479466 0.019195614 0.00893529 0.015666101
000060 4a fc cd 3b 96 76 6a bc a1 21 11 3d 43 ac 73 3c
       0.0062861787 -0.0143105 0.03543246 0.014872613
000070 f0 ce 84 b9 8e 8f 2d 3c dc 34 e3 bc 0a ad 9f bc
       -0.00025331182 0.010593308 -0.027735166 -0.019491691
000080 e0 de eb bb c6 06 a4 bb 59 48 b0 3c 0e 03 a8 bc
       -0.0071981996 -0.0050056903 0.021518873 -0.02050927
000090 e5 45 07 bc e4 3b 08 bc e7 9f 51 3c 7d 06 0f 3d
       -0.00825641 -0.00831506 0.012794471 0.034918297
0000a0 c6 e4 ae 3c 3e 8f 0b 3b 91 78 20 3d f8 9c 5d bc
       0.021349322 0.0021295096 0.03917748 -0.013526194
0000b0 a1 92 d9 3b 60 0d e2 bb 79 44 40 bc b0 d6 1e bc
       0.006639794 -0.006898567 -0.011735075 -0.00969474
0000c0 e3 5f 70 bc 4e 21 f8 bb 30 47 1f bc bd 00 40 bb
       -0.014671299 -0.0075723296 -0.009721562 -0.0029297315
0000d0 40 3a c7 3c b4 8f cc 3a bc 9d 92 3b 2d 8b 6d bc
       0.024319768 0.0015606792 0.00447437 -0.014498514
0000e0 2a 0d ef bb db 9e ac 3c 7b f2 21 3c 8e 6e b6 3c
       -0.0072952705 0.021071842 0.009884472 0.022269513
0000f0 55 c8 6c 3c 29 b9 e8 bb 9c 98 57 bc e1 01 c2 bb
       0.01445206 -0.007102151 -0.0131589435 -0.005920634
000100 ef 12 70 bc f0 35 cf bb b0 a9 c2 bc f4 ad 78 3b
       -0.014652952 -0.0063235685 -0.023762554 0.003794548
000110 20 1c 32 3a ac 6b 3c 3c 1e 5f c5 3b 75 f8 09 bb
       0.0006794352 0.01150028 0.0060233017 -0.0021052633
000120 27 7a 7c bc 0d 34 73 3c 14 3a 14 bc bc 24 cd bb
       -0.015409983 0.014843953 -0.00904705 -0.0062604826
000130 63 99 f7 bb f2 ba a6 bb 9d 46 19 bc 34 17 8c 3b
       -0.007556127 -0.0050882036 -0.009355214 0.004275227
000140 27 e5 14 bc 6d d4 fc bb d9 c5 ce 3a 15 27 4c bc
       -0.009087837 -0.007715753 0.0015775516 -0.01246049
000150 c1 60 eb 3b 04 a4 4c 3c 12 15 76 3c ec 49 33 3c
       0.007183165 0.012490276 0.015019672 0.010942917
000160 6b 3a b6 3b ca dd 01 3c 66 2a 22 bb 74 22 30 bc
       0.005561163 0.007926414 -0.002474451 -0.010750402
000170 00 19 08 3d d9 ca d2 3b df ff ba 3a 09 fd 40 3b
       0.033226967 0.0064328727 0.0014266929 0.0029447696
000180 e4 7d b3 3b ae e9 68 3a 4c ea 0a 3b 22 40 1d bb
       0.005477654 0.00088849186 0.002119678 -0.0023994525
000190 d2 a6 e8 bc 18 0a 90 bc 69 be 98 3c 45 12 0f 3b
       -0.028399859 -0.017582938 0.018645482 0.0021830958
0001a0 c7 44 c3 3a 11 76 bc bb 82 b4 12 bc 21 46 64 3c
       0.0014897817 -0.0057513793 -0.008954169 0.013932736
0001b0 1d 83 dc 3b 06 12 87 3b a9 78 73 bc 69 d7 2e bc
       0.006729497 0.0041220216 -0.014860311 -0.010671475
0001c0 f4 62 6e bc 6f 74 b0 3c 7e 9c f8 3a 31 5f bf bb
       -0.014549959 0.021539895 0.0018967537 -0.005840205
0001d0 90 8b 85 3c d9 6b 0c 3c 41 5a f8 bb a7 4e 20 3c
       0.0163019 0.008570635 -0.0075791185 0.009784377
0001e0 9a 18 9a bb 31 2a 89 3b f2 25 d4 bb 2d e6 3d ba
       -0.0047026398 0.004185938 -0.00647425 -0.00072440767
0001f0 0b 1e 15 3c a1 c1 9e 3c 1a 23 75 3c 85 1c 0d bc
       0.009101401 0.019379439 0.014961982 -0.008612757
000200 7f b4 0a bc 99 79 04 bb 42 63 a7 3c 95 e5 ea bb
       -0.008465885 -0.002021408 0.020433072 -0.0071684816
000210 1f 2a af bc 7c 2e 8e bc 1d bb 46 3c 44 7f 88 3c
       -0.02138239 -0.01735615 0.012129572 0.016662247
000220 9d ce fa 3c 30 fd a7 bb 81 86 e9 3c 83 9d 9b 3c
       0.030616099 -0.005126618 0.02850652 0.018996006
000230 e3 cc 57 3b d1 3d 00 3c 1e f6 80 bc be 37 d7 bb
       0.0032928518 0.007827238 -0.015742358 -0.0065679243
000240 8b e7 9c 3b c8 dc 4b bb ca c0 bd bb 6b 55 75 3c
       0.0047883443 -0.0031106938 -0.0057908045 0.0149739785
000250 2e a4 46 3a 78 62 95 3c b3 f7 f8 3b 2f 6f ad bb
       0.0007577565 0.01823543 0.0075978874 -0.005292795
000260 ce 1f 97 3b dc 31 18 3c 2e 20 b5 3c ce 6f 2b 3b
       0.0046119457 0.009289231 0.022110071 0.002615917
000270 c7 55 0b bc 56 fd 04 3c 67 d9 85 bc 77 75 37 bc
       -0.008504338 0.008117041 -0.016339017 -0.011197439
000280 7a 42 44 3c 99 76 dd 3b e7 43 49 bb 78 1a ef bb
       0.01197874 0.0067585227 -0.003071064 -0.0072968565
000290 c6 4e 84 3b 69 aa b5 3b 3f 8e 26 3c 0e 2f a3 3c
       0.004037711 0.005543996 0.01016575 0.019919898
0002a0 11 7d 2e bc fa ed 3b bb 5e b7 94 3c 61 83 c9 bb
       -0.010649935 -0.002867578 0.018153843 -0.006149695
0002b0 85 bc 65 3b e2 70 04 bc 16 e9 a6 bb b0 d8 e1 bb
       0.0035054993 -0.008083554 -0.005093704 -0.0068922862
0002c0 63 72 21 ba a6 67 65 bb 36 13 f4 bb 0e 09 d2 3b
       -0.00061587075 -0.0035004406 -0.007448579 0.006409771
0002d0 ba 41 bb 3b 4a ed cc 3b 29 26 5d bb c1 98 32 3c
       0.0057146223 0.006253873 -0.003374467 0.010900677
0002e0 a9 3b 37 bc 9e 4f c6 bb cc 2b 4f bb 1a 05 86 bb
       -0.011183658 -0.0060519716 -0.0031611798 -0.0040899636
0002f0 d2 28 7e bc 79 a5 4c 3c c2 ab b7 bb 83 e4 b8 ba
       -0.015512662 0.012490624 -0.005605192 -0.0014106188
000300 f3 20 8d bc c0 ff be 3c 2e 9d 13 3c 9a 5c 64 3c
       -0.017227625 0.02331531 0.0090096425 0.013938094
000310 e0 cb c4 3b f9 ae 9b bc b5 09 af 3b 1f d9 74 bc
       0.006005749 -0.019004332 0.0053417333 -0.014944344
000320 18 54 c7 39 dc fa a7 bc 61 87 5d bc 34 57 47 3c
       0.00038018893 -0.020505361 -0.013521046 0.012166787
000330 82 72 2b 3b 07 48 9b bc ee 40 cc bb 5d 6f f8 bb
       0.0026160781 -0.018955244 -0.006233326 -0.007581635
000340 53 9b 09 bc 4f 64 3e 3a 3d af ee 39 76 ae 04 bc
       -0.008398849 0.0007262872 0.0004552546 -0.008098235
000350 96 e1 23 ba 17 77 37 3c 43 08 3e 3c 6f 1e 7f 3b
       -0.00062515715 0.011197827 0.011598649 0.0038928052
000360 ad 78 0e 3b 10 93 b5 3c 8d 61 46 3c c7 7b 10 bc
       0.002173941 0.022164851 0.012108219 -0.008818573
000370 cf d7 21 3c a7 87 37 3c c5 4e 1e bc ed 53 4c 3c
       0.009878113 0.011201776 -0.009662335 0.012471181
000380 4e 0e 1c 3c 37 d1 48 3b d9 1c 9e bb 4a 64 13 3c
       0.009524895 0.003064228 -0.0048252163 0.008996079
000390 6a d6 ff 3a 3f 7b 05 bc 79 77 d7 bb de 59 1e 3c
       0.0019518856 -0.00814706 -0.0065755215 0.009664981
0003a0 c0 fb f3 3b 07 06 09 bc f6 f7 1c 3a 38 3e 0f 3c
       0.0074457824 -0.008363253 0.0005987877 0.008742861
0003b0 70 6f 45 3a b5 56 b2 3b 38 c3 c9 bc fa a8 0a bc
       0.0007531559 0.005442465 -0.02462922 -0.008463139
0003c0 f0 eb b7 bb 5a ee 91 3c d4 21 25 3c e4 7a 27 3c
       -0.0056128427 0.01781385 0.010078866 0.0102221705
0003d0 09 32 e9 bb 6b 98 5c 3c c3 da 12 3c d8 1e ab bb
       -0.0071165604 0.013464074 0.00896329 -0.0052221827
0003e0 e8 5f 24 3c a7 04 28 3c a7 e4 41 bc f5 a9 92 bb
       0.010032631 0.010255015 -0.0118343 -0.004475827
0003f0 e8 08 5d bb 00 94 17 3c 5d dc 2b bc a3 76 b4 3c
       -0.0033727232 0.009251595 -0.01048955 0.022029227

sequential/dense/BiasAdd/ReadVariableOp f4 [128]
000000 ca bc db 3c 37 8a cd 3c 8f 0c 8b 3c d5 44 08 3d
       0.02682342 0.02509032 0.016973762 0.03326877
000010 32 83 13 3d 6f 75 ad 3b d6 82 28 3d b5 29 ec 3c
       0.03601379 0.00529354 0.0411404 0.028828481
000020 e3 45 a4 3c 91 59 0e 3d f4 13 9b 3c e5 f4 d3 3c
       0.020052856 0.034753386 0.018930413 0.02587361
000030 6f 34 53 bc 91 15 e2 ba b0 30 a2 bb 1f 6e 0d 3d
       -0.012890919 -0.0017248859 -0.0049496517 0.034528848
000040 7c ec fb 3c 61 df b6 3c 8c 27 b9 3c 7e e6 b9 3c
       0.030752413 0.022323312 0.022601865 0.022692915
000050 97 01 e6 3c 6b f8 ad 3c 3c 87 b0 3c c9 48 85 3c
       0.02807693 0.021236619 0.02154886 0.016270058
000060 f3 d9 13 3d 0b c4 1c 3c 0c 1c 86 3c 80 14 5e 3d
       0.036096524 0.009568225 0.016370796 0.05421877
000070 fd 88 ac 3c 44 b1 6a 3c 74 fe 2a 3d 05 59 21 3b
       0.021061415 0.01432449 0.04174657 0.002461971
000080 1a 96 1b 3d b4 dd 3f 3d 4f f3 ce 3c 5e 97 45 3d
       0.037984945 0.046842292 0.025262503 0.048240058
000090 b2 26 31 3c 6c f7 16 3c 27 81 4a 3d 8a 66 9e 3c
       0.010812448 0.009214263 0.049439576 0.019336004
0000a0 47 42 2e 3d 60 9f f9 3c 36 4e b0 3c 20 c2 d3 3c
       0.042543676 0.030471504 0.021521669 0.025849402
0000b0 26 10 97 3a 60 1f 56 bb 9b c3 ac 3c 8b 3a 82 3c
       0.0011525198 -0.003267251 0.021089366 0.015897056
0000c0 b5 8f 0c 3d 12 b9 08 3d 81 b2 ea 3c bb 59 f9 3c
       0.034316737 0.03337962 0.02864957 0.030438295
0000d0 2b f3 b1 3c f2 8e 18 3d 17 46 da 3c 79 50 9a 3c
       0.021722397 0.0372457 0.02664475 0.0188372
0000e0 d5 04 e7 3c d5 08 7c bb fb 38 8f 3c a2 d2 02 3d
       0.028200546 -0.0038457413 0.017483225 0.031939156
0000f0 31 0b 3c 3d 08 fe e8 3c c4 c8 b2 3c b1 6e 91 3c
       0.04590911 0.028441444 0.021824248 0.017752977
000100 c4 a9 5e 3c c9 1c 34 3d d6 cb 0a 3d a4 1f ae bc
       0.01359028 0.043972764 0.0338858 -0.021255322
000110 0a e6 6b 3c 9d 90 38 3a 94 4f 9e 3c 94 19 31 3d
       0.014398107 0.0007040592 0.019325055 0.043237284
000120 e6 55 cf 3c 52 fb 73 3c 31 df 96 3c 94 e3 cb 3c
       0.025309514 0.014891462 0.018416973 0.024888791
000130 29 92 61 3c ae 14 7e 3c dc ca a7 3c c1 82 e9 3c
       0.013767757 0.01550786 0.020482473 0.028504731
000140 1b 67 3e 3c e9 d8 22 3d b2 7c 3f 3d ad 51 40 3d
       0.011621262 0.039757643 0.046749778 0.046952892
000150 94 bc e6 3c 3f 73 21 39 14 1b 0c 3d 51 b5 b4 3c
       0.028166093 0.00015397089 0.03420551 0.022059115
000160 14 d4 29 3c 3d 6a 3a 3d d6 64 a3 3c 7c 83 14 3d
       0.010365505 0.045511473 0.019945543 0.036258206
000170 55 7f 4c 3c 77 39 1e 3d cf 64 84 3c 8b 9f c9 3c
       0.01248153 0.03862902 0.01616135 0.024612209
000180 91 30 3f 3c 40 a3 ea 3c d7 7e 1b 3d d5 ba 17 3c
       0.011669294 0.028642297 0.03796276 0.009260853
000190 ba 35 78 3d ea 16 ed 3c 47 3f 44 3d 3a 9b 52 3c
       0.060598113 0.02894159 0.04791191 0.012854392
0001a0 cf 5d 47 3d da a1 fe 3c 4a 3a 81 3b d2 b1 c7 3c
       0.048673447 0.031083036 0.003943716 0.024376784
0001b0 c6 49 6c 3c f1 36 fe 3c 32 e8 b4 3c 13 b0 9a 3c
       0.014421886 0.031032057 0.022083376 0.018882787
0001c0 0e 85 23 3d e9 e8 05 3d 51 9e 37 3d af a4 22 3c
       0.039921813 0.032692824 0.044828717 0.009926959
0001d0 3f 4c db 3c 5d 0c 07 3d 64 51 bf 3c ef e7 9b 3c
       0.026769755 0.032970775 0.02335424 0.019031493
0001e0 8c 84 be 3c c1 36 5e 3d 86 61 60 3d 26 01 93 3c
       0.023256563 0.054251436 0.054780506 0.017944884
0001f0 ac 4d 15 3d fb 0e aa 3c 46 7e 3e 3d ce 5f 74 3d
       0.036451027 0.020759096 0.046507142 0.05966168

sequential/dense_1/BiasAdd/ReadVariableOp f4 [10]
000000 fc 02 75 bc 41 5d f7 3b be ff 02 bd e6 59 58 ba
       -0.014954325 0.0075489585 -0.031982176 -0.0008253142
000010 56 b7 09 bc 27 84 96 3c a9 be 55 bc db ed 0e 3c
       -0.008405527 0.018373562 -0.013045945 0.008723701
000020 7c 8a 14 3c 90 7f b8 3b
       0.00906622 0.005630441

sequential/dense/MatMul i1 [128, 256] scale=0.002162065 zero_point=0
000000 28 14 f1 da 0f f9 f1 36 c2 fa 21 08 44 f8 38 fe
       0.0864826 0.0432413 -0.032430973 -0.08215847 0.032430973 -0.015134454 -0.032430973 0.11675151 -0.13404803 -0.012972389 0.07134814 0.01729652 0.14702041 -0.01729652 0.12107563 -0.00432413
000010 0b 14 e8 f7 12 df bf 3e e3 ff d8 dd 3a 1f ed d9
       0.023782713 0.0432413 -0.051889557 -0.019458584 0.03891717 -0.07134814 -0.14053422 0.13404803 -0.062699884 -0.002162065 -0.0864826 -0.07567227 0.12539977 0.067024015 -0.041079234 -0.08432053
000020 1d 0b 0b 00 22 2f 0e 2d 1c ea fd 39 3b 22 fd 3a
       0.062699884 0.023782713 0.023782713 0.0 0.07351021 0.10161705 0.030268908 0.09729292 0.060537815 -0.047565427 -0.0064861947 0.1232377 0.12756182 0.07351021 -0.0064861947 0.12539977
000030 4b 2a cd 30 ca 25 0a e2 2c 01 00 d4 d9 1f 05 2c
       0.16215487 0.09080672 -0.11026531 0.103779115 -0.11675151 0.0799964 0.02162065 -0.064861946 0.09513085 0.002162065 0.0 -0.09513085 -0.08432053 0.067024015 0.010810325 0.09513085
000040 24 16 4c 03 10 0c f7 29 2b b1 d3 1d 2b d1 ee 3b
       0.07783434 0.047565427 0.16431694 0.0064861947 0.03459304 0.025944779 -0.019458584 0.08864466 0.09296879 -0.17080313 -0.09729292 0.062699884 0.09296879 -0.10161705 -0.03891717 0.12756182
000050 cb 19 00 26 03 3e db da 0f 06 da 43 22 d6 f6 cd
       -0.11458944 0.054051623 0.0 0.08215847 0.0064861947 0.13404803 -0.0799964 -0.08215847 0.032430973 0.012972389 -0.08215847 0.14485835 0.07351021 -0.09080672 -0.02162065 -0.11026531
000060 d9 1e d3 34 e6 23 24 ea 33 fc 0a ef 0d d4 1c d8
       -0.08432053 0.064861946 -0.09729292 0.112427376 -0.056213688 0.07567227 0.07783434 -0.047565427 0.11026531 -0.00864826 0.02162065 -0.036755104 0.028106844 -0.09513085 0.060537815 -0.0864826
000070 f0 0a 24 13 10 17 2a 14 00 f3 f6 29 1b d8 e5 e3
       -0.03459304 0.02162065 0.07783434 0.041079234 0.03459304 0.049727492 0.09080672 0.0432413 0.0 -0.028106844 -0.02162065 0.08864466 0.058375753 -0.0864826 -0.058375753 -0.062699884
000080 e7 26 e3 d3 d8 02 e2 05 01 d7 fd 4e 2c 3b 1c 05
       -0.054051623 0.08215847 -0.062699884 -0.09729292 -0.0864826 0.00432413 -0.064861946 0.010810325 0.002162065 -0.08864466 -0.0064861947 0.16864106 0.09513085 0.12756182 0.060537815 0.010810325
000090 37 d1 d6 e7 36 dd c5 f6 fd ef de 14 17 df 29 ab
       0.11891357 -0.10161705 -0.09080672 -0.054051623 0.11675151 -0.07567227 -0.12756182 -0.02162065 -0.0064861947 -0.036755104 -0.07351021 0.0432413 0.049727492 -0.07134814 0.08864466 -0.18377551
0000a0 30 34 fd 16 d0 dc 27 38 d9 11 d6 b5 5d 09 d8 dd
       0.103779115 0.112427376 -0.0064861947 0.047565427 -0.103779115 -0.07783434 0.08432053 0.12107563 -0.08432053 0.036755104 -0.09080672 -0.16215487 0.20107204 0.019458584 -0.0864826 -0.07567227
0000b0 0f 37 23 be 34 36 22 0f c6 2a cb 0e df 03 09 3e
       0.032430973 0.11891357 0.07567227 -0.14269628 0.112427376 0.11675151 0.07351021 0.032430973 -0.12539977 0.09080672 -0.11458944 0.030268908 -0.07134814 0.0064861947 0.019458584 0.13404803
0000c0 33 07 40 00 ee bb cf e3 e7 d0 3c e9 1b 02 3a 40
       0.11026531 0.015134454 0.13837215 0.0 -0.03891717 -0.14918248 -0.10594118 -0.062699884 -0.054051623 -0.103779115 0.12972389 -0.049727492 0.058375753 0.00432413 0.12539977 0.13837215
0000d0 1a df 10 c9 f2 12 32 35 aa 0b 3e e4 22 2b 36 f7
       0.056213688 -0.07134814 0.03459304 -0.11891357 -0.030268908 0.03891717 0.108103245 0.11458944 -0.18593758 0.023782713 0.13404803 -0.060537815 0.07351021 0.09296879 0.11675151 -0.019458584
0000e0 df 1c 1b c6 f2 f2 1b 23 d8 df 11 3d e8 28 23 26
       -0.07134814 0.060537815 0.058375753 -0.12539977 -0.030268908 -0.030268908 0.058375753 0.07567227 -0.0864826 -0.07134814 0.036755104 0.13188596 -0.051889557 0.0864826 0.07567227 0.08215847
0000f0 e2 0e ec 29 54 24 41 39 0f f6 01 fc 08 f0 23 1b
       -0.064861946 0.030268908 -0.0432413 0.08864466 0.18161345 0.07783434 0.14053422 0.1232377 0.032430973 -0.02162065 0.002162065 -0.00864826 0.01729652 -0.03459304 0.07567227 0.058375753

sequential/dense_1/MatMul i1 [10, 128] scale=0.0028176645 zero_point=0
000000 3f 37 1e 37 25 c8 d0 17 14 bd f5 2a 23 01 c9 d5
       0.17751287 0.15497155 0.08452994 0.15497155 0.10425359 -0.15778922 -0.1352479 0.06480628 0.05635329 -0.18878353 -0.03099431 0.11834191 0.09861826 0.0028176645 -0.15497155 -0.121159576
000010 2e 38 3d 1c b7 fc fd d7 00 b8 25 c5 a3 34 c3 e0
       0.12961257 0.15778922 0.17187753 0.07889461 -0.2056895 -0.011270658 -0.008452994 -0.11552425 0.0 -0.20287184 0.10425359 -0.16624221 -0.2620428 0.14651856 -0.17187753 -0.090165265
000020 51 de 04 22 e1 ed 01 cb 19 ba a3 27 11 bb e3 de
       0.22823083 -0.09580059 0.011270658 0.09580059 -0.0873476 -0.053535625 0.0028176645 -0.14933622 0.07044161 -0.19723652 -0.2620428 0.10988892 0.047900297 -0.19441885 -0.08171227 -0.09580059
000030 ab 21 15 bb c8 38 2e db e7 1b b6 fa da 35 45 ea
       -0.23950149 0.09298293 0.059170954 -0.19441885 -0.15778922 0.15778922 0.12961257 -0.10425359 -0.07044161 0.07607694 -0.20850718 -0.016905988 -0.10707125 0.14933622 0.19441885 -0.06198862
000040 bf 1d 47 a9 36 1e d9 12 1d 0b ed 2d 18 2b bb 25
       -0.18314819 0.08171227 0.20005418 -0.24513681 0.15215388 0.08452994 -0.10988892 0.05071796 0.08171227 0.03099431 -0.053535625 0.1267949 0.06762395 0.121159576 -0.19441885 0.10425359
000050 0a aa fb e1 ef 1b 03 48 d2 29 00 f3 19 2e 3e 08
       0.028176645 -0.24231915 -0.014088322 -0.0873476 -0.047900297 0.07607694 0.008452994 0.20287184 -0.12961257 0.11552425 0.0 -0.03662964 0.07044161 0.12961257 0.1746952 0.022541316
000060 e0 ed 9e 09 b1 c9 30 0c 05 f3 25 b3 08 0d bc 2e
       -0.090165265 -0.053535625 -0.27613112 0.02535898 -0.2225955 -0.15497155 0.1352479 0.033811975 0.014088322 -0.03662964 0.10425359 -0.21696016 0.022541316 0.03662964 -0.19160119 0.12961257
000070 ca 9d c1 bc 56 09 2a 18 17 d9 d3 26 0c da 9e 13
       -0.15215388 -0.27894878 -0.17751287 -0.19160119 0.24231915 0.02535898 0.11834191 0.06762395 0.06480628 -0.10988892 -0.1267949 0.10707125 0.033811975 -0.10707125 -0.27613112 0.053535625
000080 33 c5 14 e5 35 bb eb 2b 24 35 1a e2 2e 05 fa 1b
       0.1437009 -0.16624221 0.05635329 -0.07607694 0.14933622 -0.19441885 -0.059170954 0.121159576 0.10143592 0.14933622 0.07325928 -0.08452994 0.12961257 0.014088322 -0.016905988 0.07607694
000090 34 bb bc f3 d6 b1 51 d4 4a dc 04 58 30 bb dc d4
       0.14651856 -0.19441885 -0.19160119 -0.03662964 -0.11834191 -0.2225955 0.22823083 -0.12397724 0.20850718 -0.10143592 0.011270658 0.24795447 0.1352479 -0.19441885 -0.10143592 -0.12397724
0000a0 1f 9c 11 4d d8 f2 1b c2 0b 37 cc 3d e5 ae 0b 3c
       0.0873476 -0.28176644 0.047900297 0.21696016 -0.11270658 -0.039447304 0.07607694 -0.1746952 0.03099431 0.15497155 -0.14651856 0.17187753 -0.07607694 -0.2310485 0.03099431 0.16905987
0000b0 c7 33 06 3e ee fc ff c1 d2 dd 25 b3 e9 c4 1f a1
       -0.16060688 0.1437009 0.016905988 0.1746952 -0.05071796 -0.011270658 -0.0028176645 -0.17751287 -0.12961257 -0.09861826 0.10425359 -0.21696016 -0.06480628 -0.16905987 0.0873476 -0.26767814
0000c0 1c 03 f7 16 eb e8 33 c4 54 1a 50 18 cc 55 f0 36
       0.07889461 0.008452994 -0.02535898 0.06198862 -0.059170954 -0.06762395 0.1437009 -0.16905987 0.23668382 0.07325928 0.22541316 0.06762395 -0.14651856 0.23950149 -0.045082632 0.15215388
0000d0 14 fc 57 26 e9 1e ab f0 29 2b 25 23 b2 da b3 f9
       0.05635329 -0.011270658 0.24513681 0.10707125 -0.06480628 0.08452994 -0.23950149 -0.045082632 0.11552425 0.121159576 0.10425359 0.09861826 -0.21977784 -0.10707125 -0.21696016 -0.019723652
0000e0 3f 46 02 47 b1 d1 d5 d8 1c 5a ef c9 b4 f3 08 bc
       0.17751287 0.19723652 0.005635329 0.20005418 -0.2225955 -0.13243023 -0.121159576 -0.11270658 0.07889461 0.2535898 -0.047900297 -0.15497155 -0.2141425 -0.03662964 0.022541316 -0.19160119
0000f0 d6 e1 e6 a0 f9 08 fb da ce 48 3a 3b 11 40 b1 4b
       -0.11834191 -0.0873476 -0.07325928 -0.2704958 -0.019723652 0.022541316 -0.014088322 -0.10707125 -0.14088322 0.20287184 0.16342454 0.16624221 0.047900297 0.18033053 -0.2225955 0.21132484

sequential/lstm/Read_2/ReadVariableOp1 f4 [1024]
000000 01 d2 35 3c 37 9d 7c 3b 45 b2 be bb 6a 02 5a 3c
       0.011097432 0.0038545856 -0.005819591 0.01330624
000010 16 ba a4 3b b0 e4 0d 3c eb 95 7f 3b cd 5d 5b 3c
       0.005027066 0.00866048 0.003899927 0.013389063
000020 68 4f 81 3a 52 d5 f9 bb 2e 8f 6d bc 5e c4 bf 3a
       0.0009865584 -0.0076243067 -0.014499469 0.0014630666
000030 e8 88 18 3c 6f c0 e2 3c c0 c8 eb 3a 7b 61 1e 3c
       0.009309985 0.02767965 0.0017988905 0.009666796
000040 80 1b 36 bc 36 6e 2e 3d 64 31 ff 3b 28 48 d4 3c
       -0.011114955 0.042585574 0.0077878702 0.025913313
000050 f2 f6 61 3b 1f 40 9d 3c 53 65 12 3c 32 56 80 3c
       0.0034479466 0.019195614 0.00893529 0.015666101
000060 4a fc cd 3b 96 76 6a bc a1 21 11 3d 43 ac 73 3c
       0.0062861787 -0.0143105 0.03543246 0.014872613
000070 f0 ce 84 b9 8e 8f 2d 3c dc 34 e3 bc 0a ad 9f bc
       -0.00025331182 0.010593308 -0.027735166 -0.019491691
000080 e0 de eb bb c6 06 a4 bb 59 48 b0 3c 0e 03 a8 bc
       -0.0071981996 -0.0050056903 0.021518873 -0.02050927
000090 e5 45 07 bc e4 3b 08 bc e7 9f 51 3c 7d 06 0f 3d
       -0.00825641 -0.00831506 0.012794471 0.034918297
0000a0 c6 e4 ae 3c 3e 8f 0b 3b 91 78 20 3d f8 9c 5d bc
       0.021349322 0.0021295096 0.03917748 -0.013526194
0000b0 a1 92 d9 3b 60 0d e2 bb 79 44 40 bc b0 d6 1e bc
       0.006639794 -0.006898567 -0.011735075 -0.00969474
0000c0 e3 5f 70 bc 4e 21 f8 bb 30 47 1f bc bd 00 40 bb
       -0.014671299 -0.0075723296 -0.009721562 -0.0029297315
0000d0 40 3a c7 3c b4 8f cc 3a bc 9d 92 3b 2d 8b 6d bc
       0.024319768 0.0015606792 0.00447437 -0.014498514
0000e0 2a 0d ef bb db 9e ac 3c 7b f2 21 3c 8e 6e b6 3c
       -0.0072952705 0.021071842 0.009884472 0.022269513
0000f0 55 c8 6c 3c 29 b9 e8 bb 9c 98 57 bc e1 01 c2 bb
       0.01445206 -0.007102151 -0.0131589435 -0.005920634
000100 ef 12 70 bc f0 35 cf bb b0 a9 c2 bc f4 ad 78 3b
       -0.014652952 -0.0063235685 -0.023762554 0.003794548
000110 20 1c 32 3a ac 6b 3c 3c 1e 5f c5 3b 75 f8 09 bb
       0.0006794352 0.01150028 0.0060233017 -0.0021052633
000120 27 7a 7c bc 0d 34 73 3c 14 3a 14 bc bc 24 cd bb
       -0.015409983 0.014843953 -0.00904705 -0.0062604826
000130 63 99 f7 bb f2 ba a6 bb 9d 46 19 bc 34 17 8c 3b
       -0.007556127 -0.0050882036 -0.009355214 0.004275227
000140 27 e5 14 bc 6d d4 fc bb d9 c5 ce 3a 15 27 4c bc
       -0.009087837 -0.007715753 0.0015775516 -0.01246049
000150 c1 60 eb 3b 04 a4 4c 3c 12 15 76 3c ec 49 33 3c
       0.007183165 0.012490276 0.015019672 0.010942917
000160 6b 3a b6 3b ca dd 01 3c 66 2a 22 bb 74 22 30 bc
       0.005561163 0.007926414 -0.002474451 -0.010750402
000170 00 19 08 3d d9 ca d2 3b df ff ba 3a 09 fd 40 3b
       0.033226967 0.0064328727 0.0014266929 0.0029447696
000180 e4 7d b3 3b ae e9 68 3a 4c ea 0a 3b 22 40 1d bb
       0.005477654 0.00088849186 0.002119678 -0.0023994525
000190 d2 a6 e8 bc 18 0a 90 bc 69 be 98 3c 45 12 0f 3b
       -0.028399859 -0.017582938 0.018645482 0.0021830958
0001a0 c7 44 c3 3a 11 76 bc bb 82 b4 12 bc 21 46 64 3c
       0.0014897817 -0.0057513793 -0.008954169 0.013932736
0001b0 1d 83 dc 3b 06 12 87 3b a9 78 73 bc 69 d7 2e bc
       0.006729497 0.0041220216 -0.014860311 -0.010671475
0001c0 f4 62 6e bc 6f 74 b0 3c 7e 9c f8 3a 31 5f bf bb
       -0.014549959 0.021539895 0.0018967537 -0.005840205
0001d0 90 8b 85 3c d9 6b 0c 3c 41 5a f8 bb a7 4e 20 3c
       0.0163019 0.008570635 -0.0075791185 0.009784377
0001e0 9a 18 9a bb 31 2a 89 3b f2 25 d4 bb 2d e6 3d ba
       -0.0047026398 0.004185938 -0.00647425 -0.00072440767
0001f0 0b 1e 15 3c a1 c1 9e 3c 1a 23 75 3c 85 1c 0d bc
       0.009101401 0.019379439 0.014961982 -0.008612757
000200 7f b4 0a bc 99 79 04 bb 42 63 a7 3c 95 e5 ea bb
       -0.008465885 -0.002021408 0.020433072 -0.0071684816
000210 1f 2a af bc 7c 2e 8e bc 1d bb 46 3c 44 7f 88 3c
       -0.02138239 -0.01735615 0.012129572 0.016662247
000220 9d ce fa 3c 30 fd a7 bb 81 86 e9 3c 83 9d 9b 3c
       0.030616099 -0.005126618 0.02850652 0.018996006
000230 e3 cc 57 3b d1 3d 00 3c 1e f6 80 bc be 37 d7 bb
       0.0032928518 0.007827238 -0.015742358 -0.0065679243
000240 8b e7 9c 3b c8 dc 4b bb ca c0 bd bb 6b 55 75 3c
       0.0047883443 -0.0031106938 -0.0057908045 0.0149739785
000250 2e a4 46 3a 78 62 95 3c b3 f7 f8 3b 2f 6f ad bb
       0.0007577565 0.01823543 0.0075978874 -0.005292795
000260 ce 1f 97 3b dc 31 18 3c 2e 20 b5 3c ce 6f 2b 3b
       0.0046119457 0.009289231 0.022110071 0.002615917
000270 c7 55 0b bc 56 fd 04 3c 67 d9 85 bc 77 75 37 bc
       -0.008504338 0.008117041 -0.016339017 -0.011197439
000280 7a 42 44 3c 99 76 dd 3b e7 43 49 bb 78 1a ef bb
       0.01197874 0.0067585227 -0.003071064 -0.0072968565
000290 c6 4e 84 3b 69 aa b5 3b 3f 8e 26 3c 0e 2f a3 3c
       0.004037711 0.005543996 0.01016575 0.019919898
0002a0 11 7d 2e bc fa ed 3b bb 5e b7 94 3c 61 83 c9 bb
       -0.010649935 -0.002867578 0.018153843 -0.006149695
0002b0 85 bc 65 3b e2 70 04 bc 16 e9 a6 bb b0 d8 e1 bb
       0.0035054993 -0.008083554 -0.005093704 -0.0068922862
0002c0 63 72 21 ba a6 67 65 bb 36 13 f4 bb 0e 09 d2 3b
       -0.00061587075 -0.0035004406 -0.007448579 0.006409771
0002d0 ba 41 bb 3b 4a ed cc 3b 29 26 5d bb c1 98 32 3c
       0.0057146223 0.006253873 -0.003374467 0.010900677
0002e0 a9 3b 37 bc 9e 4f c6 bb cc 2b 4f bb 1a 05 86 bb
       -0.011183658 -0.0060519716 -0.0031611798 -0.0040899636
0002f0 d2 28 7e bc 79 a5 4c 3c c2 ab b7 bb 83 e4 b8 ba
       -0.015512662 0.012490624 -0.005605192 -0.0014106188
000300 f3 20 8d bc c0 ff be 3c 2e 9d 13 3c 9a 5c 64 3c
       -0.017227625 0.02331531 0.0090096425 0.013938094
000310 e0 cb c4 3b f9 ae 9b bc b5 09 af 3b 1f d9 74 bc
       0.006005749 -0.019004332 0.0053417333 -0.014944344
000320 18 54 c7 39 dc fa a7 bc 61 87 5d bc 34 57 47 3c
       0.00038018893 -0.020505361 -0.013521046 0.012166787
000330 82 72 2b 3b 07 48 9b bc ee 40 cc bb 5d 6f f8 bb
       0.0026160781 -0.018955244 -0.006233326 -0.007581635
000340 53 9b 09 bc 4f 64 3e 3a 3d af ee 39 76 ae 04 bc
       -0.008398849 0.0007262872 0.0004552546 -0.008098235
000350 96 e1 23 ba 17 77 37 3c 43 08 3e 3c 6f 1e 7f 3b
       -0.00062515715 0.011197827 0.011598649 0.0038928052
000360 ad 78 0e 3b 10 93 b5 3c 8d 61 46 3c c7 7b 10 bc
       0.002173941 0.022164851 0.012108219 -0.008818573
000370 cf d7 21 3c a7 87 37 3c c5 4e 1e bc ed 53 4c 3c
       0.009878113 0.011201776 -0.009662335 0.012471181
000380 4e 0e 1c 3c 37 d1 48 3b d9 1c 9e bb 4a 64 13 3c
       0.009524895 0.003064228 -0.0048252163 0.008996079
000390 6a d6 ff 3a 3f 7b 05 bc 79 77 d7 bb de 59 1e 3c
       0.0019518856 -0.00814706 -0.0065755215 0.009664981
0003a0 c0 fb f3 3b 07 06 09 bc f6 f7 1c 3a 38 3e 0f 3c
       0.0074457824 -0.008363253 0.0005987877 0.008742861
0003b0 70 6f 45 3a b5 56 b2 3b 38 c3 c9 bc fa a8 0a bc
       0.0007531559 0.005442465 -0.02462922 -0.008463139
0003c0 f0 eb b7 bb 5a ee 91 3c d4 21 25 3c e4 7a 27 3c
       -0.0056128427 0.01781385 0.010078866 0.0102221705
0003d0 09 32 e9 bb 6b 98 5c 3c c3 da 12 3c d8 1e ab bb
       -0.0071165604 0.013464074 0.00896329 -0.0052221827
0003e0 e8 5f 24 3c a7 04 28 3c a7 e4 41 bc f5 a9 92 bb
       0.010032631 0.010255015 -0.0118343 -0.004475827
0003f0 e8 08 5d bb 00 94 17 3c 5d dc 2b bc a3 76 b4 3c
       -0.0033727232 0.009251595 -0.01048955 0.022029227

while/MatMul_11 i1 [1024, 256] scale=0.0019174152 zero_point=0
000000 11 47 00 f6 0c fa e5 f3 eb ec f4 22 0a f8 e3 16
       0.03259606 0.13613647 0.0 -0.019174151 0.023008982 -0.011504491 -0.05177021 -0.024926398 -0.04026572 -0.038348302 -0.023008982 0.06519212 0.019174151 -0.015339321 -0.05560504 0.042183135
000010 de f8 fc e4 d7 e2 cf d7 23 04 e5 f3 24 11 14 04
       -0.06519212 -0.015339321 -0.0076696607 -0.053687625 -0.07861402 -0.057522457 -0.09395334 -0.07861402 0.06710953 0.0076696607 -0.05177021 -0.024926398 0.06902695 0.03259606 0.038348302 0.0076696607
000020 03 df ff 13 1d 2d e8 05 f1 18 24 11 0c f2 0d 28
       0.0057522454 -0.063274704 -0.0019174152 0.036430888 0.05560504 0.086283684 -0.046017963 0.009587076 -0.028761229 0.046017963 0.06902695 0.03259606 0.023008982 -0.026843812 0.024926398 0.076696604
000030 0a f4 11 28 1f f1 0b 06 1a f1 27 18 c9 e5 bd e8
       0.019174151 -0.023008982 0.03259606 0.076696604 0.05943987 -0.028761229 0.021091567 0.011504491 0.049852796 -0.028761229 0.07477919 0.046017963 -0.105457835 -0.05177021 -0.12846681 -0.046017963
000040 18 f0 e9 fe 11 03 22 f5 d5 25 0d 3f e7 ff ef ec
       0.046017963 -0.030678643 -0.04410055 -0.0038348304 0.03259606 0.0057522454 0.06519212 -0.021091567 -0.082448855 0.07094436 0.024926398 0.12079716 -0.047935378 -0.0019174152 -0.03259606 -0.038348302
000050 c1 e8 03 ed cf f3 23 1b cc 42 af 0b 01 1c 0f 04
       -0.12079716 -0.046017963 0.0057522454 -0.036430888 -0.09395334 -0.024926398 0.06710953 0.05177021 -0.09970559 0.12654941 -0.15531063 0.021091567 0.0019174152 0.053687625 0.028761229 0.0076696607
000060 45 fc bf 03 29 02 e5 e8 1b 1f b7 06 fb 30 1b 05
       0.13230164 -0.0076696607 -0.124631986 0.0057522454 0.07861402 0.0038348304 -0.05177021 -0.046017963 0.05177021 0.05943987 -0.1399713 0.011504491 -0.009587076 0.09203593 0.05177021 0.009587076
000070 0a e5 ed 05 e8 21 30 d8 1e 15 db 03 4b 02 1b cc
       0.019174151 -0.05177021 -0.036430888 0.009587076 -0.046017963 0.063274704 0.09203593 -0.076696604 0.057522457 0.04026572 -0.07094436 0.0057522454 0.14380614 0.0038348304 0.05177021 -0.09970559
000080 27 f5 04 28 de fc e3 3d 2d ef 2b 0f f8 21 e7 12
       0.07477919 -0.021091567 0.0076696607 0.076696604 -0.06519212 -0.0076696607 -0.05560504 0.11696233 0.086283684 -0.03259606 0.082448855 0.028761229 -0.015339321 0.063274704 -0.047935378 0.034513474
000090 e7 fd 00 eb 25 1c 22 3c 17 f8 f2 f1 18 e4 0e 11
       -0.047935378 -0.0057522454 0.0 -0.04026572 0.07094436 0.053687625 0.06519212 0.115044914 0.04410055 -0.015339321 -0.026843812 -0.028761229 0.046017963 -0.053687625 0.026843812 0.03259606
0000a0 22 da f4 22 e6 2a eb e1 f3 0c 02 fc e4 d9 d1 cd
       0.06519212 -0.072861776 -0.023008982 0.06519212 -0.049852796 0.08053144 -0.04026572 -0.05943987 -0.024926398 0.023008982 0.0038348304 -0.0076696607 -0.053687625 -0.07477919 -0.09011851 -0.09778818
0000b0 08 2b f1 eb 0e e9 f8 c1 d9 eb ff 32 03 fd f4 f5
       0.015339321 0.082448855 -0.028761229 -0.04026572 0.026843812 -0.04410055 -0.015339321 -0.12079716 -0.07477919 -0.04026572 -0.0019174152 0.095870756 0.0057522454 -0.0057522454 -0.023008982 -0.021091567
0000c0 f1 f6 e3 18 15 07 e4 ec be f6 de 23 fb 22 17 05
       -0.028761229 -0.019174151 -0.05560504 0.046017963 0.04026572 0.013421906 -0.053687625 -0.038348302 -0.12654941 -0.019174151 -0.06519212 0.06710953 -0.009587076 0.06519212 0.04410055 0.009587076
0000d0 ee 14 f6 ef 2a f7 14 02 05 e4 10 e8 d9 e1 18 e1
       -0.034513474 0.038348302 -0.019174151 -0.03259606 0.08053144 -0.017256737 0.038348302 0.0038348304 0.009587076 -0.053687625 0.030678643 -0.046017963 -0.07477919 -0.05943987 0.046017963 -0.05943987
0000e0 10 2e fe dc 1c 0c c2 ff dc f2 ed ea ee ae f4 1a
       0.030678643 0.0882011 -0.0038348304 -0.06902695 0.053687625 0.023008982 -0.11887974 -0.0019174152 -0.06902695 -0.026843812 -0.036430888 -0.042183135 -0.034513474 -0.15722804 -0.023008982 0.049852796
0000f0 15 ec 14 ea 1d f5 ee f5 f8 0f 1f f0 fc 19 07 00
       0.04026572 -0.038348302 0.038348302 -0.042183135 0.05560504 -0.021091567 -0.034513474 -0.021091567 -0.015339321 0.028761229 0.05943987 -0.030678643 -0.0076696607 0.047935378 0.013421906 0.0

while/MatMul i1 [1024, 234] scale=0.0021248355 zero_point=0
000000 f4 0a 1b e9 ea a5 f1 fd e6 05 05 c2 1c e6 d8 10
       -0.025498025 0.021248356 0.05737056 -0.048871215 -0.04674638 -0.19336003 -0.031872533 -0.0063745063 -0.055245724 0.010624178 0.010624178 -0.1317398 0.059495393 -0.055245724 -0.08499342 0.033997368
000010 01 de eb ca 18 f9 fa 0b de 04 0b eb e5 20 10 09
       0.0021248355 -0.072244406 -0.044621546 -0.11474112 0.05099605 -0.014873848 -0.012749013 0.02337319 -0.072244406 0.008499342 0.02337319 -0.044621546 -0.05737056 0.067994736 0.033997368 0.019123519
000020 f3 ed d4 1f 06 dd 00 15 d7 00 df e9 21 e7 d2 35
       -0.027622862 -0.040371876 -0.09349276 0.0658699 0.012749013 -0.074369244 0.0 0.044621546 -0.08711825 0.0 -0.070119575 -0.048871215 0.070119575 -0.05312089 -0.09774243 0.11261628
000030 0d e8 22 dc ea 18 e8 f2 13 fd 05 12 ef d0 31 fd
       0.027622862 -0.05099605 0.072244406 -0.076494075 -0.04674638 0.05099605 -0.05099605 -0.029747697 0.040371876 -0.0063745063 0.010624178 0.038247038 -0.036122203 -0.1019921 0.10411694 -0.0063745063
000040 f5 00 04 13 cd 2d 0e bb 0d f7 df fd ec df f0 10
       -0.02337319 0.0 0.008499342 0.040371876 -0.10836661 0.0956176 0.029747697 -0.14661364 0.027622862 -0.019123519 -0.070119575 -0.0063745063 -0.04249671 -0.070119575 -0.033997368 0.033997368
000050 f0 22 e6 f0 08 f0 f1 1e 18 d5 2d 08 0a 32 f0 dc
       -0.033997368 0.072244406 -0.055245724 -0.033997368 0.016998684 -0.033997368 -0.031872533 0.06374507 0.05099605 -0.09136793 0.0956176 0.016998684 0.021248356 0.10624178 -0.033997368 -0.076494075
000060 07 15 e1 33 e5 e4 29 e3 ea 00 00 f3 04 0a 00 11
       0.014873848 0.044621546 -0.0658699 0.10836661 -0.05737056 -0.059495393 0.08711825 -0.061620228 -0.04674638 0.0 0.0 -0.027622862 0.008499342 0.021248356 0.0 0.036122203
000070 e3 f4 1c 1c 1a 1d 06 20 2d de f5 27 09 2f ee 03
       -0.061620228 -0.025498025 0.059495393 0.059495393 0.055245724 0.061620228 0.012749013 0.067994736 0.0956176 -0.072244406 -0.02337319 0.08286858 0.019123519 0.09986727 -0.038247038 0.0063745063
000080 fa f7 12 fb f4 ec 20 ee f3 2c 23 eb fd 04 13 e6
       -0.012749013 -0.019123519 0.038247038 -0.010624178 -0.025498025 -0.04249671 0.067994736 -0.038247038 -0.027622862 0.09349276 0.074369244 -0.044621546 -0.0063745063 0.008499342 0.040371876 -0.055245724
000090 0c 0f fd f4 04 33 f9 09 07 0c 0a 10 10 18 ee ed
       0.025498025 0.031872533 -0.0063745063 -0.025498025 0.008499342 0.10836661 -0.014873848 0.019123519 0.014873848 0.025498025 0.021248356 0.033997368 0.033997368 0.05099605 -0.038247038 -0.040371876
0000a0 09 f8 1e 08 d9 f5 0d fb ff ed e3 05 22 21 00 12
       0.019123519 -0.016998684 0.06374507 0.016998684 -0.08286858 -0.02337319 0.027622862 -0.010624178 -0.0021248355 -0.040371876 -0.061620228 0.010624178 0.072244406 0.070119575 0.0 0.038247038
0000b0 f9 e8 04 f2 09 d8 12 f8 00 04 12 0c 0a e9 e1 07
       -0.014873848 -0.05099605 0.008499342 -0.029747697 0.019123519 -0.08499342 0.038247038 -0.016998684 0.0 0.008499342 0.038247038 0.025498025 0.021248356 -0.048871215 -0.0658699 0.014873848
0000c0 ff 28 2c fd 06 1b 2a 20 28 22 22 0e 11 e7 0d fd
       -0.0021248355 0.08499342 0.09349276 -0.0063745063 0.012749013 0.05737056 0.08924309 0.067994736 0.08499342 0.072244406 0.072244406 0.029747697 0.036122203 -0.05312089 0.027622862 -0.0063745063
0000d0 1c 2a 2a 10 2a fe ee 0f 1b 1d 07 09 1e fb 07 f5
       0.059495393 0.08924309 0.08924309 0.033997368 0.08924309 -0.004249671 -0.038247038 0.031872533 0.05737056 0.061620228 0.014873848 0.019123519 0.06374507 -0.010624178 0.014873848 -0.02337319
0000e0 e9 1c fb e6 ef 15 0b de f8 f1 fe e1 05 fd 08 ce
       -0.048871215 0.059495393 -0.010624178 -0.055245724 -0.036122203 0.044621546 0.02337319 -0.072244406 -0.016998684 -0.031872533 -0.004249671 -0.0658699 0.010624178 -0.0063745063 0.016998684 -0.10624178
0000f0 df 10 e3 1e db 0b 0d 01 e0 f2 d8 f8 ea 07 e2 fd
       -0.070119575 0.033997368 -0.061620228 0.06374507 -0.078618914 0.02337319 0.027622862 0.0021248355 -0.067994736 -0.029747697 -0.08499342 -0.016998684 -0.04674638 0.014873848 -0.06374507 -0.0063745063
