tensorflow_lite/sign_language_detect_model.tflite (tflite, 790944 bytes, 8 tensors)

sequential/lstm/Read_2/ReadVariableOp f4 [512]
0.0029971837 -0.019374007 -0.020593626 0.019085815 0.04778922 0.008789401 0.01751379 0.021202309
0.00063605304 -0.0028138098 0.0013843938 -0.021519147 -0.0070006987 0.017997835 0.012178841 0.014471907
0.0025290493 0.013387131 0.016039854 -0.003355919 0.01170455 -0.0009526979 0.01867337 0.030279832
-0.04735115 -0.0010393864 -0.002544698 -0.012429081 0.0067930575 -0.019022113 -0.0017059557 0.035419893
0.017164087 -0.0043584164 0.005872752 0.018804725 0.023307143 -0.009038891 -0.006413815 0.01026683
-0.0071244193 0.000388548 0.018757937 -0.011780149 -0.009067143 0.007997984 -0.008506809 0.011760928
0.022792995 -0.00869626 0.049478672 0.040718157 -0.016751876 0.01803069 0.024102489 -0.023637969
0.0013526174 0.0067980946 -0.010519944 0.021754004 0.001658316 -0.0025241764 0.0068439785 0.0309113
-0.020348467 -0.012186241 0.024397552 -0.003164666 0.005606986 0.005547234 0.028806053 0.025423087
-0.0099537615 0.0028129532 0.010086931 0.019641003 0.026773056 0.022905726 0.022486642 0.0030022757
-0.018885266 -0.026141804 0.008851984 -0.0054914155 0.035851475 0.012393253 -0.00548948 0.018943818
-0.008080011 0.009461027 -0.0017086873 0.037713863 0.006232866 0.01464806 0.024186378 0.012852948
0.0052524577 -0.020546831 -0.0008351209 0.04351877 0.019914968 -0.0065999744 0.019137273 0.012635269
0.037752017 0.026366593 0.011122623 0.0070452895 0.004756056 0.028400194 -0.019037576 0.03537603
-0.008090157 -0.01201601 0.004581392 -0.0051343967 0.05204568 -0.0005594368 0.018532703 0.009036053
0.017978914 0.021194996 0.028783854 -0.010983778 0.02520115 -0.00495966 0.019623782 -0.027577017
1.0245638 1.0154685 0.9926776 0.99146307 0.99398476 0.99842477 1.0164071 0.99842757
0.99695826 1.0109218 1.0026853 1.0034922 1.0278345 0.9947448 1.0048437 0.9954519
1.0066502 0.9979841 1.0194894 1.0191326 0.99919486 0.9989762 0.9728463 0.9984963
0.9792156 0.99817383 1.0092348 0.9973743 1.0009207 1.0070915 0.9744121 1.0073357
1.0252694 1.0062771 0.9946564 1.001384 1.0136433 0.9879634 0.99742764 1.0023772
1.0024767 1.0067143 1.0174005 1.0266749 0.9933655 1.0161699 1.0169883 0.98688644
1.011222 0.9957341 1.0084071 1.0044237 0.99873346 1.049388 1.0001321 0.99503815
1.0071452 1.0121981 1.0136231 1.0050035 0.9870492 0.98371166 1.0138264 1.0074844
0.99208677 1.01 1.0317991 1.0020907 0.9888756 1.0293579 1.0202801 1.0288736
1.0387563 1.008831 1.0019854 0.9963286 1.0186533 1.0118045 0.9852549 0.9988722
1.005274 0.9915436 0.9817295 1.006166 1.0123582 1.0014203 1.0048307 1.0056049
0.991558 1.0256099 1.0008136 1.0080665 1.0029947 1.0302194 1.0048347 1.0138639
1.0112488 0.9987185 1.0177423 0.99411404 0.9928225 1.0009545 1.0159847 0.9951812
1.0044073 0.9900292 0.98482955 1.0018843 1.0196412 0.9994185 1.0435915 1.014651
1.0288544 1.017352 1.010204 0.99859416 1.0165559 1.0064878 1.001105 1.0045396
1.0052001 1.0233575 1.0253872 0.9979286 1.0114678 0.99908644 1.0140084 0.99421
00000000: 666c 443b 3db6 9ebc f7b3 a8bc db59 9c3c
00000010: a1be 433d 6b01 103c 1479 8f3c 77b0 ad3c
00000020: ccbc 263a e567 38bb 8c74 b53a ec48 b0bc
00000030: 1e66 e5bb 3270 933c c389 473c 941b 6d3c
00000040: 68be 253b b255 5b3c 0366 833c faee 5bbb
00000050: 71c4 3f3c 79be 79ba e5f8 983c 690d f83c
00000060: 48f3 41bd 053c 88ba f3c4 26bb 58a3 4bbc
00000070: 4c98 de3b 43d4 9bbc 609a dfba 7314 113d
00000080: b39b 8c3c 0cd1 8ebb 3770 c03b 5e0c 9a3c
00000090: 9fee be3c db17 14bc fb2a d2bb 3536 283c
000000a0: f673 e9bb 08b6 cb39 3faa 993c 8701 41bc
000000b0: 5b8e 14bc fa09 033c 2560 0bbc e8b0 403c
000000c0: 60b8 ba3c c27a 0ebc 26aa 4a3d 15c8 263d
000000d0: 3b3b 89bc 19b5 933c 9572 c53c 6aa4 c1bc
000000e0: 4f4a b13a 8dc2 de3b d85b 2cbc 7435 b23c
000000f0: da5b d93a a76c 25bb 7443 e03b b239 fd3c
00000100: d4b1 a6bc cda8 47bc 60dd c73c 4966 4fbb
00000110: cfba b73b 92c5 b53b acfa eb3c 1444 d03c
00000120: 1a15 23bc 8659 383b a843 253c 2be6 a03c
00000130: 2b53 db3c caa4 bb3c e835 b83c d4c1 443b
00000140: 46b5 9abc 5627 d6bc e907 113c 55f1 b3bb
00000150: ffd8 123d 120d 4b3c 19e1 b3bb 1130 9b3c
00000160: 0662 04bc 6c02 1b3c 08f6 dfba da79 1a3d
00000170: 123d cc3b 6bfe 6f3c 8322 c63c 2c95 523c
00000180: cf1c ac3b d451 a8bc 04ec 5aba bd40 323d
00000190: b724 a33c 9944 d8bb c5c5 9c3c 2904 4f3c
000001a0: dca1 1a3d c1fe d73c aa3b 363c 2cdc e63b
000001b0: b0d8 9b3b 86a7 e83c b1f4 9bbc 75e6 103d
000001c0: 948c 04bc ccde 44bc 801f 963b 713e a8bb
000001d0: da2d 553d 2ba7 12ba e5d1 973c f40b 143c
000001e0: 8448 933c 21a1 ad3c 1ecc eb3c 4ef5 33bc
000001f0: a472 ce3c a584 a2bb 0ec2 a03c 32e9 e1bc
00000200: e824 833f dffa 813f 1f20 7e3f 86d0 7d3f
00000210: c975 7e3f c498 7f3f a119 823f f398 7f3f
00000220: a838 7f3f e365 813f fe57 803f 6f72 803f
00000230: 1590 833f 98a7 7e3f b89e 803f f0d5 7e3f
00000240: ead9 803f e37b 7f3f a17e 823f f072 823f
00000250: 3ccb 7f3f e7bc 7f3f 750c 793f 749d 7f3f
00000260: e0ad 7a3f 5288 7f3f 9b2e 813f ec53 7f3f
00000270: 2b1e 803f 60e8 803f 1273 793f 60f0 803f
00000280: 073c 833f b0cd 803f cda1 7e3f 5a2d 803f
00000290: 10bf 813f 2beb 7c3f 6b57 7f3f e54d 803f
000002a0: 2851 803f 04dc 803f 2e3a 823f 156a 833f
000002b0: 344d 7e3f db11 823f ac2c 823f 97a4 7c3f
000002c0: b96f 813f 6ee8 7e3f 7c13 813f f590 803f
000002d0: ffac 7f3f 5952 863f 5404 803f d2ba 7e3f
000002e0: 22ea 803f b58f 813f 67be 813f f4a3 803f
000002f0: 42af 7c3f 87d4 7b3f 10c5 813f 40f5 803f
00000300: 66f9 7d3f ae47 813f fe11 843f 8244 803f
00000310: f426 7d3f 00c2 833f 8a98 823f 21b2 833f
00000320: f7f5 843f 6021 813f 0f41 803f 640f 7f3f
00000330: 3b63 823f cf82 813f aa39 7c3f 17b6 7f3f
00000340: d2ac 803f cdd5 7d3f a052 7b3f 0cca 803f
00000350: f494 813f 8a2e 803f 4b9e 803f a9b7 803f
00000360: bfd6 7d3f 2f47 833f a91a 803f 5308 813f
00000370: 2162 803f 3bde 833f 6c9e 803f 4bc6 813f
00000380: 9a70 813f 04ac 7f3f 6145 823f 427e 7e3f
00000390: 9e29 7e3f 471f 803f c90b 823f 32c4 7e3f
000003a0: 6b90 803f 8e72 7d3f ca1d 7c3f bf3d 803f
000003b0: 9a83 823f e4d9 7f3f 6894 853f 15e0 813f
000003c0: 80b1 833f 9738 823f 5d4e 813f dea3 7f3f
000003d0: 811e 823f 98d4 803f 3524 803f c194 803f
000003e0: 66aa 803f 61fd 823f e33f 833f 4078 7f3f
000003f0: c777 813f 21c4 7f3f 07cb 813f 8c84 7e3f

sequential/dense/BiasAdd/ReadVariableOp f4 [64]
0.012593778 0.04743016 0.061364792 0.045243673 0.055501048 0.041059352 0.054178957 0.027993686
0.047454238 0.043255083 0.04255225 0.049653776 0.0151863005 0.05151993 0.029318094 0.053990394
0.023780296 0.07717931 0.06417747 0.09702068 0.02871345 0.0366474 0.03841677 0.035600565
0.035325862 0.04143707 0.03795189 0.041837923 0.10716772 0.032391496 0.07188196 0.034759153
0.030865667 0.035087995 0.018608311 0.059371434 0.04985326 0.058806654 0.063312136 0.023044338
0.02411599 0.0010154909 0.07262867 0.069822125 -0.0035496377 0.054980528 0.048603114 0.070402876
0.05387148 0.03564291 0.008078869 0.03010243 0.017818317 0.032788523 0.07734647 0.07456282
0.026512677 0.017484535 0.07504756 0.052228764 0.046936028 0.03946246 0.061664637 0.011521609
00000000: 2256 4e3c 2146 423d a659 7b3d 6e51 393d
00000010: 1155 633d da2d 283d c1ea 5d3d 0453 e53c
00000020: 605f 423d 3e2c 313d 454b 2e3d c261 4b3d
00000030: f6cf 783c 9006 533d 802c f03c 0825 5d3d
00000040: e5ce c23c 3010 9e3d 7a6f 833d c7b2 c63d
00000050: 7838 eb3c 961b 163d e75a 1d3d e6d1 113d
00000060: dab1 103d ebb9 293d 7173 1b3d 3e5e 2b3d
00000070: c07a db3d f2ac 043d d936 933d 9d5f 0e3d
00000080: ffd9 fc3c 6eb8 0f3d 7570 983c 762f 733d
00000090: ef32 4c3d 3fdf 703d cba9 813d 7bc7 bc3c
000000a0: e68e c53c 381a 853a 57be 943d e7fe 8e3d
000000b0: 0aa1 68bb 4333 613d 0f14 473d 622f 903d
000000c0: 57a8 5c3d 4dfe 113d 3c5d 043c 5f99 f63c
000000d0: b8f7 913c 424d 063d d367 9e3d 64b4 983d
000000e0: 1d31 d93c ba3b 8f3c 89b2 993d d4ed 553d
000000f0: fe3f 403d 63a3 213d 0f94 7c3d 21c5 3c3c

sequential/dense_1/BiasAdd/ReadVariableOp f4 [10]
0.0063060895 -0.0009882221 -0.04816682 0.022973256 0.02971059 0.014661495 0.0010747245 -0.011358324
-0.037113883 0.027773038
00000000: 50a3 ce3b 3b87 81ba 924a 45bd 6932 bc3c
00000010: a063 f33c c436 703c c5dd 8c3a 4418 3abc
00000020: ba04 18bd 4884 e33c

sequential/dense/MatMul f4 [64, 128]
0.1436608 0.021190688 0.029218806 0.04929242 0.03137867 -0.06054376 -0.18836597 0.11096074
-0.18451361 0.02470611 -0.05408844 -0.17854638 -0.03390774 0.14361806 0.16054244 0.02201616
-0.1106022 -0.05479213 -0.010191075 -0.072780885 -0.119086705 0.059098165 0.022709744 0.15760317
-0.12982185 -0.08041802 -0.14868708 -0.028133458 -0.09217106 0.06552114 0.11848882 0.1941652
0.15784736 -0.1569385 -0.17589763 0.011069177 -0.08093604 -0.09415785 -0.03818095 -0.08879299
0.15374164 -0.13560541 0.10696654 0.14180209 0.18702991 0.016766207 0.09389449 -0.029602343
-0.05395896 -0.025283875 -0.027712395 0.0754713 0.2126563 -0.14788592 -0.13939102 0.10669615
-0.072091445 -0.054765552 0.15334374 -0.06715325 0.050015893 -0.15685248 0.1527959 0.015077212
-0.09005948 0.08478452 0.0025434482 -0.20489085 0.01726585 -0.16342819 -0.0005983043 -0.13998656
0.18013689 0.06615318 0.047670692 -0.084244914 -0.18832955 0.022148892 0.045459058 0.13429621
0.13328668 0.01704422 0.082224436 0.027367827 -0.13857508 -0.118197754 -0.061074927 0.08558352
0.2354523 -0.0035780796 -0.11512657 0.083901614 -0.02437092 -0.1577507 -0.24899592 0.10333067
0.062723935 0.03915637 0.027526686 -0.02822178 -0.124623396 0.0248251 -0.037601467 -0.034159724
-0.055464752 -0.121901035 -0.0055595455 -0.11656508 0.09641296 -0.18270521 0.09262753 -0.14318915
0.04108351 0.073794894 0.07320302 -0.0739538 0.17588519 0.045246914 -0.111853145 -0.12350307
-0.003873756 0.05703921 0.10945525 -0.05769974 -0.07457071 -0.035086002 0.080267675 -0.06544464
0.14381725 0.143085 -0.22702457 0.11675858 -0.27529615 0.2010706 -0.07828123 -0.08495501
-0.10810255 -0.052663833 -0.12813042 -0.021781769 0.11977079 -0.24083838 0.22661068 -0.21300496
-0.2741105 -0.07451279 0.095803596 0.15142809 -0.0005227235 -0.03267667 0.26255918 0.09136802
-0.20870098 0.042290002 -0.099218 0.120555826 0.24918595 0.12507793 0.075030066 -0.09961343
0.17332861 0.16078071 -0.09190074 -0.08301681 -0.11373601 -0.18158531 0.11972443 -0.034976713
0.15843582 0.06852215 0.020067966 -0.12415869 0.022609308 -0.1031597 0.24160185 0.06807303
-0.02354432 -0.061172426 -0.062179383 0.04170144 -0.1474679 0.2005152 0.048248652 -0.056756936
-0.17021044 -0.18572165 0.09243434 -0.12735003 0.021945864 -0.0069167297 -0.040071163 0.150858
-0.08096354 0.10414414 -0.080455445 -0.06013841 0.08836169 0.1818257 0.12044106 0.046937864
-0.13620792 -0.046572436 -0.12983204 0.20127581 -0.08961195 0.087038256 -0.114941336 0.16465312
0.12717727 0.040160958 -0.09737728 0.050091617 0.03940021 -0.032873247 0.21190615 -0.17212917
0.23544239 0.06306775 0.06909858 0.2190304 0.06459939 0.17951347 -0.03502806 0.14474156
0.1777161 0.036704876 0.043310884 -0.051200807 -0.1388193 -0.032357514 0.056687422 -0.0809038
-0.02669744 -0.25947356 0.0184477 0.05939242 0.106171414 0.07422021 -0.017683405 -0.21135561
-0.16939208 0.049208716 -0.013874057 -0.19746192 0.20695397 -0.14974453 -0.051366184 -0.1301581
0.22609873 0.12321097 -0.073554285 -0.16568059 -0.06593006 -0.1132361 -0.053537738 -0.14057228
00000000: d11b 133e 1898 ad3c 475c ef3c d9e6 493d
00000010: ec86 003d bcfc 77bd 02e3 40be 623f e33d
00000020: 23f1 3cbe 7864 ca3c d78b 5dbd ddd4 36be
00000030: d8e2 0abd 9d10 133e 3d65 243e 3c5b b43c
00000040: 6883 e2bd b66d 60bd 77f8 26bc 250e 95bd
00000050: bbe3 f3bd eb10 723d c909 ba3c ba62 213e
00000060: 05f0 04be 34b2 a4bd 6d41 18be 2378 e6bc
00000070: 2ec4 bcbd f32f 863d 44aa f23d 3ed3 463e
00000080: bda2 213e 7cb4 20be 821e 34be 7e5b 353c
00000090: cbc1 a5bd d5d5 c0bd a163 1cbd 19d9 b5bd
000000a0: 736e 1d3e 25dc 0abe 4611 db3d 9134 113e
000000b0: c584 3f3e 4959 893c c14b c03d 9d80 f2bc
000000c0: 1204 5dbd 2120 cfbc 1b05 e3bc b290 9a3d
000000d0: 93c2 593e 686f 17be 85bc 0ebe 8383 da3d
000000e0: aea4 93bd d851 60bd 2406 1d3e a587 89bd
000000f0: 77dd 4c3d f09d 20be 8776 1c3e 6906 773c
00000100: 1b71 b8bd 82a3 ad3d fbaf 263b e8ce 51be
00000110: 1d71 8d3c b859 27be 86d7 1cba a358 0fbe
00000120: ce75 383e 527b 873d 5842 433d 9988 acbd
00000130: 76d9 40be 9871 b53c 4733 3a3d f284 093e
00000140: 4e7c 083e 52a0 8b3c 4965 a83d 7e32 e03c
00000150: a0e6 0dbe aa11 f2bd b429 7abd 6a46 af3d
00000160: 681a 713e 377e 6abb 7bc7 ebbd 9cd4 ab3d
00000170: 86a5 c7bc 6689 21be c9f8 7ebe 089f d33d
00000180: 6875 803d 6e62 203d a57f e13c 5d31 e7bc
00000190: 8d3a ffbd 025e cb3c ff03 1abd 11eb 0bbd
000001a0: 022f 63bd 40a7 f9bd d92c b6bb acb9 eebd
000001b0: 2874 c53d 1317 3bbe 81b3 bd3d 2da0 12be
000001c0: 2f47 283d c721 973d 77eb 953d 1775 97bd
000001d0: 3f1b 343e d454 393d 4313 e5bd 2def fcbd
000001e0: d7de 7dbb f2a1 693d 132a e03d 9056 6cbd
000001f0: 87b8 98bd 57b6 0fbd 6163 a43d d707 86bd
00000200: d444 133e e084 123e 2179 68be 1f1f ef3d
00000210: 9ef3 8cbe 74e5 4d3e e951 a0bd e4fc adbd
00000220: df64 ddbd 08b6 57bd 9f34 03be ae6f b2bc
00000230: 634a f53d 569e 76be a10c 683e f91d 5abe
00000240: 3658 8cbe 299a 98bd ad34 c43d f70f 1b3e
00000250: 6107 09ba f9d7 05bd 286e 863e 281f bb3d
00000260: b6b5 55be 4838 2d3d cf32 cbbd f9e5 f63d
00000270: 9a2a 7f3e 6e14 003e 5da9 993d 2002 ccbd
00000280: 0e7d 313e b3a3 243e 7536 bcbd b804 aabd
00000290: 6dee e8bd 80f1 39be 1532 f53d be43 0fbd
000002a0: 003d 223e 5755 8c3d 9365 a43c e946 febd
000002b0: 2837 b93c 6545 d3bd 7a66 773e df69 8b3d
000002c0: 05e0 c0bc f08f 7abd cfaf 7ebd 21cf 2a3d
000002d0: d301 17be db53 4d3e 61a0 453d f679 68bd
000002e0: a54b 2ebe d12d 3ebe 374e bd3d 0c68 02be
000002f0: d0c7 b33c bca5 e2bb a921 24bd 857a 1a3e
00000300: 36d0 a5bd 8649 d53d d3c5 a4bd b253 76bd
00000310: f9f6 b43d 8430 3a3e cda9 f63d eb41 403d
00000320: 177a 0bbe bdc2 3ebd b1f2 04be 3f1b 4e3e
00000330: 7886 b7bd 1d41 b23d 5d66 ebbd d49a 283e
00000340: c23a 023e d17f 243d bd6d c7bd de2c 4d3d
00000350: 1d62 213d 19a6 06bd edfd 583e a142 30be
00000360: cf17 713e aa29 813d 8e83 8d3d 8149 603e
00000370: af4c 843d 61d2 373e 9579 0fbd 2237 143e
00000380: 36fb 353e da57 163d c166 313d f0b7 51bd
00000390: a626 0ebe 5089 04bd 1231 683d e4b0 a5bd
000003a0: 97b4 dabc b8d9 84be a21f 973c 7745 733d
000003b0: 6670 d93d c400 983d cadc 90bc 9b6d 58be
000003c0: 1e75 2dbe 148f 493d 0350 63bc 7533 4abe
000003d0: beeb 533e a156 19be 5965 52bd 2a48 05be
000003e0: 6d86 673e 0856 fc3d a1a3 96bd 2ca8 29be
000003f0: 5706 87bd 54e8 e7bd 634a 5bbd 2ef2 0fbe

sequential/dense_1/MatMul f4 [10, 64]
-0.046005294 0.15203856 0.12779792 -0.083515026 0.11924078 -0.27047068 -0.19500442 0.015495797
-0.3335112 -0.05690015 0.09912532 -0.20144066 0.13551357 0.2452352 0.30684975 0.21153912
-0.267352 -0.32249308 -0.29238155 0.2456438 -0.3750444 0.1650245 0.18983331 0.26130295
-0.31367144 -0.0050861463 -0.3677797 0.10019532 -0.12809409 0.08077082 0.19939238 -0.3161434
0.0044127405 -6.538495e-05 0.20605022 0.15916558 -0.18741941 -0.12827903 0.20059296 0.23784219
0.16619255 -0.1674424 -0.2981859 -0.17278618 -0.04497924 -0.03240051 -0.24728115 -0.2234948
-0.33413056 -0.2882974 -0.22315373 -0.23189436 -0.15791248 -0.34926754 0.2660393 -0.07031231
-0.045234863 -0.26320812 -0.25953352 -0.04090355 0.263076 0.041158114 0.20873623 0.08193444
0.13523187 -0.35991588 -0.26356822 0.21366055 -0.33021083 0.095543586 -0.157905 -0.04254157
0.10314415 -0.25501302 -0.2748219 -0.04729278 0.07621332 0.03154256 0.30712685 0.03567019
-0.16397011 0.0147337895 0.10348075 -0.4723887 -0.25259274 0.18260342 0.32078362 -0.07694706
-0.091624685 0.3749172 -0.052841295 0.43206555 0.10272906 -0.2898909 0.33326316 0.3396525
-0.035961736 0.16019447 0.27996752 -0.3284521 -0.302402 0.18416898 0.061286442 0.08232017
-0.22223592 -0.27879012 0.35380837 0.10020051 -0.15292604 -0.37493706 -0.14667018 -0.0062330104
-0.09408682 -0.24167039 -0.2234321 -0.27134883 0.046687502 0.015425322 0.3258787 -0.22955184
-0.0031601766 -0.063431896 -0.04606732 -0.0047872886 0.11347284 0.31488606 0.106481 -0.28270346
0.1719093 0.06713108 -0.2898043 -0.23516697 0.21294972 0.28133744 0.288426 0.22113217
0.19219139 0.33346558 0.14197582 0.14603764 0.08621316 -0.35009876 0.13036728 0.07895323
0.15089157 -0.035407577 0.2616595 0.1367476 -0.34617153 -0.031223502 0.095978476 -0.11099856
0.21203311 0.028857848 -0.13623184 0.10846332 0.21076615 0.07620647 0.102557175 -0.20325257
0.18317333 -0.04813604 -0.2627563 -0.3028449 -0.104524225 -0.20175162 0.056572583 0.24229407
-0.2549043 -0.16423383 0.24229866 -0.25253686 0.08178077 -0.1538271 -0.21193744 0.045286857
-0.36170772 0.2315991 -0.33688855 -0.35769415 0.026545512 0.053028133 -0.3415449 -0.18846102
0.28938824 0.23805097 -0.44400525 -0.34018803 -0.19076183 -0.13912582 0.18805355 0.21077001
-0.24223328 -0.23613712 -0.39217207 -0.06608817 -0.2396763 0.030425182 -0.19983171 -0.13678387
-0.29092988 -0.12348732 -0.21748677 -0.2571624 -0.15117607 -0.23757711 -0.35279584 0.1497639
0.05237435 0.23070915 0.15855867 -0.21374689 0.1779216 -0.01934413 0.10721472 0.24555975
-0.2237019 0.036814664 0.12007456 0.14625168 0.17154343 0.09271234 0.28215057 -0.002142669
0.11666151 0.13807504 -0.21509464 0.27866557 0.12295211 -0.0013167013 -0.19308494 0.11609327
-0.29028097 -0.2433196 0.24956372 -0.10364959 0.41276932 0.26311314 -0.07858468 0.17667305
0.20630217 -0.4288076 0.10816946 -0.024395958 -0.2093013 0.1518774 -0.19711332 0.09452322
-0.2477775 -0.17948209 0.06507487 0.29237995 -0.14740826 -0.27314022 0.22541279 -0.31580755
00000000: 0c70 3cbd ffaf 1b3e 75dd 023e ed09 abbd
00000010: 8334 f43d 227b 8abe 3daf 47be 15e2 7d3c
00000020: fbc1 aabe 2210 69bd 3702 cb3d 7646 4ebe
00000030: 12c4 0a3e f01e 7b3e 691b 9d3e b69d 583e
00000040: 5de2 88be d01d a5be 09b3 95be 0c8a 7b3e
00000050: d205 c0be 2ffc 283e aa63 423e 80c9 853e
00000060: 8b99 a0be b0a9 a6bb 9f4d bcbe 3433 cd3d
00000070: 192b 03be 2c6b a53d 842d 4c3e 8cdd a1be
00000080: c098 903b 471f 89b8 d4fe 523e 4dfc 223e
00000090: e0ea 3fbe 945b 03be 3e68 4d3e e78c 733e
000000a0: 612e 2a3e 0576 2bbe d3ab 98be dcee 30be
000000b0: 273c 38bd 66b6 04bd 4537 7dbe d2db 64be
000000c0: 2913 abbe b89b 93be 6982 64be b775 6dbe
000000d0: cfb3 21be 32d3 b2be 4e36 883e e6ff 8fbd
000000e0: 3148 39bd 37c3 86be 94e1 84be 7b8a 27bd
000000f0: e6b1 863e 6995 283d f3be 553e 3ecd a73d
00000100: 397a 0a3e e546 b8be 6af2 86be d5c9 5a3e
00000110: 6511 a9be 5bac c33d d9b1 21be 1240 2ebd
00000120: 3d3d d33d 1191 82be 75b5 8cbe 13b6 41bd
00000130: bb15 9c3d c532 013d bb3f 9d3e e81a 123d
00000140: c8e7 27be fe65 713c b7ed d33d efdc f1be
00000150: d653 81be 64fc 3a3e c03d a43e 6c96 9dbd
00000160: b9a5 bbbd 26f5 bf3e 1d70 58bd b237 dd3e
00000170: 9d63 d23d 946c 94be 78a1 aa3e efe6 ad3e
00000180: 9d4c 13bd 050a 243e e757 8f3e e02a a8be
00000190: 6fd4 9abe cb96 3c3e 7e07 7b3d 7a97 a83d
000001a0: d091 63be 94bd 8ebe 5f26 b53e ed35 cd3d
000001b0: a598 1cbe c0f7 bfbe b530 16be 483e ccbb
000001c0: 97b0 c0bd 7178 77be 62cb 64be 3cee 8abe
000001d0: 653b 3f3d 7dba 7c3c 93d9 a63e a30f 6bbe
000001e0: f71a 4fbb 95e8 81bd 16b1 3cbd b0de 9cbb
000001f0: 7364 e83d bf38 a13e b612 da3d 82be 90be
00000200: fe08 303e 057c 893d 3b61 94be 9ccf 70be
00000210: 7e0f 5a3e 760b 903e 93ac 933e 7970 623e
00000220: d2cd 443e 00bc aa3e 1c62 113e e48a 153e
00000230: 8690 b03d 2540 b3be 007f 053e 3bb2 a13d
00000240: 5283 1a3e 8907 11bd 3cf8 853e 9007 0c3e
00000250: 653d b1be 6ec8 ffbc 5d90 c43d 3753 e3bd
00000260: 351f 593e 4b67 ec3c 5c80 0bbe 0422 de3d
00000270: 15d3 573e 2312 9c3d 7f09 d23d 7121 50be
00000280: ca91 3b3e 4c2a 45bd fe87 86be 7d0e 9bbe
00000290: cc10 d6bd fa97 4ebe a7b8 673d f01b 783e
000002a0: d182 82be ea2c 28be 241d 783e 834c 81be
000002b0: ad7c a73d da84 1dbe 2106 59be b67e 393d
000002c0: c131 b9be 5128 6d3e a87c acbe b023 b7be
000002d0: f975 d93c 0734 593d f9de aebe edfb 40be
000002e0: b22a 943e a2c3 733e a854 e3be 202d aebe
000002f0: 1257 43be 0077 0ebe 1c91 403e 18d4 573e
00000300: 000c 78be eecd 71be c7ca c8be 3c59 87bd
00000310: b46d 75be 3b3e f93c afa0 4cbe 1211 0cbe
00000320: c3f4 94be ece6 fcbd dab4 5ebe caaa 83be
00000330: e6cd 1abe 6a47 73be a8a1 b4be b55b 193e
00000340: 7d86 563d 053f 6c3e 345d 223e 77e0 5abe
00000350: 1431 363e 9577 9ebc 6493 db3d 0474 7b3e
00000360: 1c12 65be f9ca 163d a7e9 f53d 00c3 153e
00000370: 15a9 2f3e f8df bd3d 0a76 903e 056c 0cbb
00000380: 3bec ee3d 8b63 0d3e c541 5cbe 41ad 8e3e
00000390: 51ce fb3d 2a95 acba 0fb8 45be 4fc2 ed3d
000003a0: b59f 94be c628 79be a28d 7f3e 3c46 d4bd
000003b0: 8056 d33e c4b6 863e 01f1 a0bd c8e9 343e
000003c0: e040 533e ab8c dbbe f387 dd3d 08da c7bc
000003d0: 1453 56be c085 1b3e 13d8 49be 6495 c13d
000003e0: 63b9 7dbe 27ca 37be f945 853d d3b2 953e
000003f0: 31f2 16be 09d9 8bbe 9cd2 663e 87b1 a1be

sequential/lstm/Read_2/ReadVariableOp1 f4 [512]
0.0029971837 -0.019374007 -0.020593626 0.019085815 0.04778922 0.008789401 0.01751379 0.021202309
0.00063605304 -0.0028138098 0.0013843938 -0.021519147 -0.0070006987 0.017997835 0.012178841 0.014471907
0.0025290493 0.013387131 0.016039854 -0.003355919 0.01170455 -0.0009526979 0.01867337 0.030279832
-0.04735115 -0.0010393864 -0.002544698 -0.012429081 0.0067930575 -0.019022113 -0.0017059557 0.035419893
0.017164087 -0.0043584164 0.005872752 0.018804725 0.023307143 -0.009038891 -0.006413815 0.01026683
-0.0071244193 0.000388548 0.018757937 -0.011780149 -0.009067143 0.007997984 -0.008506809 0.011760928
0.022792995 -0.00869626 0.049478672 0.040718157 -0.016751876 0.01803069 0.024102489 -0.023637969
0.0013526174 0.0067980946 -0.010519944 0.021754004 0.001658316 -0.0025241764 0.0068439785 0.0309113
-0.020348467 -0.012186241 0.024397552 -0.003164666 0.005606986 0.005547234 0.028806053 0.025423087
-0.0099537615 0.0028129532 0.010086931 0.019641003 0.026773056 0.022905726 0.022486642 0.0030022757
-0.018885266 -0.026141804 0.008851984 -0.0054914155 0.035851475 0.012393253 -0.00548948 0.018943818
-0.008080011 0.009461027 -0.0017086873 0.037713863 0.006232866 0.01464806 0.024186378 0.012852948
0.0052524577 -0.020546831 -0.0008351209 0.04351877 0.019914968 -0.0065999744 0.019137273 0.012635269
0.037752017 0.026366593 0.011122623 0.0070452895 0.004756056 0.028400194 -0.019037576 0.03537603
-0.008090157 -0.01201601 0.004581392 -0.0051343967 0.05204568 -0.0005594368 0.018532703 0.009036053
0.017978914 0.021194996 0.028783854 -0.010983778 0.02520115 -0.00495966 0.019623782 -0.027577017
1.0245638 1.0154685 0.9926776 0.99146307 0.99398476 0.99842477 1.0164071 0.99842757
0.99695826 1.0109218 1.0026853 1.0034922 1.0278345 0.9947448 1.0048437 0.9954519
1.0066502 0.9979841 1.0194894 1.0191326 0.99919486 0.9989762 0.9728463 0.9984963
0.9792156 0.99817383 1.0092348 0.9973743 1.0009207 1.0070915 0.9744121 1.0073357
1.0252694 1.0062771 0.9946564 1.001384 1.0136433 0.9879634 0.99742764 1.0023772
1.0024767 1.0067143 1.0174005 1.0266749 0.9933655 1.0161699 1.0169883 0.98688644
1.011222 0.9957341 1.0084071 1.0044237 0.99873346 1.049388 1.0001321 0.99503815
1.0071452 1.0121981 1.0136231 1.0050035 0.9870492 0.98371166 1.0138264 1.0074844
0.99208677 1.01 1.0317991 1.0020907 0.9888756 1.0293579 1.0202801 1.0288736
1.0387563 1.008831 1.0019854 0.9963286 1.0186533 1.0118045 0.9852549 0.9988722
1.005274 0.9915436 0.9817295 1.006166 1.0123582 1.0014203 1.0048307 1.0056049
0.991558 1.0256099 1.0008136 1.0080665 1.0029947 1.0302194 1.0048347 1.0138639
1.0112488 0.9987185 1.0177423 0.99411404 0.9928225 1.0009545 1.0159847 0.9951812
1.0044073 0.9900292 0.98482955 1.0018843 1.0196412 0.9994185 1.0435915 1.014651
1.0288544 1.017352 1.010204 0.99859416 1.0165559 1.0064878 1.001105 1.0045396
1.0052001 1.0233575 1.0253872 0.9979286 1.0114678 0.99908644 1.0140084 0.99421
00000000: 666c 443b 3db6 9ebc f7b3 a8bc db59 9c3c
00000010: a1be 433d 6b01 103c 1479 8f3c 77b0 ad3c
00000020: ccbc 263a e567 38bb 8c74 b53a ec48 b0bc
00000030: 1e66 e5bb 3270 933c c389 473c 941b 6d3c
00000040: 68be 253b b255 5b3c 0366 833c faee 5bbb
00000050: 71c4 3f3c 79be 79ba e5f8 983c 690d f83c
00000060: 48f3 41bd 053c 88ba f3c4 26bb 58a3 4bbc
00000070: 4c98 de3b 43d4 9bbc 609a dfba 7314 113d
00000080: b39b 8c3c 0cd1 8ebb 3770 c03b 5e0c 9a3c
00000090: 9fee be3c db17 14bc fb2a d2bb 3536 283c
000000a0: f673 e9bb 08b6 cb39 3faa 993c 8701 41bc
000000b0: 5b8e 14bc fa09 033c 2560 0bbc e8b0 403c
000000c0: 60b8 ba3c c27a 0ebc 26aa 4a3d 15c8 263d
000000d0: 3b3b 89bc 19b5 933c 9572 c53c 6aa4 c1bc
000000e0: 4f4a b13a 8dc2 de3b d85b 2cbc 7435 b23c
000000f0: da5b d93a a76c 25bb 7443 e03b b239 fd3c
00000100: d4b1 a6bc cda8 47bc 60dd c73c 4966 4fbb
00000110: cfba b73b 92c5 b53b acfa eb3c 1444 d03c
00000120: 1a15 23bc 8659 383b a843 253c 2be6 a03c
00000130: 2b53 db3c caa4 bb3c e835 b83c d4c1 443b
00000140: 46b5 9abc 5627 d6bc e907 113c 55f1 b3bb
00000150: ffd8 123d 120d 4b3c 19e1 b3bb 1130 9b3c
00000160: 0662 04bc 6c02 1b3c 08f6 dfba da79 1a3d
00000170: 123d cc3b 6bfe 6f3c 8322 c63c 2c95 523c
00000180: cf1c ac3b d451 a8bc 04ec 5aba bd40 323d
00000190: b724 a33c 9944 d8bb c5c5 9c3c 2904 4f3c
000001a0: dca1 1a3d c1fe d73c aa3b 363c 2cdc e63b
000001b0: b0d8 9b3b 86a7 e83c b1f4 9bbc 75e6 103d
000001c0: 948c 04bc ccde 44bc 801f 963b 713e a8bb
000001d0: da2d 553d 2ba7 12ba e5d1 973c f40b 143c
000001e0: 8448 933c 21a1 ad3c 1ecc eb3c 4ef5 33bc
000001f0: a472 ce3c a584 a2bb 0ec2 a03c 32e9 e1bc
00000200: e824 833f dffa 813f 1f20 7e3f 86d0 7d3f
00000210: c975 7e3f c498 7f3f a119 823f f398 7f3f
00000220: a838 7f3f e365 813f fe57 803f 6f72 803f
00000230: 1590 833f 98a7 7e3f b89e 803f f0d5 7e3f
00000240: ead9 803f e37b 7f3f a17e 823f f072 823f
00000250: 3ccb 7f3f e7bc 7f3f 750c 793f 749d 7f3f
00000260: e0ad 7a3f 5288 7f3f 9b2e 813f ec53 7f3f
00000270: 2b1e 803f 60e8 803f 1273 793f 60f0 803f
00000280: 073c 833f b0cd 803f cda1 7e3f 5a2d 803f
00000290: 10bf 813f 2beb 7c3f 6b57 7f3f e54d 803f
000002a0: 2851 803f 04dc 803f 2e3a 823f 156a 833f
000002b0: 344d 7e3f db11 823f ac2c 823f 97a4 7c3f
000002c0: b96f 813f 6ee8 7e3f 7c13 813f f590 803f
000002d0: ffac 7f3f 5952 863f 5404 803f d2ba 7e3f
000002e0: 22ea 803f b58f 813f 67be 813f f4a3 803f
000002f0: 42af 7c3f 87d4 7b3f 10c5 813f 40f5 803f
00000300: 66f9 7d3f ae47 813f fe11 843f 8244 803f
00000310: f426 7d3f 00c2 833f 8a98 823f 21b2 833f
00000320: f7f5 843f 6021 813f 0f41 803f 640f 7f3f
00000330: 3b63 823f cf82 813f aa39 7c3f 17b6 7f3f
00000340: d2ac 803f cdd5 7d3f a052 7b3f 0cca 803f
00000350: f494 813f 8a2e 803f 4b9e 803f a9b7 803f
00000360: bfd6 7d3f 2f47 833f a91a 803f 5308 813f
00000370: 2162 803f 3bde 833f 6c9e 803f 4bc6 813f
00000380: 9a70 813f 04ac 7f3f 6145 823f 427e 7e3f
00000390: 9e29 7e3f 471f 803f c90b 823f 32c4 7e3f
000003a0: 6b90 803f 8e72 7d3f ca1d 7c3f bf3d 803f
000003b0: 9a83 823f e4d9 7f3f 6894 853f 15e0 813f
000003c0: 80b1 833f 9738 823f 5d4e 813f dea3 7f3f
000003d0: 811e 823f 98d4 803f 3524 803f c194 803f
000003e0: 66aa 803f 61fd 823f e33f 833f 4078 7f3f
000003f0: c777 813f 21c4 7f3f 07cb 813f 8c84 7e3f

while/MatMul_11 f4 [512, 128]
-0.045786675 -0.028035155 -0.042656433 0.016010113 -0.0040121363 -0.08707051 -0.22713046 0.09640924
-0.06742249 -0.028109474 0.07093529 0.0102075385 -0.016450498 0.020301532 0.0019069469 -0.06862635
0.03841261 0.045495413 -0.10348858 -0.08508077 0.03359566 -0.109928854 0.019670658 0.16200373
-0.0058645713 -0.025070319 0.08780992 -0.059552435 0.09696372 0.018659998 -0.0076363324 -0.09408722
-0.016334489 -0.00079929334 0.059089564 -0.003086783 -0.028460495 -0.03958709 -0.0025971446 0.06474261
0.011077491 -0.0004315721 -0.051933717 -0.051624347 -0.11823875 -0.10634102 0.04349111 0.10577394
-0.0946267 -0.032457344 0.016853994 0.044115223 0.025987854 -0.0065502585 -0.11652716 -0.0103895
-0.05913441 -0.07224676 0.046370067 0.06816227 0.0746596 0.09646206 0.0043011103 -0.085446715
-0.07682729 0.041386936 -0.056988318 -0.006631567 -0.0062535596 0.047812797 -0.04380611 -0.11925931
-0.005267279 -0.034351163 0.0059500304 -0.012973027 0.05823804 0.04426989 0.048791446 -0.03408523
-0.007840496 -0.025190692 0.024798037 -0.11119295 0.027209327 0.047607236 0.042924263 -0.021131951
0.0868142 -0.1109672 -0.15108064 -0.04095063 -0.020156555 0.10721786 0.0074761366 0.032053594
-0.046698473 -0.042495213 0.04738718 -0.005036906 0.14210075 0.016305106 0.09650897 -0.07314261
-0.05340377 -0.0068521877 0.021103315 0.017241051 0.010414368 0.019984681 -0.001479746 0.094412714
0.0327435 -0.07283638 0.100112125 -0.018131023 -0.13736406 -0.014571376 -0.06878558 -0.040999793
-0.011917643 0.105724104 -0.055641312 -0.03367653 0.047877967 -0.12882222 0.10121726 0.06626183
0.072979204 -0.033953376 0.07069913 0.04216962 0.036634225 0.10055083 0.023438318 0.0009140528
-0.08938985 -0.043271232 0.0072759218 -0.051047683 -0.073538005 0.016038377 0.027941536 0.08172013
0.020635378 -0.031831447 0.2583174 -0.071678065 -0.093843214 -0.0088717155 -0.05060321 0.07012843
-0.11468824 0.01257117 0.06863005 -0.09788657 -0.012724329 -0.04848649 0.15991595 -0.014464997
0.16489792 -0.09038004 0.04479463 0.055733602 0.04907453 -0.03939388 -0.09238455 0.04966759
0.0028279896 0.04707117 0.03530385 0.0023509935 -0.014333942 0.01049522 -0.04759657 -0.10437714
0.016339112 0.04106971 0.04552023 0.15361021 0.10689558 0.014447903 -0.037415493 0.07110026
-0.021202525 -0.044511195 0.044035222 -0.14101236 -0.013079499 -0.03189298 0.016053535 -0.07175874
0.121899985 0.039142974 -0.11165215 -0.068247534 -0.033588685 -0.0057074204 0.055004615 -0.0287246
-0.13521823 -0.02231621 0.02078066 -0.064689845 -0.05011498 0.07673862 0.12436556 0.04924215
-0.019386293 0.021284882 0.011873135 -0.0020098395 0.065353766 -0.024324385 -0.03907285 -0.07124531
-0.019134777 0.03584913 -0.020281138 -0.015640283 -0.054104358 0.07786743 0.031976316 -0.021840641
-0.04167933 -0.059319068 -0.074709035 -0.045627043 -0.044007782 0.15351881 -0.04535715 -0.01584152
-0.11137198 -0.031058405 0.00826373 0.08909475 -0.10898101 0.05829747 -0.07073847 0.053526077
-0.12483692 0.11356535 0.09114866 -0.06562286 0.0054420414 -0.0529853 0.02234342 0.074014455
0.057390645 0.042118642 -0.06927532 -0.020472804 -0.023290774 -0.013716637 -0.00051043066 -0.13020948
00000000: cf8a 3bbd fba9 e5bc 83b8 2ebd a427 833c
00000010: 3d78 83bb 0652 b2bd e394 68be 3572 c53d
00000020: cd14 8abd d745 e6bc 8546 913d 853d 273c
00000030: 32c3 86bc 664f a63c 85f2 f93a f98b 8cbd
00000040: 8a56 1d3d 6659 3a3d d2f1 d3bd d43e aebd
00000050: 9a9b 093d 6122 e1bd 5c24 a13c 4ee4 253e
00000060: 972b c0bb 4560 cdbc b0d5 b33d 41ed 73bd
00000070: ea94 c63d dadc 983c 333a fabb cdb0 c0bd
00000080: e8cf 85bc ab87 51ba e607 723d a04b 4abb
00000090: fc25 e9bc 1326 22bd db34 2abb c697 843d
000000a0: 5d7e 353c a044 e2b9 73b8 54bd 0d74 53bd
000000b0: 2827 f2bd 52c9 d9bd bc23 323d 02a0 d83d
000000c0: a5cb c1bd fef1 04bd 6311 8a3c 2ab2 343d
000000d0: 7be4 d43c 8da3 d6bb cba5 eebd b938 2abc
000000e0: ec36 72bd 1cf6 93bd 8aee 3d3d a998 8b3d
000000f0: 22e7 983d e78d c53d 54f0 8c3b b0fe aebd
00000100: a057 9dbd 5985 293d 956c 69bd 9e4d d9bb
00000110: a9ea ccbb 5ad7 433d 096e 33bd 3a3e f4bd
00000120: 2499 acbb ceb3 0cbd 79f8 c23b d28c 54bc
00000130: 038b 6e3d 5854 353d 8ad9 473d f49c 0bbd
00000140: 6c75 00bc b65c cebc 4125 cb3c 21b9 e3bd
00000150: 18e6 de3c ceff 423d 5ad1 2f3d ea1c adbc
00000160: a5cb b13d c542 e3bd e2b4 1abe d9bb 27bd
00000170: 5c1f a5bc 0a95 db3d 61fa f43b a14a 033d
00000180: e646 3fbd 760f 2ebd 0f19 423d a10c a5bb
00000190: dc82 113e 4992 853c 7fa6 c53d cbcb 95bd
000001a0: e9bd 5abd 5188 e0bb dce0 ac3c 1b3d 8d3c
000001b0: 06a1 2a3c eab6 a33c 09f4 c1ba 745b c13d
000001c0: 0c1e 063d 3d2b 95bd 9607 cd3d 8387 94bc
000001d0: 2aa9 0cbe c8bc 6ebc 74df 8cbd 66ef 27bd
000001e0: 3842 43bc e185 d83d 25e8 63bd 67f0 09bd
000001f0: b01b 443d f9e9 03be ff4a cf3d 48b4 873d
00000200: 1f76 953d b212 0bbd b5ca 903d 0dba 2c3d
00000210: c50d 163d 98ed cd3d b701 c03c 0c9d 6f3a
00000220: 0712 b7bd 2d3d 31bd db6a ee3b 6017 51bd
00000230: 189b 96bd ea62 833c a6e5 e43c e25c a73d
00000240: 860b a93c b161 02bd 2e42 843e f3cb 92bd
00000250: df30 c0bd ac5a 11bc 5045 4fbd 7f9f 8f3d
00000260: abe1 eabd 4ff7 4d3c e98d 8c3d c178 c8bd
00000270: b479 50bc c599 46bd 02c1 233e 98fe 6cbc
00000280: 00db 283e 2c19 b9bd 937a 373d eb48 643d
00000290: 6002 493d 7a5b 21bd 1c34 bdbd 3e70 4b3d
000002a0: cb55 393b b3cd 403d c59a 103d 2013 1a3b
000002b0: e9d8 6abc 25f4 2b3c 9ff4 42bd afc3 d5bd
000002c0: 9ad9 853c b638 283d 6c73 3a3d ff4b 1d3e
000002d0: 12ec da3d e6b6 6c3c fd40 19bd 039d 913d
000002e0: ebb0 adbc 5f51 36bd 475e 343d 8b65 10be
000002f0: 654b 56bc 37a2 02bd b482 833c 3ff6 92bd
00000300: b3a6 f93d 6254 203d e2a9 e4bd 5dc5 8bbd
00000310: 4a94 09bd 5005 bbbb 854c 613d da4f ebbc
00000320: a676 0abe 7cd0 b6bc 343c aa3c 1c7c 84bd
00000330: 5e45 4dbd 2329 9d3d 5fb3 fe3d 23b2 493d
00000340: 01d0 9ebc a25d ae3c 8a87 423c 83b7 03bb
00000350: 32d8 853d ef43 c7bc da0a 20bd 10e9 91bd
00000360: 89c0 9cbc 8ad6 123d a124 a6bc 0d20 80bc
00000370: 889c 5dbd f678 9f3d 99f9 023d 25eb b2bc
00000380: f2b7 2abd 8df8 72bd 0d01 99bd 6ce3 3abd
00000390: 8141 34bd 0934 1d3e 6bc8 39bd 13c6 81bc
000003a0: fe16 e4bd 326e febc 9964 073c 4f77 b63d
000003b0: 7031 dfbd 54c9 6e3d 55df 90bd 293e 5b3d
000003c0: 80aa ffbd f394 e83d 26ac ba3d 4765 86bd
000003d0: 2753 b23b 1d07 59bd 8c09 b73c e494 973d
000003e0: 7412 6b3d 9984 2c3d 38e0 8dbd 95b6 a7bc
000003f0: 4bcc bebc bfbb 60bc 6cce 05ba a255 05be

while/MatMul f4 [512, 234]
0.037984945 -0.06878025 0.08123955 -0.01328344 0.0633189 0.017864287 0.017692806 0.013936378
-0.03821767 0.056787178 0.06876225 0.010802528 -0.023058856 0.074800014 -0.047543544 0.036322974
-0.0068203043 -0.04228393 0.088790335 0.07783455 0.06485673 0.018748747 0.055906847 0.050396338
0.062299903 0.053747352 -0.027940724 0.075255126 0.077846706 -0.05211861 0.004578982 -0.038589563
-3.473247e-05 0.07105018 -0.0140212225 -0.04702098 0.056910608 0.018588716 0.048025835 0.034438245
0.013964646 0.08280342 0.06399337 -0.0585811 0.06724724 0.069511384 -0.019515174 0.06993796
0.05381025 -0.06883958 0.037626803 0.06789895 -0.022414366 0.04371924 -0.043012362 0.069226444
0.0053277095 0.08134575 -0.04717542 0.0008372947 -0.013897305 0.034463737 -0.016438931 0.025071891
-0.034222 0.023515664 0.016005889 -0.071315765 -0.10308406 0.030656388 -0.06256866 -0.009204077
-0.051645126 -0.06299925 0.035222463 0.10672948 0.07957359 -0.097937346 -0.021832336 -0.0073362393
0.06076014 -0.0064682537 -0.063014455 0.06369665 -0.028641323 -0.053099867 -0.11434605 0.05704295
0.02002723 0.056174066 -0.0134346625 0.083728895 -0.043091252 -0.027146809 0.07244121 -0.06254865
0.08459664 0.09926171 0.051249776 0.10255908 0.036773704 0.05742734 0.006879819 0.093788706
-0.028081177 0.04082684 0.02524704 -0.033695687 0.07580932 0.02247739 0.043709733 -0.061488833
-0.043250863 0.0041500446 -0.05329403 0.090154774 0.009552171 0.030207222 0.04891123 -0.050316267
0.046463247 -0.05348821 0.06951534 0.05488736 0.034617964 0.05327811 0.000999671 -0.05208738
0.050546292 -0.081580974 -0.034092374 -0.037912175 0.050434027 0.085392386 0.055516504 -0.074402064
0.03915836 0.041094065 0.028948188 0.056029517 -0.053121142 0.01127643 -0.074458584 -0.07715588
0.0013338203 -0.0783692 0.01721282 0.048096076 -0.079996854 0.076759525 -0.09792344 -0.0390347
-0.122935444 -0.031297576 -0.013093015 0.026019778 0.02377583 -0.012698645 0.017756645 -0.09134244
0.05277349 -0.07553645 0.11601927 -0.021952238 -0.087776765 0.003308146 -0.026866544 -0.036747333
0.026208159 0.028755412 0.0034937407 -0.0647641 0.04747586 -0.039080676 0.10510022 0.0054510883
-0.067347735 -0.0126455575 -0.06510259 -0.060376607 0.04334592 -0.0019708364 0.054366644 0.03357711
0.004785623 0.19870666 0.0462511 0.07054149 -0.11799326 0.008401541 0.09992123 0.0951283
-0.17545535 -0.14019848 0.020826604 -0.09617089 -0.014487417 -0.01687511 -0.0547338 -0.09834929
-0.014381955 -0.03837272 -0.061903194 -0.0031342413 -0.008220048 0.13247934 -0.033323478 0.032865804
0.0007109332 0.021229148 -0.07710124 -0.11538037 -0.09388051 -0.013475863 -0.022787655 -0.01738322
0.026136002 -0.09178973 -0.062828176 -0.024279237 -0.091519564 0.06883079 -0.031794652 -0.030471727
0.026100688 -0.052244067 -0.062978834 0.08407937 0.038901165 -0.06825926 0.085000455 0.06475495
0.033907056 -0.03857347 0.016136585 0.008082758 -0.055208318 -0.089498 0.011537505 -0.11032915
-0.033140875 -0.0380118 -0.07434783 -0.090052985 -0.028710268 0.010171517 -0.014561901 -0.08845751
0.05003568 -0.037094068 -0.057326898 -0.074052274 0.045024488 -0.07713923 0.06320531 0.040409375
00000000: 1a96 1b3d a9dc 8cbd ec60 a63d c9a2 59bc
00000010: 57ad 813d 2058 923c 81f0 903c 6855 643c
00000020: 228a 1cbd ac99 683d 39d3 8c3d 16fd 303c
00000030: ede5 bcbc c030 993d 05bd 42bd 66c7 143d
00000040: dc7c dfbb ea31 2dbd b5d7 b53d b867 9f3d
00000050: 9bd3 843d f996 993c 94fe 643d 646c 4e3d
00000060: 2f2e 7f3d 2f26 5c3d f2e3 e4bc 5c1f 9a3d
00000070: 186e 9f3d 537a 55bd 490b 963b 1710 1ebd
00000080: b5ad 11b8 c282 913d 45b9 65bc 1299 40bd
00000090: 191b 693d 5d47 983c bdb6 443d 1e0f 0d3d
000000a0: f8cb 643c d794 a93d f50e 833d bcf2 6fbd
000000b0: ecb8 893d fc5b 8e3d 49de 9fbc a23b 8f3d
000000c0: 2368 5c3d c4fb 8cbd 901e 1a3d 9b0e 8b3d
000000d0: 559e b7bc f212 333d bb2d 30bd 98c6 8d3d
000000e0: 1194 ae3b 9a98 a63d 033b 41bd e57d 5b3a
000000f0: 86b1 63bc d929 0d3d f0aa 86bc 9163 cd3c
00000100: 5e2c 0cbd eca3 c03c c81e 833c 000e 92bd
00000110: bc1d d3bd 1b23 fb3c ff23 80bd b2cc 16bc
00000120: d789 53bd c005 81bd 6e45 103d fc94 da3d
00000130: 7af7 a23d 6093 c8bd bad9 b2bc d664 f0bb
00000140: a0df 783d a5f3 d3bb b90d 81bd 6473 823d
00000150: 35a1 eabc 3f7f 59bd 432e eabd dea5 693d
00000160: 2510 a43c c716 663d 0f1d 5cbc 0e7a ab3d
00000170: 7480 30bd fc62 debc 0f5c 943d 8219 80bd
00000180: 0141 ad3d b949 cb3d 49eb 513d 7f0a d23d
00000190: 06a0 163d ee38 6b3d 1b70 e13b 4b14 c03d
000001a0: 7f0a e6bc 0b3a 273d e1d2 ce3c 7d04 0abd
000001b0: eb41 9b3d 8122 b83c fa08 333d b7db 7bbd
000001c0: d127 31bd 19fd 873b d74a 5abd 11a3 b83d
000001d0: b680 1c3c 2375 f73c 2457 483d 6e18 4ebd
000001e0: 3f50 3e3d 7416 5bbd 0f5e 8e3d 92d1 603d
000001f0: 91cb 0d3d 263a 5a3d 6507 833a 9459 55bd
00000200: a109 4f3d ed13 a7bd 72a4 0bbd cc49 1bbd
00000210: e993 4e3d 34e2 ae3d 4665 633d 1c60 98bd
00000220: 8464 203d 4052 283d c024 ed3c 357f 653d
00000230: 8e95 59bd c7c0 383c be7d 98bd e703 9ebd
00000240: 95d3 ae3a 0880 a0bd e601 8d3c 6400 453d
00000250: 64d5 a3bd 1934 9d3d 168c c8bd d9e2 1fbd
00000260: 94c5 fbbd e331 00bd 1684 56bc 6e27 d53c
00000270: 88c5 c23c fa0d 50bc 6276 913c bf11 bbbd
00000280: 0429 583d dbb2 9abd 839b ed3d 2ed5 b3bc
00000290: 4ec4 b3bd 7bcd 583b 3a17 dcbc 5f84 16bd
000002a0: 7eb2 d63c 7890 eb3c 3ef7 643b 0aa3 84bd
000002b0: 0c76 423d 0f13 20bd c93e d73d 0b9f b23b
000002c0: 9ced 89bd 502f 4fbc 8254 85bd 764d 77bd
000002d0: 7e8b 313d 2629 01bb 8faf 5e3d 2788 093d
000002e0: b7d0 9c3b c279 4b3e cb71 3d3d 0f78 903d
000002f0: 73a6 f1bd 9ea6 093c 80a3 cc3d a0d2 c23d
00000300: 91aa 33be 3190 0fbe 8e9c aa3c 3ef5 c4bd
00000310: a25c 6dbc ac3d 8abc 8d30 60bd 5a6b c9bd
00000320: 4ba2 6bbc b72c 1dbd 348e 7dbd d867 4dbb
00000330: 61ad 06bc aaa8 073e 337e 08bd 4b9e 063d
00000340: eb5d 3a3a c0e8 ad3c 41e7 9dbd 8b4c ecbd
00000350: 6d44 c0bd dec9 5cbc 2dad babc 4167 8ebc
00000360: 2b1b d63c 41fc bbbd 0fac 80bd 40e5 c6bc
00000370: 9c6e bbbd 28f7 8c3d 1c3b 02bd d89f f9bc
00000380: 1cd1 d53c e0fd 55bd 0cfb 80bd ce31 ac3d
00000390: d456 1f3d 83cb 8bbd b814 ae3d 3e9e 843d
000003a0: 20e2 0a3d 37ff 1dbd df30 843c 8b6d 043c
000003b0: 1e22 62bd ba4a b7bd ce07 3d3c 40f4 e1bd
000003c0: babe 07bd 43b2 1bbd ad43 98bd b36d b8bd
000003d0: cc31 ebbc 6fa6 263c 0a95 6ebc 3629 b5bd
000003e0: 37f2 4c3d f3ef 17bd 9ccf 6abd b8a8 97bd
000003f0: 996b 383d 2cfb 9dbd c971 813d 4d84 253d
