tensorflow_lite/sign_language_detect_model.tflite (tflite, 790944 bytes, 8 tensors)

sequential/lstm/Read_2/ReadVariableOp f4 [512]
0.016607735 0.036551643 0.0010565127 -0.0007190578 -0.017269777 -0.00817177 0.027380567 0.0031499334
-0.013876442 0.019883944 0.014759747 0.032854483 0.0051454986 0.006437524 0.00707451 0.0061326884
0.0042308597 -0.0047821156 0.029218586 0.0029370065 0.016569594 -8.269791e-05 -0.0026788847 0.02312081
0.0012036669 0.0071838927 -0.016607732 0.0070948843 0.0111906435 0.03581778 0.035780665 -0.0114421975
0.014554391 0.021362089 0.014458309 0.022467202 -0.0054354374 0.041069854 -0.0104927905 -0.0122796055
0.043609742 0.019407466 0.01463543 0.006698113 -0.010750621 0.016951868 0.025619688 0.021357002
0.032166127 -0.008286026 0.0025961942 0.02339346 -0.03466142 -0.012353345 -0.0075499727 -0.020056382
-0.001790222 -0.015596532 0.00037865806 0.021838862 -0.0059620794 0.0599228 0.0341566 0.0021427362
-0.0001639017 0.002861305 0.028293496 0.031850938 -0.005269271 0.017931215 0.029508896 -0.01598605
-0.0093611395 0.011680035 0.017383944 0.043632302 0.02712111 0.054246612 0.02050788 0.021645619
-0.004081679 0.03189345 0.00091179204 0.0026028808 0.03880119 -0.01105994 -0.018333346 0.036185034
-0.0053523765 -0.013271626 -0.0034387158 -0.00052717305 -0.009164488 0.021435108 0.012562483 -0.0031618632
-0.012833329 0.01950077 -0.018835403 -0.008369496 0.023074793 -0.01873114 -0.014008076 0.013777748
0.026685674 -0.0072028376 0.016906798 0.0039611463 0.01180426 0.0077672917 0.017989853 0.020495137
0.00418478 -0.010595653 -0.012640811 -0.00044943384 0.024774041 0.004152435 0.027372576 -0.031064486
0.016225206 0.023374205 -0.020070234 -0.017009055 -0.013796111 -0.00895406 0.0037791932 -0.0464147
1.0046662 1.0037903 0.9695647 0.98074484 0.9777555 0.98887235 0.9937332 1.0720084
0.9795092 1.0211201 0.9670479 1.0077223 0.99331707 1.0138364 0.99536264 0.9971347
1.0091305 1.0308695 1.0082933 0.9842066 1.0235815 0.9984525 0.98565507 1.0034589
1.004751 1.0026577 0.9841883 1.0087821 0.99801576 0.9946811 1.0152718 1.0173879
1.0011779 1.0149019 1.0061563 0.9928185 0.98982537 0.99923384 1.0111374 0.9984804
0.99644727 1.0192084 0.99498737 1.0064789 0.9884623 1.0122149 1.0061904 1.0026244
1.0034282 0.979168 1.0037444 0.99810827 0.9613742 1.0209137 1.00345 0.9931806
0.9717753 0.9865866 1.000041 0.98904943 1.0117203 1.028527 1.0048405 1.0119256
0.98783046 0.99200815 1.0090166 1.0327194 0.987596 1.0023366 1.0224069 0.98428726
0.9837459 1.0148537 0.9879525 1.0021628 1.0022986 1.0045199 1.0186099 0.9939654
1.0299895 0.9876429 1.0039647 0.99714154 0.996923 1.0063663 0.97977406 0.98690355
0.99695003 0.98913306 1.020891 0.9892246 1.0031236 1.0199505 0.9951378 0.9996107
1.0035734 1.0106411 0.99379766 0.98953205 1.020506 0.97632605 0.99172777 0.9968672
1.000472 1.0157611 0.98858607 0.99063087 1.007031 0.9876344 0.991952 1.0153822
0.9968328 0.990871 0.98718554 0.9929004 0.9955484 1.0033039 1.041598 0.98571783
1.0147455 0.9981197 0.99078417 0.97762954 0.97675323 0.9989219 1.0298333 1.0052319
00000000: f20c 883c 2db7 153d af7a 8a3a 277f 3cba
00000010: 5979 8dbc e3e2 05bc 364d e03c 1d6f 4e3b
00000020: 045a 63bc a7e3 a23c ded2 713c 6c92 063d
00000030: 929b a83b def1 d23b 4bd1 e73b b8f4 c83b
00000040: 06a3 8a3b 4bb3 9cbb d15b ef3c cb7a 403b
00000050: f5bc 873c 1a6e adb8 3a90 2fbb da67 bd3c
00000060: 5cc4 9d3a dc66 eb3b f00c 88bc 347c e83b
00000070: f658 373c aab5 123d bf8e 123d 0e78 3bbc
00000080: 8a75 6e3c 8cff ae3c 8be2 6c3c 230d b83c
00000090: c11b b2bb dd38 283d f4e9 2bbc 6630 49bc
000000a0: 21a0 323d 68fc 9e3c 71c9 6f3c d87b db3b
000000b0: 5f23 30bc a5de 8a3c 61e0 d13c e1f4 ae3c
000000c0: a1c0 033d 1dc2 07bc e924 2a3b a4a3 bf3c
000000d0: 22f9 0dbd af65 4abc c365 f7bb 484d a4bc
000000e0: e2a5 eaba 9988 7fbc a086 c639 6ae7 b23c
000000f0: 8c5d c3bb 9c71 753d cae7 0b3d 266d 0c3b
00000100: 07dd 2bb9 bb84 3b3b c3c7 e73c 2176 023d
00000110: d9a9 acbb 7ce4 923c a4bc f13c 2df5 82bc
00000120: 775f 19bc 9e5d 3f3c c668 8e3c c9b7 323d
00000130: 172d de3c b231 5e3d 2400 a83c 2752 b13c
00000140: 9bbf 85bb b5a2 023d 5405 6f3a 1895 2a3b
00000150: ffed 1e3d c034 35bc d02f 96bc c236 143d
00000160: fd62 afbb 3c71 59bc 145c 61bb fc31 0aba
00000170: a626 16bc ae98 af3c dfd2 4d3c 4337 4fbb
00000180: e242 52bc 14c0 9f3c b44c 9abc 3620 09bc
00000190: 5907 bd3c 0c72 99bc 2182 65bc 10bc 613c
000001a0: ea9b da3c c805 ecbb 2080 8a3c 81cc 813b
000001b0: a866 413c c484 fe3b 755f 933c 6be5 a73c
000001c0: 7b20 893b 6499 2dbc 671b 4fbc fda1 ebb9
000001d0: eef2 ca3c 2611 883b 743c e03c f37a febc
000001e0: b9ea 843c 437b bf3c 556a a4bc 9356 8bbc
000001f0: 1509 62bc 0db4 12bc 57ac 773b 571d 3ebd
00000200: e798 803f 337c 803f 6435 783f 1812 7b3f
00000210: 2f4e 7a3f bd26 7d3f 4d65 7e3f 9237 893f
00000220: 1dc1 7a3f 10b4 823f 7490 773f 0bfd 803f
00000230: 074a 7e3f 64c5 813f 16d0 7e3f 3844 7f3f
00000240: 302b 813f 88f3 833f c10f 813f f7f4 7b3f
00000250: b804 833f 959a 7f3f e453 7c3f 5771 803f
00000260: ae9b 803f 1657 803f c4f3 7b3f c61f 813f
00000270: f67d 7f3f 6ca3 7e3f 6df4 813f c439 823f
00000280: 9926 803f 4ee8 813f bbc9 803f 5a29 7e3f
00000290: 3265 7d3f cacd 7f3f f36c 813f 699c 7f3f
000002a0: 2b17 7f3f 6c75 823f 7eb7 7e3f 4dd4 803f
000002b0: de0b 7d3f 4290 813f d9ca 803f ff55 803f
000002c0: 5670 803f c1aa 7a3f b27a 803f 0684 7f3f
000002d0: 9f1c 763f 4dad 823f 0d71 803f 1541 7e3f
000002e0: 44c6 783f f090 7c3f 5801 803f 5832 7d3f
000002f0: 0d80 813f c6a6 833f 9d9e 803f c786 813f
00000300: 75e2 7c3f 3ff4 7d3f 7527 813f 2630 843f
00000310: 17d3 7c3f 914c 803f 3bde 823f 40fa 7b3f
00000320: c5d6 7b3f bae6 813f 74ea 7c3f df46 803f
00000330: 524b 803f 1c94 803f cf61 823f 8474 7e3f
00000340: b2d6 833f 2ad6 7c3f ea81 803f ab44 7f3f
00000350: 5936 7f3f 9cd0 803f 79d2 7a3f b6a5 7c3f
00000360: 1e38 7f3f d337 7d3f 8eac 823f d33d 7d3f
00000370: 5b66 803f bd8d 823f 5ac1 7e3f 7de6 7f3f
00000380: 1875 803f b05c 813f 8669 7e3f f951 7d3f
00000390: f19f 823f 81f0 793f dfe1 7d3f b032 7f3f
000003a0: 770f 803f 7604 823f fa13 7d3f fc99 7d3f
000003b0: 64e6 803f 9cd5 7c3f 91f0 7d3f 0bf8 813f
000003c0: 6f30 7f3f b9a9 7d3f 31b8 7c3f b82e 7e3f
000003d0: 43dc 7e3f 436c 803f 1553 853f 0158 7c3f
000003e0: 2ee3 813f c684 7f3f 08a4 7d3f ee45 7a3f
000003f0: 800c 7a3f 58b9 7f3f 94d1 833f 70ab 803f

sequential/dense/BiasAdd/ReadVariableOp f4 [64]
0.09005629 0.041020993 0.04233148 0.054836962 0.083707705 0.008268726 0.0073751085 0.08499788
-0.0072442987 0.008724655 0.058320258 0.026157627 0.027629895 0.03209751 0.04742152 0.023811886
-0.011779969 0.020530378 0.03784272 0.086045496 0.055794876 -0.008095741 0.017651167 0.059759352
0.033067204 0.0129075395 -0.0075741555 0.021680092 -0.012137066 0.1149321 0.06515624 0.06374979
0.07761674 0.02281434 -0.028694829 0.046528332 0.0976163 -0.0041610887 0.045089632 0.021558942
-0.0067895004 0.051457357 0.020879807 0.047397386 0.030187769 0.051878784 0.03141785 0.0118723605
0.044520374 -0.013595699 0.045480207 0.10060358 -0.019910289 0.028740404 0.044469126 0.030753266
-0.0024007508 0.006534048 0.029966248 0.07816531 0.04837405 0.030318273 0.01816846 -0.012162171
00000000: 6f6f b83d a105 283d c663 2d3d b99c 603d
00000010: f26e ab3d 8d79 073c e5aa f13b 5e13 ae3d
00000020: 9561 edbb dbf1 0e3c 39e1 6e3d 8548 d63c
00000030: 1758 e23c ae78 033d 113d 423d 2511 c33c
00000040: c500 41bc 532f a83c f800 1b3d 9f38 b03d
00000050: 2b89 643d 00a4 04bc 2e99 903c 39c6 743d
00000060: 7a71 073d 257a 533c 9f30 f8bb 739a b13c
00000070: 8bda 46bc 8561 eb3d a270 853d 408f 823d
00000080: 86f5 9e3d 24e5 ba3c 6b11 ebbc 7e94 3e3d
00000090: 0eeb c73d be59 88bb e8af 383d 619c b03c
000000a0: 757a debb f3c4 523d 210c ab3c c323 423d
000000b0: 574c f73c d97e 543d 01b0 003d 4a84 423c
000000c0: ff5a 363d 7fc0 5ebc 7449 3a3d 4009 ce3d
000000d0: e71a a3bc ff70 eb3c 4225 363d 46ee fb3c
000000e0: ea55 1dbb 911b d63b c77b f53c 2215 a03d
000000f0: de23 463d 075e f83c 06d6 943c d843 47bc

sequential/dense_1/BiasAdd/ReadVariableOp f4 [10]
-0.048461393 0.04620099 -0.08135882 -0.0074731647 -0.03810638 0.040566742 0.019884074 0.01949038
-0.028333824 0.032199696
00000000: 747f 46bd 403d 3d3d 749f a6bd 73e1 f4bb
00000010: 6f15 1cbd 5029 263d ede3 a23c 4aaa 9f3c
00000020: 561c e8bc d4e3 033d

sequential/dense/MatMul f4 [64, 128]
-0.021782264 -0.1568002 0.050775796 -0.23077554 -0.12034644 0.09130068 0.29636353 0.05159419
0.0299625 0.16192323 -0.20353176 0.16619377 -0.16448161 -0.141341 0.059076224 -0.2710523
-0.015232201 -0.108634464 0.013002192 0.07457489 0.034710564 0.036822636 0.08241595 0.13144854
-0.155553 -0.018249728 0.20952117 0.14325623 -0.067509644 0.037340403 0.022654066 0.25150502
0.11636489 -0.21274236 -0.13007297 -0.045924928 0.002755119 -0.15661731 0.17163585 -0.15510142
-0.050717406 -0.17428662 0.09781294 -0.22713852 -0.09041891 -0.08464433 0.19076923 -0.14773168
0.109663635 -0.0327862 -0.0033113337 0.089392476 -0.094741315 -0.058506977 -0.15511273 -0.0030842335
-0.1291751 0.17639789 -0.04866956 -0.16514626 -0.0325837 -0.1306029 0.21695071 -0.113865554
-0.031102952 -0.1636916 -0.07327155 -0.09446157 0.07647642 0.091665745 -0.20632432 -0.07655978
-0.17122747 -0.16829133 0.05794121 -0.18572673 -0.11624439 -0.0903548 0.10997406 0.14677452
-0.11553453 0.05812816 0.13967548 0.1294565 0.02893512 0.002910764 0.12997721 0.040844694
-0.09846936 0.01702133 0.05693597 -0.10523559 0.10742875 -0.15068011 -0.28104982 0.057937823
0.04434622 0.13593979 -0.101301216 -0.06281688 -0.005526125 0.0014378296 -0.037842363 -0.068301834
-0.095945 0.15478699 0.11952278 0.19777466 0.15257844 -0.019810146 0.18436085 0.058926594
0.08316523 0.023761693 0.31299934 0.19900703 -0.07092023 -0.12642616 -0.15517725 0.14508474
-0.13362262 -0.107595816 0.02171858 -0.057217132 -0.1581849 -0.029621122 0.008668611 0.10548403
-0.037056006 0.02909381 -0.016190676 0.15630956 -0.14396669 -0.020276863 -0.079735845 0.20608187
-0.015249406 -0.17374095 0.020658782 0.04478773 -0.05398218 -0.15259816 -0.14524046 0.06674458
-0.14864483 0.039791625 -0.095426016 0.17807631 0.112114884 0.031697888 0.124516815 -0.02618924
0.008898831 0.046320714 -0.043812227 -0.10257494 -0.11109852 -0.13561542 -0.06325562 0.05521758
0.23332551 0.219992 0.103821374 0.1269332 -0.0056821783 -0.051214363 -0.13055585 -0.10903676
-0.25478154 -0.0719756 -0.025535181 0.021555811 -0.14768735 -0.22978914 0.13159879 0.016002722
0.08855944 0.14519882 0.13502423 -0.16372985 -0.22664419 -0.16748011 0.0996954 0.083381064
0.15173592 -0.13902915 -0.1701327 0.12331024 0.1572639 -0.028254004 0.15873468 0.13621022
0.08345707 0.12411511 0.23223495 -0.053129915 -0.18907163 0.15353215 0.00025569057 0.067794405
-0.045310743 0.015043614 -0.09512012 0.11578774 0.19005102 -0.10941778 -0.13843878 0.17660806
0.09731503 -0.06424124 -0.03459243 0.12170601 -0.07009133 0.24943808 0.2232527 -0.16190924
0.051301066 -0.13719147 0.13129008 -0.11878065 0.107169144 0.14998163 -0.11050324 0.03627497
-0.13214473 -0.10686238 -0.049078945 0.042676784 0.0028732878 0.13905561 0.14198923 0.08053441
0.1817107 -0.092598446 -0.10652343 -0.14946228 0.010890325 0.08052299 -0.015975108 0.1544104
-0.01510512 -0.011203073 0.15790617 0.1763065 -0.091251865 -0.2607895 -0.0813537 -0.11994664
-0.17154458 0.19681212 -0.06554609 0.025265103 -0.007821713 0.15716438 0.04367958 0.15734507
00000000: b870 b2bc 3b90 20be 48fa 4f3d 6c50 6cbe
00000010: 3278 f6bd dafb ba3d f6bc 973e 6e54 533d
00000020: eb73 f53c 34cf 253e a16a 50be b32e 2a3e
00000030: de6d 28be b2bb 10be e9f9 713d 5ec7 8abe
00000040: 7b90 79bc bf7b debd 2507 553c b8ba 983d
00000050: aa2c 0e3d 55d3 163d b2c9 a83d 729a 063e
00000060: 4949 1fbe 7480 95bc b88c 563e c3b1 123e
00000070: 7f42 8abd 40f2 183d 0595 b93c 44c5 803e
00000080: b750 ee3d 22d9 59be d931 05be c71b 3cbd
00000090: 3a8f 343b 4a60 20be 4fc1 2f3e e8d2 1ebe
000000a0: 0ebd 4fbd 3178 32be 2752 c83d 0097 68be
000000b0: 8d2d b9bd 025a adbd 0259 433e f946 17be
000000c0: 5497 e03d d34a 06bd f602 59bb 6713 b73d
000000d0: bc07 c2bd 03a5 6fbd dfd5 1ebe da20 4abb
000000e0: 7a46 04be a6a1 343e bc59 47bd 1a1c 29be
000000f0: 7c76 05bd c4bc 05be 5428 5e3e 5832 e9bd
00000100: 9ecb febc c59e 27be 650f 96bd 1175 c1bd
00000110: ab9f 9c3d 40bb bb3d af46 53be 60cb 9cbd
00000120: 4156 2fbe 9054 2cbe c353 6d3d 262f 3ebe
00000130: 8a11 eebd f00b b9bd 143a e13d 0f4c 163e
00000140: 5e9d ecbd cb17 6e3d 1707 0f3e 3f90 043e
00000150: 5809 ed3c 84c2 3e3b bf18 053e c44c 273d
00000160: 4eaa c9bd 5170 8b3c b135 693d c285 d7bd
00000170: 9b03 dc3d e34b 1abe c3e5 8fbe 3650 6d3d
00000180: 62a4 353d cd33 0b3e 0377 cfbd 23a6 80bd
00000190: 7f14 b5bb 8e75 bc3a 9800 1bbd d5e1 8bbd
000001a0: d07e c4bd 7b80 1e3e 5cc8 f43d 7185 4a3e
000001b0: 863d 1c3e e348 a2bc 17c9 3c3e 035d 713d
000001c0: 8852 aa3d e2a7 c23c 7341 a03e 80c8 4b3e
000001d0: a03e 91bd dc75 01be c9e6 1ebe 1891 143e
000001e0: 5ed4 08be 325b dcbd 2aeb b13c 835c 6abd
000001f0: 39fb 21be ffa7 f2bc ca06 0e3c 0308 d83d
00000200: 0ac8 17bd 2456 ee3c 4fa2 84bc 9d0f 203e
00000210: 016c 13be aa1b a6bc 8c4c a3bd 2007 533e
00000220: a5d8 79bc 26e9 31be 9b3c a93c 5773 373d
00000230: 6b1c 5dbd b142 1cbe eab9 14be 62b1 883d
00000240: 5a36 18be 8bfc 223d b76e c3bd a359 363e
00000250: 7d9c e53d a5d5 013d ac02 ff3d d18a d6bc
00000260: 67cc 113c caba 3d3d 7374 33bd cf12 d2bd
00000270: 9f87 e3bd c5de 0abe 2a8c 81bd d42b 623d
00000280: e2ec 6e3e 9545 613e 4da0 d43d c7fa 013e
00000290: 9131 babb 27c6 51bd 6fb0 05be aa4e dfbd
000002a0: ba72 82be f267 93bd 282f d1bc d095 b03c
000002b0: 5a3b 17be d84d 6bbe d5c1 063e 2418 833c
000002c0: a75e b53d 00af 143e cb43 0a3e cca8 27be
000002d0: 6a15 68be e87f 2bbe 1a2d cc3d b1c3 aa3d
000002e0: a960 1b3e a85d 0ebe 4437 2ebe 148a fc3d
000002f0: ca09 213e f174 e7bc 588b 223e b17a 0b3e
00000300: 8aeb aa3d 1030 fe3d 00cf 6d3e c19e 59bd
00000310: fe9b 41be 8837 1d3e 350e 8639 cbd7 8a3d
00000320: c297 39bd 7e79 763c 56ce c2bd 1f22 ed3d
00000330: bc9c 423e 6e16 e0bd e5c2 0dbe bed8 343e
00000340: 1a4d c73d e990 83bd cbb0 0dbd 0041 f93d
00000350: 0b8c 8fbd b26c 7f3e 5b9c 643e 89cb 25be
00000360: 1121 523d ec7b 0cbe e870 063e 4543 f3bd
00000370: 7f7b db3d c994 193e 864f e2bd 1095 143d
00000380: f350 07be aada dabd 0107 49bd dacd 2e3d
00000390: c54d 3c3b 9864 0e3e a065 113e 3aef a43d
000003a0: 5f12 3a3e 41a4 bdbd f528 dabd a40c 19be
000003b0: 556d 323c 3de9 a43d 3bde 82bc c31d 1e3e
000003c0: 777b 77bc 188d 37bc 28b2 213e b189 343e
000003d0: 42e2 babd 3486 85be c59c a6bd 96a6 f5bd
000003e0: 62a9 2fbe 1e89 493e 073d 86bd c3f8 ce3c
000003f0: a426 00bc b3ef 203e 5ce9 323d 111f 213e

sequential/dense_1/MatMul f4 [10, 64]
0.17365086 0.21885358 -0.2466028 0.12377753 -0.17528872 0.013101851 -0.41134354 0.3054579
0.3155053 -0.05277384 -0.39082146 -0.11166167 -0.26977515 -0.24066024 0.018309876 0.35005194
0.24523255 -0.11827218 0.12230026 0.089441374 0.102612495 0.054396875 -0.3132146 -0.31142315
-0.32728004 -0.10507751 -0.35800987 0.2141539 0.061349306 0.07943608 0.28803265 -0.501192
-0.3368207 -0.13819212 -0.2949571 0.26926717 -0.0028695287 0.061971117 0.08014282 -0.3247849
-0.1009068 0.23310895 -0.24013275 -0.27221537 -0.19249028 -0.4396366 -0.17915699 0.0362404
0.2281956 -0.16834724 0.032063417 0.030406691 -0.04942861 0.22447063 -0.10017906 0.3117579
0.36213312 -0.15184341 -0.2573318 0.024328673 -0.014358165 -0.11461501 -0.097098075 0.26204553
0.15251788 0.19895917 -0.009875062 0.25970444 0.30030075 -0.25130242 -0.30001685 0.30601105
-0.1787353 -0.1672088 -0.1464092 -0.28566632 -0.034485828 -0.35644448 0.34837583 -0.25582388
-0.30342436 -0.52857065 0.12737942 -0.23708318 -0.26711366 -0.16617998 0.2811242 0.1503042
-0.24888864 -0.1926203 0.13498811 -0.21667892 -0.008459027 -0.2836964 0.31949195 -0.2851978
0.38532728 0.09586379 0.2426084 -0.25644296 -0.06813462 -0.15050764 0.14965121 -0.14150305
-0.23434277 0.17352012 0.054038573 -0.26745358 0.15478295 0.20977917 -0.19903556 -0.21955843
-0.23776749 0.07304912 -0.013463222 0.20196642 -0.4058775 0.19825375 0.022710582 0.18937452
-0.07971548 -0.077583924 -0.40629166 0.30179086 -0.27194872 -0.11802825 -0.18647316 -0.15175669
-0.29418314 0.108586095 -0.18300325 -0.49665645 0.031630337 0.20375499 0.09081901 0.025534121
0.16878365 -0.06855282 0.07024778 -0.16755149 -0.25744003 -0.02264783 0.0065965024 0.11090045
0.21229926 0.2277661 -0.32671905 0.21094681 0.25419468 0.30557224 -0.300136 -0.45926604
-0.18295547 0.24031569 -0.26039577 -0.21174756 0.05824356 -0.24263257 -0.39413023 -0.11121155
-0.46123776 0.30426818 0.28287104 0.25665706 -0.36404747 0.16754796 0.22733894 -0.32664016
-0.36522815 -0.28151375 -0.10601771 -0.10141086 -0.37860715 -0.08912885 -0.3893665 -0.2987893
0.15742761 -0.053806044 -0.17441109 -0.36087674 -0.34304923 -0.26302707 0.28069794 -0.0795364
-0.1546258 0.24731615 -0.37244108 0.1284826 -0.22591634 -0.24839471 0.30010766 0.2291604
-0.26674733 -0.1455084 0.30405015 -0.27752557 0.276962 -0.2411685 0.13637668 0.20454432
-0.0073688314 -0.27629626 0.118511245 0.2538507 -0.15690915 -0.14410025 -0.16826326 0.1263173
0.11207428 0.1111203 -0.37977445 -0.3573293 -0.2871845 0.29850382 0.08729068 -0.26480493
-0.03519556 -0.26966357 0.2837118 0.19536602 -0.16919245 0.064327955 -0.24078701 0.1345672
0.20488776 -0.062681176 -0.04819388 -0.062073145 -0.4146042 0.22191608 0.16725068 -0.0076077734
-0.2582432 0.07805973 0.22312526 0.21477103 -0.3009369 0.056397 -0.4056601 -0.014979518
-0.36596587 0.14106141 0.08907959 0.2806103 0.059659656 -0.2488602 0.18415913 -0.27646583
-0.06640413 -0.1640907 -0.090595916 0.12548047 0.10996782 0.23271869 -0.15363443 -0.10408801
00000000: 88d1 313e 271b 603e 7285 7cbe 137f fd3d
00000010: e37e 33be 25a9 563c 9f9b d2be fa64 9c3e
00000020: e989 a13e 6229 58bd c019 c8be e0ae e4bd
00000030: f81f 8abe a36f 76be 98fe 953c 023a b33e
00000040: 3e1e 7b3e af38 f2bd 8f78 fa3d 0a2d b73d
00000050: 8026 d23d 42cf 5e3d aa5d a0be db72 9fbe
00000060: 4091 a7be e132 d7bd 124d b7be 294b 5b3e
00000070: 6949 7b3d 62af a23d 0479 933e 1e4e 00bf
00000080: c373 acbe 3c82 0dbe 9e04 97be 63dd 893e
00000090: b40e 3cbb 6dd5 7d3d eb21 a43d 354a a6be
000000a0: 39a8 cebd 1db4 6e3e 5ce5 75be d05f 8bbe
000000b0: 2c1c 45be 0c18 e1be ee74 37be d070 143d
000000c0: 1bac 693e 3863 2cbe ee54 033d 7417 f93c
000000d0: a775 4abd a1db 653e ae2a cdbd bb9e 9f3e
000000e0: 8369 b93e d77c 1bbe fec0 83be ed4c c73c
000000f0: 823e 6bbc 46bb eabd 5bdb c6bd d52a 863e
00000100: a62d 1c3e f4bb 4b3e 03cb 21bc fbf7 843e
00000110: 05c1 993e b6aa 80be cf9b 99be 7bad 9c3e
00000120: 6306 37be c938 2bbe 4bec 15be db42 92be
00000130: 0341 0dbd e47f b6be 515e b23e 59fb 82be
00000140: 705a 9bbe 6850 07bf c06f 023e efc5 72be
00000150: 1fc3 88be 162b 2abe 83ef 8f3e 58e9 193e
00000160: aadc 7ebe 423e 45be 533a 0a3e 14e1 5dbe
00000170: bb97 0abc a840 91be 7394 a33e 7205 92be
00000180: 9e49 c53e 3c54 c43d 566e 783e 7e4c 83be
00000190: 2a8a 8bbd ad1e 1abe 2b3e 193e 2de6 10be
000001a0: 8df7 6fbe 42af 313e 8d57 5d3d adef 88be
000001b0: 6c7f 1e3e 5ad0 563e facf 4bbe edd3 60be
000001c0: 5279 73be c79a 953d d994 5cbc 49d0 4e3e
000001d0: 2dcf cfbe 0803 4b3e 8b0b ba3c 65eb 413e
000001e0: df41 a3bd 52e4 9ebd 7605 d0be 5584 9a3e
000001f0: dd3c 8bbe ccb8 f1bd d2f2 3ebe 1b66 1bbe
00000200: 2c9f 96be 6362 de3d 3465 3bbe c149 febe
00000210: d08e 013d 26a5 503e 51ff b93d ef2c d13c
00000220: 9fd5 2c3e 6c65 8cbd 11de 8f3d 9e92 2bbe
00000230: 2ecf 83be f187 b9bc 7927 d83b c61f e33d
00000240: fa64 593e 843b 693e b847 a7be 7102 583e
00000250: ce25 823e f773 9c3e 6dab 99be eb24 ebbe
00000260: ae58 3bbe 5115 763e 9852 85be 5ad4 58be
00000270: cd90 6e3d ac74 78be 70cb c9be e2c2 e3bd
00000280: 5b27 ecbe 0ac9 9b3e 79d4 903e 8e68 833e
00000290: 6e64 babe b191 2b3e 8acb 683e 613d a7be
000002a0: 2fff babe 9222 90be d01f d9bd 7fb0 cfbd
000002b0: ccd8 c1be 3089 b6bd 0c5b c7be e9fa 98be
000002c0: b434 213e ba63 5cbd d298 32be d6c4 b8be
000002d0: 26a4 afbe 7cab 86be a4b7 8f3e fbe3 a2bd
000002e0: 3a56 1ebe 7240 7d3e 99b0 bebe f190 033e
000002f0: 9d56 67be 2f5b 7ebe b6a7 993e 06a9 6a3e
00000300: 1b93 88be 2700 15be 76ac 9b3e d517 8ebe
00000310: f7cd 8d3e e0f4 76be 54a6 0b3e 1174 513e
00000320: 3d76 f1bb b476 8dbe 06b6 f23d b8f8 813e
00000330: cbac 20be 048f 13be 344d 2cbe 5359 013e
00000340: 3387 e53d 0a93 e33d cc71 c2be def3 b6be
00000350: d909 93be 7ed5 983e 75c5 b23d 8394 87be
00000360: 3829 10bd 5811 8abe ac42 913e 080e 483e
00000370: c940 2dbe 60be 833d df90 76be fccb 093e
00000380: 19ce 513e fd5e 80bd f266 45bd 6940 7ebd
00000390: 0047 d4be f83d 633e c343 2b3e a14a f9bb
000003a0: 7438 84be c8dd 9f3d f37a 643e f0ec 5b3e
000003b0: 6714 9abe 8a00 673d aeb2 cfbe a76c 75bc
000003c0: e15f bbbe 6772 103e 5c6f b63d 27ac 8f3e
000003d0: af5d 743d 35d5 7ebe 3694 3c3e ee8c 8dbe
000003e0: e3fe 87bd 6407 28be 5a8a b9bd f47d 003e
000003f0: cf36 e13d cf4d 6e3e 5852 1dbe 182c d5bd

sequential/lstm/Read_2/ReadVariableOp1 f4 [512]
0.016607735 0.036551643 0.0010565127 -0.0007190578 -0.017269777 -0.00817177 0.027380567 0.0031499334
-0.013876442 0.019883944 0.014759747 0.032854483 0.0051454986 0.006437524 0.00707451 0.0061326884
0.0042308597 -0.0047821156 0.029218586 0.0029370065 0.016569594 -8.269791e-05 -0.0026788847 0.02312081
0.0012036669 0.0071838927 -0.016607732 0.0070948843 0.0111906435 0.03581778 0.035780665 -0.0114421975
0.014554391 0.021362089 0.014458309 0.022467202 -0.0054354374 0.041069854 -0.0104927905 -0.0122796055
0.043609742 0.019407466 0.01463543 0.006698113 -0.010750621 0.016951868 0.025619688 0.021357002
0.032166127 -0.008286026 0.0025961942 0.02339346 -0.03466142 -0.012353345 -0.0075499727 -0.020056382
-0.001790222 -0.015596532 0.00037865806 0.021838862 -0.0059620794 0.0599228 0.0341566 0.0021427362
-0.0001639017 0.002861305 0.028293496 0.031850938 -0.005269271 0.017931215 0.029508896 -0.01598605
-0.0093611395 0.011680035 0.017383944 0.043632302 0.02712111 0.054246612 0.02050788 0.021645619
-0.004081679 0.03189345 0.00091179204 0.0026028808 0.03880119 -0.01105994 -0.018333346 0.036185034
-0.0053523765 -0.013271626 -0.0034387158 -0.00052717305 -0.009164488 0.021435108 0.012562483 -0.0031618632
-0.012833329 0.01950077 -0.018835403 -0.008369496 0.023074793 -0.01873114 -0.014008076 0.013777748
0.026685674 -0.0072028376 0.016906798 0.0039611463 0.01180426 0.0077672917 0.017989853 0.020495137
0.00418478 -0.010595653 -0.012640811 -0.00044943384 0.024774041 0.004152435 0.027372576 -0.031064486
0.016225206 0.023374205 -0.020070234 -0.017009055 -0.013796111 -0.00895406 0.0037791932 -0.0464147
1.0046662 1.0037903 0.9695647 0.98074484 0.9777555 0.98887235 0.9937332 1.0720084
0.9795092 1.0211201 0.9670479 1.0077223 0.99331707 1.0138364 0.99536264 0.9971347
1.0091305 1.0308695 1.0082933 0.9842066 1.0235815 0.9984525 0.98565507 1.0034589
1.004751 1.0026577 0.9841883 1.0087821 0.99801576 0.9946811 1.0152718 1.0173879
1.0011779 1.0149019 1.0061563 0.9928185 0.98982537 0.99923384 1.0111374 0.9984804
0.99644727 1.0192084 0.99498737 1.0064789 0.9884623 1.0122149 1.0061904 1.0026244
1.0034282 0.979168 1.0037444 0.99810827 0.9613742 1.0209137 1.00345 0.9931806
0.9717753 0.9865866 1.000041 0.98904943 1.0117203 1.028527 1.0048405 1.0119256
0.98783046 0.99200815 1.0090166 1.0327194 0.987596 1.0023366 1.0224069 0.98428726
0.9837459 1.0148537 0.9879525 1.0021628 1.0022986 1.0045199 1.0186099 0.9939654
1.0299895 0.9876429 1.0039647 0.99714154 0.996923 1.0063663 0.97977406 0.98690355
0.99695003 0.98913306 1.020891 0.9892246 1.0031236 1.0199505 0.9951378 0.9996107
1.0035734 1.0106411 0.99379766 0.98953205 1.020506 0.97632605 0.99172777 0.9968672
1.000472 1.0157611 0.98858607 0.99063087 1.007031 0.9876344 0.991952 1.0153822
0.9968328 0.990871 0.98718554 0.9929004 0.9955484 1.0033039 1.041598 0.98571783
1.0147455 0.9981197 0.99078417 0.97762954 0.97675323 0.9989219 1.0298333 1.0052319
00000000: f20c 883c 2db7 153d af7a 8a3a 277f 3cba
00000010: 5979 8dbc e3e2 05bc 364d e03c 1d6f 4e3b
00000020: 045a 63bc a7e3 a23c ded2 713c 6c92 063d
00000030: 929b a83b def1 d23b 4bd1 e73b b8f4 c83b
00000040: 06a3 8a3b 4bb3 9cbb d15b ef3c cb7a 403b
00000050: f5bc 873c 1a6e adb8 3a90 2fbb da67 bd3c
00000060: 5cc4 9d3a dc66 eb3b f00c 88bc 347c e83b
00000070: f658 373c aab5 123d bf8e 123d 0e78 3bbc
00000080: 8a75 6e3c 8cff ae3c 8be2 6c3c 230d b83c
00000090: c11b b2bb dd38 283d f4e9 2bbc 6630 49bc
000000a0: 21a0 323d 68fc 9e3c 71c9 6f3c d87b db3b
000000b0: 5f23 30bc a5de 8a3c 61e0 d13c e1f4 ae3c
000000c0: a1c0 033d 1dc2 07bc e924 2a3b a4a3 bf3c
000000d0: 22f9 0dbd af65 4abc c365 f7bb 484d a4bc
000000e0: e2a5 eaba 9988 7fbc a086 c639 6ae7 b23c
000000f0: 8c5d c3bb 9c71 753d cae7 0b3d 266d 0c3b
00000100: 07dd 2bb9 bb84 3b3b c3c7 e73c 2176 023d
00000110: d9a9 acbb 7ce4 923c a4bc f13c 2df5 82bc
00000120: 775f 19bc 9e5d 3f3c c668 8e3c c9b7 323d
00000130: 172d de3c b231 5e3d 2400 a83c 2752 b13c
00000140: 9bbf 85bb b5a2 023d 5405 6f3a 1895 2a3b
00000150: ffed 1e3d c034 35bc d02f 96bc c236 143d
00000160: fd62 afbb 3c71 59bc 145c 61bb fc31 0aba
00000170: a626 16bc ae98 af3c dfd2 4d3c 4337 4fbb
00000180: e242 52bc 14c0 9f3c b44c 9abc 3620 09bc
00000190: 5907 bd3c 0c72 99bc 2182 65bc 10bc 613c
000001a0: ea9b da3c c805 ecbb 2080 8a3c 81cc 813b
000001b0: a866 413c c484 fe3b 755f 933c 6be5 a73c
000001c0: 7b20 893b 6499 2dbc 671b 4fbc fda1 ebb9
000001d0: eef2 ca3c 2611 883b 743c e03c f37a febc
000001e0: b9ea 843c 437b bf3c 556a a4bc 9356 8bbc
000001f0: 1509 62bc 0db4 12bc 57ac 773b 571d 3ebd
00000200: e798 803f 337c 803f 6435 783f 1812 7b3f
00000210: 2f4e 7a3f bd26 7d3f 4d65 7e3f 9237 893f
00000220: 1dc1 7a3f 10b4 823f 7490 773f 0bfd 803f
00000230: 074a 7e3f 64c5 813f 16d0 7e3f 3844 7f3f
00000240: 302b 813f 88f3 833f c10f 813f f7f4 7b3f
00000250: b804 833f 959a 7f3f e453 7c3f 5771 803f
00000260: ae9b 803f 1657 803f c4f3 7b3f c61f 813f
00000270: f67d 7f3f 6ca3 7e3f 6df4 813f c439 823f
00000280: 9926 803f 4ee8 813f bbc9 803f 5a29 7e3f
00000290: 3265 7d3f cacd 7f3f f36c 813f 699c 7f3f
000002a0: 2b17 7f3f 6c75 823f 7eb7 7e3f 4dd4 803f
000002b0: de0b 7d3f 4290 813f d9ca 803f ff55 803f
000002c0: 5670 803f c1aa 7a3f b27a 803f 0684 7f3f
000002d0: 9f1c 763f 4dad 823f 0d71 803f 1541 7e3f
000002e0: 44c6 783f f090 7c3f 5801 803f 5832 7d3f
000002f0: 0d80 813f c6a6 833f 9d9e 803f c786 813f
00000300: 75e2 7c3f 3ff4 7d3f 7527 813f 2630 843f
00000310: 17d3 7c3f 914c 803f 3bde 823f 40fa 7b3f
00000320: c5d6 7b3f bae6 813f 74ea 7c3f df46 803f
00000330: 524b 803f 1c94 803f cf61 823f 8474 7e3f
00000340: b2d6 833f 2ad6 7c3f ea81 803f ab44 7f3f
00000350: 5936 7f3f 9cd0 803f 79d2 7a3f b6a5 7c3f
00000360: 1e38 7f3f d337 7d3f 8eac 823f d33d 7d3f
00000370: 5b66 803f bd8d 823f 5ac1 7e3f 7de6 7f3f
00000380: 1875 803f b05c 813f 8669 7e3f f951 7d3f
00000390: f19f 823f 81f0 793f dfe1 7d3f b032 7f3f
000003a0: 770f 803f 7604 823f fa13 7d3f fc99 7d3f
000003b0: 64e6 803f 9cd5 7c3f 91f0 7d3f 0bf8 813f
000003c0: 6f30 7f3f b9a9 7d3f 31b8 7c3f b82e 7e3f
000003d0: 43dc 7e3f 436c 803f 1553 853f 0158 7c3f
000003e0: 2ee3 813f c684 7f3f 08a4 7d3f ee45 7a3f
000003f0: 800c 7a3f 58b9 7f3f 94d1 833f 70ab 803f

while/MatMul_11 f4 [512, 128]
0.03358025 -0.006834521 -0.056431767 0.039374318 -0.006823535 -0.09489112 -0.14351201 0.14759192
-0.009508816 -0.070250794 0.07214842 -0.050508406 0.0005620733 0.090754226 0.0903085 -0.008953793
0.00660613 -0.06318978 -0.056514073 0.029176448 0.011952492 0.038400013 -0.024429671 0.016204715
0.022478925 0.054358557 -0.03475975 -0.08692975 0.027926942 0.15103842 -0.019984338 0.011442288
0.09876497 0.011292874 -0.02343965 -0.059282076 0.025699055 -0.043670483 -0.12588562 0.040396202
0.070831925 0.022314824 -0.08947003 -0.080821484 -0.018012855 0.05000286 0.06811174 0.079969965
0.0015626726 0.036048863 -0.01047416 -0.08572666 0.09854858 -0.03673689 0.15195447 -0.045445178
0.038956236 0.009747616 -0.060663696 0.0957295 -0.038343463 -0.13765039 0.060632084 -0.019086188
0.055302657 -0.0082198335 0.07359758 -0.08567407 -0.016919764 -0.11285483 -0.035923276 -0.04070495
-0.01657287 -0.050588563 -0.048099305 0.08001812 -0.042533897 0.03870946 -0.058969174 -0.04086744
-0.029849382 -0.13834147 -0.009220849 -0.091223314 0.0019413413 0.007882138 -0.034721423 -0.14392337
-0.013315081 0.021223335 -0.04333831 -0.07211261 -0.09012644 0.043459304 0.16895698 -0.06248986
-0.08470318 -0.021308467 0.00056835427 0.06365139 0.023587093 -0.008205768 0.045437977 -0.057835657
-0.0035325272 0.030758513 0.003692915 -0.02342159 0.06952414 0.056236334 -0.061587147 -0.036872886
0.00060350617 -0.10979693 0.11717949 0.009417562 0.07272098 -0.0265645 0.028353909 -0.0910359
-0.034987673 0.079948686 -0.07720135 0.043854196 -0.1179601 0.021325942 -0.020236695 -0.029608142
0.068033814 0.097280726 -0.09864487 0.009125912 -0.018173376 -0.053507008 0.1589425 0.02958578
-0.014766343 0.054055106 -0.018775618 -0.100577444 -0.029359372 0.048740532 -0.076343745 0.044788573
-0.018975107 0.03588191 0.014701563 0.01689128 -0.07378893 0.07928402 0.04524048 -0.07289328
-0.019317282 0.092468254 -0.06559905 -0.0071595004 -0.06960907 0.0023513162 -0.063288555 0.08682128
-0.037210103 -0.058477484 0.11128094 -0.1039666 0.017602786 0.048972853 0.009847544 0.0286189
-0.025136597 0.004886572 -0.045331 -0.03278238 -0.0066066026 -0.04176872 0.078043304 -0.00082505186
-0.09838915 0.10508292 0.06127288 -0.074914336 0.032824587 0.036356393 0.050653353 -0.013576945
-0.02660796 0.055878367 -0.11419334 0.0664814 0.1324593 -0.03982733 0.034695555 -0.023272218
-0.07881574 0.041320667 0.014534244 0.058580413 -0.011865689 -0.057158053 0.060361452 0.11040207
0.06890154 0.031247245 0.04471153 0.06560956 -0.0488932 -0.03907629 0.081484854 -0.043745384
-0.009336316 0.101636454 -0.098534636 -0.074426666 -0.07352994 -0.13086453 -0.010954733 -0.06257637
-0.05594349 0.045081746 -0.017094998 -0.004707944 0.049487732 0.031846277 0.014928686 -0.020617595
0.009304707 -0.027047388 0.068199664 -0.02463972 0.07787537 0.047754254 0.0072203167 0.026998373
0.10669127 -0.06716019 0.029740157 0.034949172 0.073720716 -0.017297808 0.055063147 0.11181341
-0.021795627 0.018538317 -0.013289071 -0.09264361 -0.009609919 -0.06432305 -0.0035882643 -0.046722177
-0.081662886 0.036470693 -0.023942528 0.035780415 -0.05071743 0.037265666 -0.0035594678 0.08262967
00000000: 728b 093d 1ef4 dfbb ff24 67bd f746 213d
00000010: f697 dfbb 4756 c2bd d0f4 12be 5622 173e
00000020: ddca 1bbc a6df 8fbd 8dc2 933d e7e1 4ebd
00000030: 1a58 133a 5add b93d aaf3 b83d eeb2 12bc
00000040: 3c78 d83b a569 81bd 4d7b 67bd 7203 ef3c
00000050: 63d4 433c 5549 1d3d bc20 c8bc c0bf 843c
00000060: b925 b83c 14a7 5e3d 3d60 0ebd 3a08 b2bd
00000070: 0bc7 e43c d1a9 1a3e 32b6 a3bc 6f78 3b3c
00000080: 4a45 ca3d bf05 393c 8204 c0bc c3d1 72bd
00000090: d386 d23c d2df 32bd 29e8 00be 7d76 253d
000000a0: 5410 913d 94cd b63c 103c b7bd bc85 a5bd
000000b0: b28f 93bc cdcf 4c3d 2b7e 8b3d 4bc7 a33d
000000c0: 97d2 cc3a f9a7 133d d09b 2bbc 7691 afbd
000000d0: d7d3 c93d 6c79 16bd f499 1b3e b924 3abd
000000e0: 9390 1f3d 77b4 1f3c 7f7a 78bd d40d c43d
000000f0: 090e 1dbd 39f4 0cbe 5959 783d a35a 9cbc
00000100: 0a85 623d 7bac 06bc 54ba 963d e375 afbd
00000110: 519b 8abc 6f20 e7bd 4924 13bd 3cba 26bd
00000120: d4c3 87bc f435 4fbd c703 45bd 8ae0 a33d
00000130: 0638 2ebd d08d 1e3d a989 71bd 9e64 27bd
00000140: b186 f4bc 63a9 0dbe 0b13 17bc 4ad3 babd
00000150: 9b74 fe3a 1524 013c 0d38 0ebd a660 13be
00000160: 7f27 5abc 8fdc ad3c 8383 31bd c7af 93bd
00000170: 3694 b8bd 6202 323d 0f03 2d3e 5ef5 7fbd
00000180: dc78 adbd 188f aebc 9cfd 143a a95b 823d
00000190: b839 c13c 7c71 06bc 2c1d 3a3d 15e5 6cbd
000001a0: f981 67bb 47f9 fb3c d504 723b a2de bfbc
000001b0: ac62 8e3d 1258 663d ce42 7cbd 0608 17bd
000001c0: 9d34 1e3a 36dd e0bd cdfb ef3d 1e4c 1a3c
000001d0: bdee 943d cb9d d9bc 7546 e83c 0871 babd
000001e0: 3c4f 0fbd 23bc a33d be1b 9ebd 75a0 333d
000001f0: 1195 f1bd beb3 ae3c 6dc7 a5bc c68c f2bc
00000200: 5055 8b3d 1e3b c73d 5206 cabd d984 153c
00000210: 55e0 94bc 2a2a 5bbd d3c1 223e e15d f23c
00000220: 88ee 71bc e368 5d3d 53cf 99bc 8cfb cdbd
00000230: 1183 f0bc 27a4 473d 1c5a 9cbd 3974 373d
00000240: af71 9bbc e9f8 123d d3de 703c 955f 8a3c
00000250: a71e 97bd a95f a23d 154e 393d 1249 95bd
00000260: 473f 9ebc ff5f bd3d cb58 86bd 3e9a eabb
00000270: 338f 8ebd 8a18 1a3b 6e9d 81bd 5bcf b13d
00000280: 9f69 18bd 1686 6fbd 43e7 e33d 71ec d4bd
00000290: b833 903c c297 483d 9857 213c 2f72 ea3c
000002a0: 44eb cdbc 891f a03b 00ad 39bd d146 06bd
000002b0: 337c d8bb ad15 2bbd 2bd5 9f3d 4b48 58ba
000002c0: 4080 c9bd b735 d73d 45f9 7a3d b06c 99bd
000002d0: 1373 063d 71ea 143d e479 4f3d d671 5ebc
000002e0: f0f8 d9bc b7e0 643d 33de e9bd 6627 883d
000002f0: 69a3 073e fb21 23bd ed1c 0e3d 61a5 bebc
00000300: 266a a1bd dc3f 293d 0a21 6e3c 04f2 6f3d
00000310: 4f68 42bc 901e 6abd 923d 773d 7b1a e23d
00000320: 401c 8d3d 39fa ff3c 7023 373d 4e5e 863d
00000330: 3c44 48bd 760e 20bd 88e1 a63d 5c2e 33bd
00000340: 59f7 18bc c626 d03d 87cc c9bd 026d 98bd
00000350: dd96 96bd 5a01 06be 7b7b 33bc 0a28 80bd
00000360: 0025 65bd a3a7 383d cf0a 8cbc 1945 9abb
00000370: a6b3 4a3d 3e71 023d 7397 743c 3be6 a8bc
00000380: c572 183c 7c92 ddbc 44ac 8b3d 3dd9 c9bc
00000390: 1f7d 9f3d f799 433d 6898 ec3b b12b dd3c
000003a0: f480 da3d 488b 89bd a1a1 f33c dd26 0f3d
000003b0: e3fa 963d 22b4 8dbc e589 613d 6efe e43d
000003c0: be8c b2bc abdd 973c 67ba 59bc efbb bdbd
000003d0: ec72 1dbc cebb 83bd 1629 6bbb c15f 3fbd
000003e0: df3e a7bd 4b62 153d 1f23 c4bc 7c8e 123d
000003f0: 14bd 4fbd e2a3 183d f645 69bb bf39 a93d

while/MatMul f4 [512, 234]
-0.059015524 0.064378195 -0.009586399 -0.033008356 -0.029639957 0.1288972 -0.044675212 0.05277776
0.10714404 -0.039127346 -0.0556051 0.11908167 0.07765428 -0.053123657 0.1265408 0.033238553
0.022084886 0.058017388 0.06788361 -0.040268347 0.07007603 0.03685515 0.07933257 0.028140493
0.087708 0.053937487 0.036702085 0.08877788 0.008852076 0.036000896 -0.035540167 -0.025939578
0.06610453 -0.037797593 0.021960031 0.056180116 -0.0377342 0.05463836 0.012110365 -0.016311916
0.054046243 -0.02405483 -0.026371421 -0.07569121 0.08776858 0.037463102 0.043741476 -0.038364604
0.024090417 -0.0023330986 -0.054197133 0.028560998 0.063429885 0.052711524 -0.037109327 0.063701116
0.07621782 0.023561796 -0.0042924746 0.0628747 -0.035944544 -0.023715451 0.031272113 0.05084426
0.08907262 0.052933976 -0.031944666 0.02105765 0.034935188 0.023331251 0.112976514 0.03648096
0.073379874 0.040486813 -0.10980688 0.0023335086 0.029920554 -0.053363696 0.09694975 0.09098464
-0.05752233 -0.011069267 0.11718986 -0.16861351 0.0063845427 0.016296865 -0.07266025 -0.026997413
0.12265501 -0.13625531 0.12050599 0.0012814132 -0.13342765 -0.010652528 0.16104822 -0.09376179
0.026291672 0.08176744 -0.1648447 0.03276408 0.022290273 -0.10609011 0.024306642 0.12400444
-0.16156426 0.11682942 0.10849311 -0.0530297 0.055813078 -0.008909635 -0.15098494 0.081004485
0.1319255 -0.064643934 0.05822759 0.03246198 -0.09908929 0.01556575 0.055239305 -0.048461553
0.09061877 0.047269452 -0.12975022 -0.026434932 0.083202675 -0.1077069 0.04432524 0.0030400078
-0.053482786 -0.069114886 0.05231311 -0.035225715 0.014251677 -0.0064815236 -0.05040028 0.072260685
-0.057819255 -0.06738796 -0.04242118 -0.022488052 -0.046517644 0.059209846 0.02011182 0.09373212
-0.046660993 -0.063280694 -0.05669006 -0.030221252 -0.047293033 -0.04500861 -0.021987993 -0.017507069
0.027356092 0.006530183 0.042637367 -0.052113865 -0.016938098 0.019097911 0.05987347 0.09096309
0.0036476017 0.029077984 -0.014966501 0.029462256 -0.05911478 0.058824454 -0.06924365 -0.0049027363
0.016230857 0.022734445 0.100820966 0.031360388 0.08066396 -0.087708436 0.05341166 0.031465095
0.04343014 0.016713178 -0.02409821 -0.04517379 -0.022424772 0.0060398034 -0.0023625381 -0.0090386085
-0.055358335 -0.084083885 -0.015900504 0.017579343 0.095552884 0.036575817 -0.036928978 -0.025775453
-0.01436248 -0.014587123 -0.14623256 0.068650894 -0.12025126 -0.13066304 -0.021561658 0.054421954
-0.053802 0.10452317 -0.056210995 -0.04388988 0.01433374 0.10886167 0.09743847 0.039971914
0.043638837 0.059851106 0.14787252 -0.06974737 0.09845731 -0.028714094 0.04679157 0.18714744
0.007502357 0.01606976 0.100391075 0.03941613 0.094641045 0.032674238 0.07008857 -0.015176669
0.0370098 0.062273677 0.069264874 0.021724055 0.07868958 -0.04359703 0.102876045 0.005931479
-0.057176266 -0.06836827 0.03055371 0.108459115 -0.012613419 0.03135614 -0.001330559 -0.0040932023
0.036336932 0.056684595 0.02861578 0.027844634 0.065299675 0.0148091465 0.12710337 0.06382711
0.07970165 -0.027079597 0.028584687 -0.054845642 0.102005206 0.04894642 0.0043490976 -0.017846148
00000000: 43ba 71bd b7d8 833d 4610 1dbc c533 07bd
00000010: 7fcf f2bc a1fd 033e 5bfd 36bd 7e2d 583d
00000020: 566e db3d ff43 20bd 2cc2 63bd 17e1 f33d
00000030: 3509 9f3d 3198 59bd e993 013e 2625 083d
00000040: 5deb b43c a4a3 6d3d 9006 8b3d 6cf0 24bd
00000050: 0684 8f3d 6df5 163d 1d79 a23d e486 e63c
00000060: 40a0 b33d 8eed 5c3d ed54 163d 2dd1 b53d
00000070: 4c08 113c ad75 133d 9192 11bd 3d7f d4bc
00000080: d061 873d a6d1 1abd 86e5 b33c 1f1d 663d
00000090: 2d8f 1abd 79cc 5f3d 8d6a 463c 91a0 85bc
000000a0: 985f 5d3d a30e c5bc e108 d8bc fe03 9bbd
000000b0: 03c0 b33d e972 193d 432a 333d 3424 1dbd
000000c0: 4459 c53c e6e6 18bb d0fd 5dbd c1f8 e93c
000000d0: 87e7 813d 0ae8 573d f3ff 17bd bb75 823d
000000e0: 1718 9c3d ab04 c13c e3a7 8cbb 73c4 803d
000000f0: 963a 13bd e846 c2bc 3017 003d 1242 503d
00000100: b56b b63d 4cd1 583d 69d8 02bd 1881 ac3c
00000110: 3318 0f3d 2e21 bf3c 3b60 e73d 0f6d 153d
00000120: 3048 963d 80d5 253d 6ee2 e0bd c7ed 183b
00000130: f31b f53c e493 5abd 978d c63d 2856 ba3d
00000140: 899c 6bbd df5b 35bc 3d01 f03d 05a9 2cbe
00000150: 6d35 d13b 0181 853c e6ce 94bd ae29 ddbc
00000160: 8d32 fb3d 8386 0bbe d8cb f63d 18f5 a73a
00000170: 42a1 08be f187 2ebc d3e9 243e 2e06 c0bd
00000180: a261 d73c b075 a73d 0dcd 28be a133 063d
00000190: 179a b63c c645 d9bd b91e c73c 0af6 fd3d
000001a0: 1a71 25be 4344 ef3d a331 de3d ac35 59bd
000001b0: 419c 643d b8f9 11bc cc9b 1abe aee5 a53d
000001c0: 7a17 073e 0a64 84bd 0e80 6e3d daf6 043d
000001d0: 53ef cabd 7d07 7f3c 9c42 623d 9f7f 46bd
000001e0: 5596 b93d 9d9d 413d 3edd 04be 128e d8bc
000001f0: 2a66 aa3d 6f95 dcbd 628e 353d de3a 473b
00000200: c410 5bbd 1b8c 8dbd 4646 563d d748 10bd
00000210: de7f 693c f662 d4bb 8670 4ebd 69fd 933d
00000220: e2d3 6cbd b302 8abd d5c1 2dbd dd38 b8bc
00000230: 4989 3ebd 0686 723d 8bc1 a43c a0f6 bf3d
00000240: 991f 3fbd 4f99 81bd d633 68bd 8f92 f7bc
00000250: 57b6 41bd f35a 38bd 2a20 b4bc fc6a 8fbc
00000260: e219 e03c 25fb d53b 85a4 2e3d 5975 55bd
00000270: c4c1 8abc 3973 9c3c e23d 753d db4a ba3d
00000280: 9a0c 6f3b f434 ee3c 0e36 75bc d45a f13c
00000290: 5722 72bd e9f1 703d 9dcf 8dbd 22a7 a0bb
000002a0: 93f6 843c 963d ba3c 397b ce3d c073 003d
000002b0: 2533 a53d 7ba0 b3bd 2fc6 5a3d 8be1 003d
000002c0: cde3 313d 13ea 883c 9c69 c5bc 2708 39bd
000002d0: 28b4 b7bc 8be9 c53b d0d4 1abb ac16 14bc
000002e0: 6cbf 62bd 2c34 acbd c641 82bc 8e02 903c
000002f0: 3bb1 c33d 86d0 153d d742 17bd 0b27 d3bc
00000300: 9b50 6bbc d4fe 6ebc fdbd 15be d798 8c3d
00000310: 4b46 f6bd 88cc 05be 13a2 b0bc 8ee9 5e3d
00000320: 7c5f 5cbd 3e10 d63d 803d 66bd e0c5 33bd
00000330: 10d8 6a3c def2 de3d d28d c73d 97b9 233d
00000340: a3be 323d 6f26 753d e56b 173e b6d7 8ebd
00000350: fca3 c93d d239 ebbc 84a8 3f3d 94a3 3f3e
00000360: 55d6 f53b bba4 833c d699 cd3d cf72 213d
00000370: 2ad3 c13d 6cd5 053d 998a 8f3d 90a7 78bc
00000380: 9797 173d af12 7f3d beda 8d3d a5f6 b13c
00000390: 0128 a13d cd92 32bd adb0 d23d da5c c23b
000003a0: a931 6abd aa04 8cbd c64b fa3c d01f de3d
000003b0: 84a8 4ebc 4c6f 003d 2766 aeba 4520 86bb
000003c0: 09d6 143d 1b2e 683d a46b ea3c 6e1a e43c
000003d0: d6bb 853d 10a2 723c 6327 023e cab7 823d
000003e0: 9e3a a33d 08d6 ddbc 6f2a ea3c d3a5 60bd
000003f0: 1be8 d03d 0b7c 483d e082 8e3b 1632 92bc
