tensorflow_lite/sign_language_detect_model.tflite (tflite, 790944 bytes, 8 tensors)

sequential/lstm/Read_2/ReadVariableOp f4 [512]
000000 38 ea 5d 3c bc 2e d0 3b 92 cf 8b 3b d7 18 9c 39
       0.013544612 0.0063532274 0.0042666877 0.00029773146
000010 ec e7 75 3c 0f 8b 20 3d 2f 76 49 3c 26 94 c1 bc
       0.015008908 0.039195117 0.012296244 -0.023630213
000020 5e a5 55 3c 35 98 b7 bc 78 e4 61 3b c4 83 07 3d
       0.013039915 -0.022411445 0.0034468453 0.033084646
000030 f1 11 fd 3b eb 9d 09 bb 5a c1 20 3c ca a2 ef bc
       0.007723086 -0.0020998667 0.009811724 -0.029252429
000040 73 c2 38 3c f1 5e d7 bb 6f 10 79 bc 83 d5 53 bc
       0.011276829 -0.006572597 -0.015201672 -0.012929323
000050 64 b8 c5 3a c3 f7 e0 bc 6a a2 bb 3c 92 5f a2 bc
       0.001508486 -0.027461892 0.022904593 -0.019820962
000060 aa a7 82 ba ae 7c eb 3b af 9b 33 bc 4d 4c 1a 3c
       -0.0009968181 0.007186494 -0.010962411 0.009417606
000070 92 bd ac bc 19 ef a4 3b 75 6c fa 3a a0 30 7b 3b
       -0.021086488 0.0050333855 0.0019105809 0.0038328543
000080 e1 6e f5 3c 57 2c 8c bb 4b e5 34 3b 73 dd 2c b9
       0.029960098 -0.0042777467 0.002760249 -0.00016485695
000090 3e 81 d0 3b cd 92 4f 3c 53 ae 04 3d 38 67 7f bb
       0.006363063 0.012669277 0.03239281 -0.0038971435
0000a0 4a ce a0 bc ef 65 b0 bc 17 83 e9 3b aa fd 8c bc
       -0.019629616 -0.02153298 0.007126223 -0.0172108
0000b0 f1 0e 1d bc 63 c0 f5 bb b1 28 c6 bb a4 be fe 3c
       -0.009586082 -0.007499741 -0.0060473313 0.031096764
0000c0 4f 8a ba bc e2 39 ae bc fc 8f 8f bc 4a 6a 2e 3c
       -0.022771029 -0.021267835 -0.017524712 0.0106454585
0000d0 c6 67 ab bb c8 62 c2 bb 92 b5 b4 3b de 1f 74 bd
       -0.0052308766 -0.005932186 0.005514809 -0.059600703
0000e0 00 90 13 b3 9e fc 08 bc 83 a9 5e 3b ca 78 76 bc
       -3.4357072e-08 -0.00836101 0.0033975549 -0.015043447
0000f0 18 0a 8a bb 13 c7 dc 3a 0b 59 4c bc 19 7e 96 bb
       -0.004212629 0.0016843997 -0.012472401 -0.0045926687
000100 cf a0 88 bc 32 63 2f bc b4 0d c8 bc 21 79 ba bc
       -0.016678242 -0.010704802 -0.024420597 -0.022762837
000110 f3 0e 44 bc 18 15 fe bb cb 95 5c bc 5a c6 80 3b
       -0.011966455 -0.0077539794 -0.013463448 0.0039298953
000120 c8 22 01 3c 59 b5 de ba fa 88 3e bc 94 3c 42 bd
       0.007881828 -0.0016991302 -0.011629337 -0.047421053
000130 56 4e 77 bc cb 1f 22 bc 83 e7 8d 3b d7 bd ca 3c
       -0.01509436 -0.009895275 0.004330577 0.024748726
000140 80 6d f3 39 19 65 83 bc a9 4d 34 3c 47 8a 84 3b
       0.00046430156 -0.016039418 0.011004844 0.0040448043
000150 20 ad a4 bc 6f 0f d0 bb d2 3b f9 ba 92 e2 78 3c
       -0.020102084 -0.006349496 -0.001901502 0.015190737
000160 d7 0e de bc 0c b2 86 bb 49 6e 4a ba 47 7e b8 bc
       -0.027106686 -0.0041105803 -0.0007722122 -0.022521151
000170 07 32 83 bc ce 8c 88 bc 94 73 f6 3c 3e e0 94 3b
       -0.016015066 -0.016668703 0.030084409 0.0045433333
000180 b7 c4 2d bc ae f7 75 bc de d9 6b bc 69 3b b0 bb
       -0.0106059825 -0.015012665 -0.014395205 -0.005378176
000190 4f b5 65 bd 78 24 2a bc ff 1c 8d bc 26 f1 93 bc
       -0.056081112 -0.010384671 -0.01722574 -0.018059324
0001a0 67 bc 47 bc 33 46 0c 3c 48 57 bf bb e7 16 5c 3c
       -0.012190915 0.008561659 -0.005839262 0.013433195
0001b0 f0 af 30 bc b0 6f 93 bb 0a 5b ab b9 72 76 b4 bc
       -0.010784134 -0.004499398 -0.0003268349 -0.022029135
0001c0 d3 de 86 bc 15 90 fe bc ad cc 01 3d b6 8c 40 bb
       -0.016463673 -0.031074563 0.031689335 -0.0029380745
0001d0 d0 65 97 bc a2 f1 f2 bc 0b 7e 95 3c 4e 11 84 3c
       -0.018481165 -0.029656235 0.018248579 0.016121533
0001e0 b3 10 c5 bc c2 51 d3 ba 3a b0 92 bc 47 ba 72 3c
       -0.024055814 -0.0016122388 -0.017906297 0.01481492
0001f0 c1 d3 a1 3c 29 5a bd bc 54 98 90 3a 91 2c b5 3a
       0.019754292 -0.02311428 0.0011031725 0.0013822486
000200 43 61 81 3f ef 95 81 3f e9 26 81 3f 16 66 80 3f
       1.0107807 1.0123881 1.009 1.0031154
000210 be 9e 7e 3f 39 a1 7e 3f 2f 31 82 3f 0f 4f 7f 3f
       0.9946097 0.99464756 1.017126 0.9973001
000220 88 bf 80 3f 61 e7 7c 3f 16 4d 7b 3f c4 dc 81 3f
       1.0058451 0.98790556 0.981645 1.0145497
000230 06 97 82 3f b1 db 81 3f a1 37 7f 3f fd cb 79 3f
       1.0202339 1.014517 0.9969426 0.97576886
000240 14 69 81 3f a1 b5 82 3f c6 6e 7c 3f db 90 80 3f
       1.0110192 1.0211679 0.98606527 1.0044206
000250 da 6c 7f 3f 08 a7 7c 3f 03 8f 82 3f 33 8e 80 3f
       0.9977547 0.9869237 1.0199894 1.0043396
000260 7f 17 82 3f c2 42 83 3f 92 ee 83 3f 29 88 82 3f
       1.016342 1.0254748 1.0307181 1.0197803
000270 3c 33 79 3f de c1 7e 3f 95 c5 80 3f be 93 80 3f
       0.973438 0.9951457 1.0060297 1.0045087
000280 16 5a 7c 3f a1 80 81 3f 65 31 81 3f 2d 73 80 3f
       0.9857496 1.011738 1.0093199 1.0035149
000290 8a 58 80 3f bb 66 80 3f 48 14 81 3f b9 42 82 3f
       1.002702 1.0031351 1.0084314 1.0176612
0002a0 a0 fe 81 3f 27 f7 83 3f 4a 4d 82 3f 5c bb 7e 3f
       1.015583 1.03098 1.0179837 0.9950464
0002b0 d5 c2 83 3f 55 68 7c 3f 75 b7 79 3f 97 20 81 3f
       1.0293833 0.985967 0.9754556 1.0088071
0002c0 d6 0d 80 3f 5d 30 80 3f f6 65 79 3f 8e 96 80 3f
       1.0004222 1.0014759 0.97421205 1.0045946
0002d0 d7 ab 81 3f a2 09 80 3f a8 36 84 3f 70 fd 84 3f
       1.0130566 1.000294 1.032918 1.0389843
0002e0 ce f4 80 3f 95 02 7e 3f 86 d2 80 3f b1 b6 7e 3f
       1.0074708 0.9922269 1.0064247 0.99497515
0002f0 56 49 7d 3f df d9 82 3f 45 da 7e 3f 98 00 80 3f
       0.98940027 1.0222739 0.995518 1.0000181
000300 e8 d6 7b 3f 8b 38 80 3f 12 29 85 3f 91 48 80 3f
       0.98374796 1.0017256 1.0403159 1.0022146
000310 8c 0a 81 3f 66 7a 81 3f 3c 14 7d 3f 8c 4c 7d 3f
       1.0081344 1.0115478 0.98859 0.98944926
000320 d8 f4 81 3f 8f 45 7d 3f 4a af 80 3f 64 8e 81 3f
       1.0152845 0.98934263 1.0053494 1.0121579
000330 db 1f 83 3f 34 05 7f 3f 99 c5 7e 3f b8 5c 80 3f
       1.0244097 0.99617314 0.9952026 1.0028296
000340 f9 2e 82 3f 96 41 7f 3f ce 3c 7f 3f 9e e8 83 3f
       1.0170585 0.9970945 0.99702156 1.0305364
000350 61 9a 81 3f 9c a7 7c 3f 3b 12 86 3f 5a 82 80 3f
       1.0125238 0.9869325 1.0474313 1.003978
000360 5a b2 86 3f 47 37 85 3f 94 ed 7e 3f cb e8 85 3f
       1.0523179 1.0407494 0.99581265 1.0461668
000370 95 8f 7d 3f d9 6e 7f 3f d0 7a 80 3f 1e bb 7d 3f
       0.99047214 0.99778515 1.0037479 0.99113643
000380 26 ce 81 3f af 3f 7f 3f bb 53 7c 3f c9 da 7d 3f
       1.0141037 0.9970655 0.9856526 0.99161965
000390 7d a3 85 3f 03 e5 7c 3f dd fa 80 3f d2 31 81 3f
       1.0440518 0.98786944 1.0076557 1.0093329
0003a0 51 55 7d 3f 2a 03 7f 3f 60 fe 82 3f ea 6c 7c 3f
       0.9895831 0.996142 1.0233879 0.9860369
0003b0 14 83 7f 3f a6 53 7e 3f 88 a0 7e 3f 03 8c 7c 3f
       0.99809384 0.9934639 0.994637 0.9865114
0003c0 46 ff 80 3f 93 c9 79 3f 7f 15 80 3f 14 18 80 3f
       1.0077903 0.975732 1.000656 1.0007348
0003d0 c2 e3 78 3f c6 01 83 3f 0f fc 80 3f 50 6c 83 3f
       0.9722253 1.0234916 1.0076922 1.0267429
0003e0 18 30 7f 3f 5a 4d 83 3f 53 af 7e 3f 73 67 80 3f
       0.9968276 1.0257981 0.99486274 1.003157
0003f0 9f c0 82 3f da 0d 82 3f 88 ff 7e 3f 19 73 7f 3f
       1.0215033 1.0160477 0.9960866 0.99785

sequential/dense/BiasAdd/ReadVariableOp f4 [64]
000000 5f bb 07 3d 2c c4 65 3b dc 60 aa 3d 0d 99 d1 3c
       0.033137675 0.0035059555 0.08319256 0.025585676
000010 bc 10 22 3d 79 f5 9c 3c 23 cd 58 3d 77 a8 59 3c
       0.03956674 0.01916002 0.05293001 0.013284794
000020 93 3a 28 3d ac f7 be 3c fe ff e0 3c 5c 0f 2e 3c
       0.041071486 0.023311459 0.027465817 0.010623779
000030 9d 4d c8 3c 85 e6 71 3d e5 7d e0 3d b5 39 a7 bb
       0.024451071 0.05905773 0.109615125 -0.0051033148
000040 be 1a 6b 3d f8 85 8d bc 62 d3 b7 3d 97 81 35 3d
       0.05739855 -0.017275795 0.08975865 0.04431304
000050 91 8c 8c 3c ed f0 8a bc 03 5e cc ba b5 2b 57 bb
       0.017156871 -0.016960585 -0.0015591983 -0.0032832448
000060 7d c1 26 3b 81 4a 71 bc 3c 48 2c 3d ff 24 2f 3d
       0.0025444918 -0.014727236 0.042061076 0.04275989
000070 37 60 39 3d 65 10 c3 bb ad ca db 3c 18 77 31 3c
       0.045257773 -0.005952882 0.026830042 0.010831617
000080 34 24 cd 3c 96 9f d1 3c 84 f3 8d 3d 85 f6 e4 3c
       0.025041677 0.025588792 0.069312125 0.02794958
000090 ca 55 54 3d 72 28 5a 3d 6d 1f 16 3d c9 1a 36 3d
       0.051839627 0.053261228 0.036651064 0.044459138
0000a0 2d 56 f1 3c 38 e2 73 3d a8 3c 0a 3d 8f 6c a2 3c
       0.029460037 0.05954191 0.033749253 0.019827155
0000b0 81 8b 9b 3d 94 12 a9 39 ba 76 8a 3c e5 47 d7 3c
       0.07594968 0.00032248034 0.016902316 0.0262794
0000c0 28 b0 88 3d 9e 5f 89 3d 5e 89 16 3c 72 71 3d 3d
       0.06674224 0.06707691 0.009188024 0.046250768
0000d0 6d 5f 48 3c 0b ee ea 3c 1f 69 85 3c f5 43 91 3c
       0.0122297825 0.02867796 0.016285477 0.0177326
0000e0 e7 2f 08 3d a4 cf b0 3d e2 e8 0d 3c b7 5d b2 bc
       0.03324881 0.08633354 0.008661481 -0.021773202
0000f0 74 79 7d 3d 1a d1 ac ba ea 91 4e 3d 50 7f 7b 3d
       0.061883405 -0.0013184876 0.050432123 0.06140071

sequential/dense_1/BiasAdd/ReadVariableOp f4 [10]
000000 92 5d 08 3d 48 25 69 bc dc 25 58 bd a7 96 30 bd
       0.03329236 -0.01423008 -0.05277048 -0.043112423
000010 71 50 e9 bb 1b 71 d0 3c 58 8b 5a 3d 48 c9 1f bc
       -0.007120185 0.025444558 0.053355545 -0.009752579
000020 4e b3 88 bb 75 4b 79 bb
       -0.0041717654 -0.003803936

sequential/dense/MatMul f4 [64, 128]
000000 50 3c 8f bd 84 c3 94 3d 7f 32 15 3e b0 62 1c 3e
       -0.069939256 0.07263854 0.14570044 0.15272021
000010 45 b7 f6 3d 61 cc 1a 3e 70 5b b1 3c 22 f7 bd bd
       0.12046675 0.15117027 0.021650046 -0.092756525
000020 e2 12 d6 bd f8 b8 2c be d7 c0 fd 3d 89 1e 00 bd
       -0.1045282 -0.16867435 0.12390297 -0.03127912
000030 6a 00 53 3d 36 0b 6e 3d cc 79 19 3e ab 04 21 3d
       0.051514067 0.05811616 0.14987868 0.039311092
000040 d9 71 96 3d 83 46 5a 3c 56 bd 60 3e 9a 64 a0 be
       0.073459335 0.013322475 0.21947226 -0.31326753
000050 0f 91 e3 3c 2d 6f d7 bd d7 29 b3 3d 38 a5 f2 bd
       0.02777913 -0.10519252 0.08748215 -0.11847919
000060 44 40 96 3b e0 4e 83 3c d8 3f 1c bd b3 4d e9 bc
       0.004585298 0.016028821 -0.038146824 -0.028479433
000070 f2 29 b7 bb 59 cb a1 bd 22 ff 55 3d 56 6c 63 be
       -0.005589717 -0.079001136 0.052245267 -0.22209296
000080 02 b0 e8 bd 19 07 64 3c cc 56 98 bc ca c9 23 3e
       -0.11361696 0.013917708 -0.018596075 0.15994945
000090 f1 1c 0f be 2b fe 7d be ab 3e f6 3c ad 7f 7c 3e
       -0.13975884 -0.24803989 0.03005918 0.2465808
0000a0 42 de 4d bd 3e 5c 52 be de 4e 38 3d f1 75 f5 bd
       -0.05026079 -0.20543 0.04499709 -0.11985386
0000b0 b5 8b 78 3d 33 f8 ae bd ea a7 d2 bb 08 8f b6 bb
       0.06068011 -0.08543434 -0.0064287083 -0.00557125
0000c0 e6 ce 27 be 56 38 f4 bd 3a 3e 50 3e a5 f7 68 bd
       -0.16387519 -0.11924808 0.20336238 -0.056876797
0000d0 1a fd 1a 3e 97 c9 ca bd e3 85 12 be d2 27 71 3e
       0.15135613 -0.099017315 -0.14308886 0.23550346
0000e0 04 a5 a4 bd 1b 65 0e 3e 2d 29 90 bd 78 50 24 be
       -0.08039287 0.13905756 -0.07039104 -0.16046321
0000f0 07 53 87 bd 20 f3 74 be 25 0d 3b bd d4 5a 04 be
       -0.06607633 -0.2392087 -0.045666832 -0.12925273
000100 85 c1 53 3e 24 b7 e8 3d e0 8c e3 bd d5 9d ad bd
       0.2067929 0.11363056 -0.11110854 -0.0847737
000110 b5 50 1d be 09 05 3e 3c e5 28 09 be d3 bd 61 3d
       -0.15362819 0.01159788 -0.13394506 0.05511267
000120 15 89 f5 3d ca d0 36 3e df ff 38 be 58 c3 9a 3b
       0.11989037 0.17853084 -0.18066357 0.004722994
000130 ff b8 f4 3d 97 34 76 3d 92 9e b1 bd 26 58 d5 3d
       0.11949348 0.060108747 -0.08672823 0.104172036
000140 2b 7c 1a bd 87 41 a8 3d 1e 49 39 bd 3b 28 1d 3e
       -0.037716072 0.08215623 -0.045235746 0.15347378
000150 b5 40 66 3c 8a 0e 77 3d c9 b0 89 3d a5 42 8d 3e
       0.014053513 0.0603166 0.06723172 0.27589908
000160 19 e0 87 bd 42 88 23 3c a1 5c fa bd fc 2d ea bd
       -0.0663454 0.009981217 -0.12224699 -0.11434552
000170 b8 39 68 bb 34 3f 17 bd 62 e5 5c 3e 11 f5 64 be
       -0.0035434794 -0.03692551 0.21571878 -0.2235911
000180 6c 96 7e 3d 96 22 32 3e 95 35 21 3d 7b 1c 80 3e
       0.062155172 0.17396006 0.03935774 0.2502173
000190 0c e9 97 bb 2e 75 3a be d1 eb e2 bd 54 8b e3 3c
       -0.0046359356 -0.18208763 -0.11080135 0.027776398
0001a0 9f 4e cc bd a8 89 7f bd ec 2a 7f bd e1 ec 6b 3d
       -0.09975933 -0.06238714 -0.062296793 0.057598952
0001b0 34 a3 58 3d 58 33 cf 3d 47 d9 3a be d8 3c 17 3e
       0.052890018 0.10117215 -0.18246947 0.14769304
0001c0 d3 25 f4 3d 1f 57 27 3e 46 fb 25 be 22 75 93 3e
       0.11921277 0.16341828 -0.16209134 0.28800303
0001d0 21 7b d8 bd d3 8d 5f 3e 04 83 2f 3e 68 6f 0c be
       -0.1057036 0.21831445 0.17139822 -0.13714373
0001e0 85 c3 81 bd af 18 29 bd ab ee 08 3e 25 cf f5 3c
       -0.063361205 -0.041283306 0.13372295 0.030006
0001f0 c1 16 14 be 8b 05 40 3e 4b 4f 40 be de 29 45 bd
       -0.14461805 0.18752114 -0.18780248 -0.04813563
000200 d3 a6 9d bd 4d c3 b0 3d 01 a7 ab bc b4 08 b5 bd
       -0.07697835 0.08631001 -0.020953657 -0.088395506
000210 79 9d 13 3e de 27 fa bd 15 30 52 bd 08 60 bf bd
       0.1441554 -0.12214635 -0.051315386 -0.093444884
000220 63 c7 4d 3d 42 e7 e8 bd 08 62 9f 3d 4f eb 45 be
       0.050238978 -0.11372234 0.0778237 -0.19328044
000230 5d 6e e1 3d 38 23 b0 bd e8 b8 eb bd 03 1d e7 bd
       0.11007378 -0.086004674 -0.115098774 -0.112848304
000240 2d 16 36 3e 96 3d e8 bd b6 95 82 bd 4d 6e 35 be
       0.17781897 -0.113398716 -0.06376211 -0.17717858
000250 8d a0 a5 bd 59 f0 d9 bd cf 71 34 3e d4 ea 68 bb
       -0.08087263 -0.10641546 0.1762154 -0.003554036
000260 b6 33 88 bc 44 64 83 bd 81 48 37 3d dc 8c a1 bd
       -0.01662622 -0.064156085 0.04474688 -0.07888195
000270 4b 48 13 3e 71 5c 37 3e d1 3f 6f 3e 44 64 f6 bc
       0.14383046 0.17906357 0.23364188 -0.030077107
000280 f5 4b 0d be 1b 81 2c 3d 9b 93 3d 3d 85 96 bc bc
       -0.13798507 0.042115312 0.046283346 -0.023020992
000290 d8 40 9e bd 11 f4 db bd d1 f1 87 bc 96 b2 8b bd
       -0.07727212 -0.10739911 -0.0165948 -0.06821172
0002a0 58 9d 87 bd 97 5f d6 bd 53 fd 99 bd 5f f4 a1 bd
       -0.06621808 -0.10467451 -0.07519021 -0.07907938
0002b0 86 c3 30 3d 8d 03 97 3d 13 36 d8 3d 18 67 44 3e
       0.043155216 0.07373724 0.10557189 0.19179952
0002c0 c0 7b d6 3d 1a c6 d8 bb 9e 88 07 3e 93 e0 38 bd
       0.10472822 -0.0066154124 0.13235709 -0.045136046
0002d0 68 8e 18 3d 78 7e 7f 3d 0e 11 23 3e 7b 4f b6 bd
       0.037245184 0.06237647 0.15924475 -0.089018784
0002e0 a9 50 9b bd 3b 7d be bd f5 ad da bd 3d 1c a3 3d
       -0.07583744 -0.093012296 -0.10677711 0.079643704
0002f0 8e 55 e8 bd 32 74 60 be ab 74 90 3b ce ff 57 3d
       -0.11344443 -0.21919325 0.004408439 0.05273419
000300 4e 6d db 3c 47 23 25 be 75 01 42 3e a7 31 1a bd
       0.026785519 -0.16126738 0.18945868 -0.03764501
000310 bd a6 73 3d 72 04 50 3e 1c e6 7b be 6c 9c 51 3c
       0.059485186 0.20314196 -0.24599499 0.012793642
000320 c3 36 8a 3d ef c7 58 be 29 5f 0c be a3 ad 2b 3e
       0.06748726 -0.21170019 -0.13708176 0.16765456
000330 b8 af ea bd c3 88 e9 bd b5 71 e5 3d d3 36 b4 bc
       -0.11459297 -0.11403038 0.112033285 -0.021998798
000340 fa 90 c8 3d 72 87 1a be 73 da 5b be f2 ba 49 3e
       0.09793277 -0.15090731 -0.2147005 0.1970022
000350 02 e6 78 bd 5e 3c e0 bd cc 96 02 3c be 64 c3 bd
       -0.060766228 -0.10949014 0.007970523 -0.095406994
000360 c9 49 2b be 57 1f b3 3d 67 52 2f be c5 0e 10 be
       -0.16727366 0.08746212 -0.17121278 -0.14068134
000370 02 a6 3c 3e a5 98 68 3e 2b 30 24 3e 67 0f bc bd
       0.18422702 0.2271448 0.16034 -0.09182625
000380 f8 13 4e bd 77 28 45 bd f4 15 c3 bd 5d cc 26 bd
       -0.050312012 -0.048134293 -0.095256716 -0.04072224
000390 83 6f 1b be d0 e4 69 be c7 06 40 3d 32 fe 2c 3e
       -0.15179257 -0.22841191 0.046881463 0.16893843
0003a0 af 50 a3 3c 99 47 58 bc 90 f4 d2 bd 05 a4 6e bd
       0.019935934 -0.013200664 -0.10300553 -0.05826189
0003b0 78 92 39 3b 9d 08 48 bd 9b d8 08 be 10 e7 0e 3d
       0.0028316062 -0.04883634 -0.13363878 0.034888327
0003c0 4c ac 59 bc 03 ab 26 3d c5 f1 2a be 34 ee b9 3c
       -0.013285708 0.040690433 -0.1669379 0.022696592
0003d0 da 4d 6f ba cd 41 5e 3e 61 48 79 bd 87 55 43 bd
       -0.0009128727 0.21704789 -0.06086004 -0.047688987
0003e0 80 c1 03 be 52 08 4d be 86 3a b6 3d 3f 07 3e bd
       -0.12866783 -0.20022705 0.08897881 -0.04639363
0003f0 f3 2c b2 3d c7 2f 3a be 77 a9 2e bc 93 00 2e bd
       0.0869998 -0.18182288 -0.010660521 -0.042481016

sequential/dense_1/MatMul f4 [10, 64]
000000 54 a9 04 be 1f 3c 6d be ab 87 b5 be d9 53 92 3d
       -0.12955219 -0.23167466 -0.3545507 0.07144899
000010 42 40 9a be 62 c7 5b 3e f4 04 df 3d 62 5b 84 be
       -0.3012715 0.21462777 0.108896166 -0.2585097
000020 db 95 8c 3e 3d a7 2e be ff 21 a3 be 57 b4 c6 3e
       0.2745808 -0.17055984 -0.31861874 0.38809463
000030 a9 27 99 be 6e 89 03 bc 3d a1 3b 3b 89 60 63 be
       -0.2991307 -0.008028371 0.002863004 -0.22204794
000040 df d8 5f bd 2a fc 15 bd 57 c5 c6 3c 58 16 7c 3e
       -0.054650184 -0.036617436 0.02426402 0.24617898
000050 90 4a f3 3d a6 bd 07 bf 7d 09 91 be 30 39 b9 bd
       0.11879456 -0.53023756 -0.2832755 -0.09044111
000060 1e 6b 8a be 63 f0 8f bd 85 c3 8c be d7 d1 91 be
       -0.2703485 -0.07028272 -0.2749292 -0.28480408
000070 41 23 06 3e ac 80 ad 3e 15 57 7b bc a8 ad 98 be
       0.13099386 0.3388723 -0.015340586 -0.2981999
000080 63 e0 a2 be af e1 00 37 3f e0 c6 3d de 72 65 be
       -0.31811818 7.681941e-06 0.0971074 -0.224071
000090 fc fe 26 3e 0d 66 fe 3d a9 c6 e2 3d 12 be 90 be
       0.16308206 0.124218084 0.11073048 -0.28270012
0000a0 1e 1b 92 be 56 40 93 be 6e c9 1d be 51 17 15 be
       -0.28536314 -0.28760022 -0.1540887 -0.14559676
0000b0 38 ce 62 3e 0c dc 3d be 54 ab 5a bd b2 48 4f be
       0.22148979 -0.18540972 -0.053386047 -0.20242575
0000c0 24 9a e6 bd b3 a9 84 be c9 22 b7 bd db 1f d3 3d
       -0.11259869 -0.2591072 -0.089421816 0.1030881
0000d0 16 4c 2e be 95 55 b0 3e de f6 52 3e 9c 3d 69 be
       -0.17021212 0.34440294 0.20601985 -0.22777408
0000e0 30 45 7f be 28 91 44 bd 74 ab 80 3e ac 8f 3a be
       -0.24928737 -0.047989994 0.25130808 -0.18218869
0000f0 a6 87 03 be 8a d2 84 be 1e a0 f3 bd 34 49 a1 3e
       -0.12844715 -0.2594188 -0.11895774 0.31501162
000100 81 8a f2 be 2a 2c 5a be 85 ca 6d be 45 e6 0c bd
       -0.47371295 -0.2130591 -0.23221786 -0.03439929
000110 d8 89 c4 bd 38 1d 26 bd f3 ff 9a bd 07 75 98 be
       -0.09596604 -0.04055521 -0.0756835 -0.29776785
000120 c7 b5 a7 bd c9 f3 a7 3e 32 b0 1c be 9a ee 8d 3d
       -0.08188968 0.3280318 -0.15301588 0.06930275
000130 9d 8a 86 3e 55 a2 0b bd 99 41 30 be ec a3 74 3e
       0.2627763 -0.03409036 -0.17212524 0.23890656
000140 74 56 78 bc 35 c2 4e 3d c2 10 af be 85 b8 81 3e
       -0.015157331 0.05047818 -0.34192473 0.2533609
000150 08 c0 88 3e e4 78 17 be b0 f3 05 3d ae ab ea be
       0.26709008 -0.1479221 0.0327031 -0.45834106
000160 d4 35 5c 3c 0b 84 ed 3d e9 cb ea 3d 11 c8 43 be
       0.013440568 0.11597451 0.11464674 -0.19119288
000170 bb 77 6f be 5e 1b a3 3e f2 b3 aa be 99 c4 87 be
       -0.23385517 0.31856817 -0.33340412 -0.2651718
000180 a4 f5 08 3e 18 c8 75 3d ec 5a 58 3e cb 8a 3f be
       0.13374954 0.060005277 0.21128434 -0.18705289
000190 94 13 82 be c6 e7 a1 be fb 8e 5a 3e ac f5 79 be
       -0.25405562 -0.31622142 0.21343605 -0.24410123
0001a0 cb 48 49 3d f8 be 59 be e2 fa be be 4a ea 7b 3d
       0.049141686 -0.21264255 -0.37300783 0.061502732
0001b0 ef dc a9 3d 08 18 85 be 73 da 16 bb 6b 0c a5 be
       0.08294093 -0.25994897 -0.002301839 -0.32236037
0001c0 00 fa ff 3d 00 62 12 be 10 55 95 be f5 9e 36 be
       0.124988556 -0.14295197 -0.2916646 -0.17834075
0001d0 f1 bc fb 3d 6c 24 66 3e 58 97 41 be 77 ab be be
       0.12291897 0.22474831 -0.1890539 -0.37240192
0001e0 73 b6 c5 be 0c 42 98 3e 38 cf 56 bd d0 22 e4 bd
       -0.3861576 0.2973789 -0.052443713 -0.111394525
0001f0 00 52 76 3d 9c c8 9a 3e 8e e5 15 3e 31 27 f8 3d
       0.060136795 0.30231178 0.1463835 0.1211685
000200 bf d3 98 bc 95 f2 a6 3d 74 d3 db bc 96 24 ed bc
       -0.018655656 0.081517376 -0.026834227 -0.02894811
000210 97 b3 b7 bd 61 18 70 3e c9 30 78 3e 28 19 2a be
       -0.08969801 0.234468 0.2423736 -0.16611159
000220 71 e4 a9 be 9f c6 89 be 95 8f b4 be a5 17 7e 3c
       -0.331821 -0.26909348 -0.35265794 0.015508567
000230 96 04 23 be 41 32 9b be bd 37 9e 3e 28 c8 45 be
       -0.15919718 -0.30311778 0.309019 -0.19314635
000240 e0 94 9c 3e 41 41 53 bd 1c b8 af be 1d 9f 17 be
       0.30582333 -0.051575903 -0.34320152 -0.1480679
000250 0c 4d 99 be e5 e6 7d be d7 30 80 be 2b a4 82 3e
       -0.29941595 -0.2479511 -0.25037262 0.25515875
000260 90 32 81 3e 0d 93 9b be 23 2b 57 3e 06 e8 7f be
       0.2523389 -0.30385628 0.21012549 -0.24990854
000270 b2 d1 d4 be ea 0c f7 bd 30 86 b5 bc e0 e1 20 3e
       -0.41566235 -0.1206301 -0.022158712 0.15711164
000280 8c 32 b4 be 95 26 81 3d 71 94 ea bd 67 31 d1 be
       -0.35194814 0.06306187 -0.11454094 -0.40858003
000290 51 18 0d 3e 4c bb a2 3e 2d d2 a2 be 49 5f 3e be
       0.13778807 0.3178352 -0.31800976 -0.18591036
0002a0 f5 49 31 bd 12 2e ff 3c e7 98 f5 bb 14 4d a8 be
       -0.04328342 0.031149898 -0.007495034 -0.32871306
0002b0 b2 d7 4c be e8 29 47 be 51 5e 77 3e 87 03 77 be
       -0.20004156 -0.1944958 0.24157073 -0.2412244
0002c0 5d a0 9a be 63 28 e7 bd 0d 61 b0 3e f2 1f a5 be
       -0.30200472 -0.11287 0.34449044 -0.32250935
0002d0 74 61 5e bd ea b7 72 3e 42 65 6c 3e d8 d9 16 3e
       -0.054292157 0.2370297 0.23085502 0.14731538
0002e0 8f b9 93 3e 2b c4 30 bd c6 6a 25 bd 56 95 7b be
       0.28852507 -0.04315583 -0.04038503 -0.24568686
0002f0 64 2a cc be 5c 4f 02 3e 18 ba bd 3e 70 bc 03 3e
       -0.3987609 0.12725586 0.3705604 0.12864852
000300 bc 2e e1 3d e6 72 e3 3d f8 6c 7f 3c 18 52 38 be
       0.10995242 0.111058995 0.015589945 -0.18000066
000310 95 5f 98 be 8a 7c 3f 3e 81 15 d5 be b1 2a d3 bc
       -0.29760423 0.18699852 -0.4161797 -0.025777193
000320 6e 1d ae 3d f4 66 48 be 98 f4 66 be 36 27 9f 3d
       0.08501707 -0.19570524 -0.22554243 0.07771151
000330 3b 1b 73 be e0 05 7d 3e 68 06 11 be 2e ea 88 3e
       -0.23740856 0.24709272 -0.141626 0.26741165
000340 33 1b ed 3d bf f8 d7 3d 11 21 02 3e 34 bc 39 3e
       0.115774535 0.105454914 0.12707926 0.181382
000350 80 e2 39 3d fa bc c8 be 8a 12 a5 3e 86 88 d6 3d
       0.045382023 -0.39206678 0.32240707 0.104752585
000360 9c 17 9f 3e f2 3f 3e be 8b b7 0e 3d 65 ff 72 3d
       0.310727 -0.1857908 0.03484301 0.059325594
000370 51 7e 3f be 45 fe 65 3e 8c 72 a8 3d 69 cd 5b bd
       -0.1870053 0.22460277 0.08224973 -0.05366269
000380 d2 b2 17 bc bf ce 74 3d a2 16 58 bd e5 e6 29 3e
       -0.009258943 0.05976748 -0.05275596 0.16591986
000390 5d 54 99 be 22 b8 2d be 29 df 94 be 11 26 4d be
       -0.29947177 -0.16964772 -0.29076508 -0.20034052
0003a0 64 bc 7a be 1d 9b 5d 3e 02 ea 59 bd 6e 50 fa bd
       -0.24485928 0.21641202 -0.053201683 -0.12222372
0003b0 6d 08 b2 be be 14 91 be 52 b6 31 3d 49 36 fe bc
       -0.34772053 -0.28336138 0.043386765 -0.031031745
0003c0 c7 3e 89 be 8f ef 64 3e 4e af 65 be c3 ef ae bd
       -0.26805708 0.2235701 -0.22430155 -0.08541825
0003d0 97 f0 51 be e2 f9 37 be 7c a1 12 be 65 b2 38 be
       -0.20501934 -0.17966416 -0.14319414 -0.18036802
0003e0 a0 86 f8 3d 0d fe 15 bd 89 9b ee bd d5 9e 82 3e
       0.12135053 -0.036619235 -0.1165076 0.25511804
0003f0 29 3d 8e 3e e8 96 2e 3e 72 a8 cc 3d 96 e2 9b be
       0.27781036 0.17049754 0.09993066 -0.3044631

sequential/lstm/Read_2/ReadVariableOp1 f4 [512]
000000 38 ea 5d 3c bc 2e d0 3b 92 cf 8b 3b d7 18 9c 39
       0.013544612 0.0063532274 0.0042666877 0.00029773146
000010 ec e7 75 3c 0f 8b 20 3d 2f 76 49 3c 26 94 c1 bc
       0.015008908 0.039195117 0.012296244 -0.023630213
000020 5e a5 55 3c 35 98 b7 bc 78 e4 61 3b c4 83 07 3d
       0.013039915 -0.022411445 0.0034468453 0.033084646
000030 f1 11 fd 3b eb 9d 09 bb 5a c1 20 3c ca a2 ef bc
       0.007723086 -0.0020998667 0.009811724 -0.029252429
000040 73 c2 38 3c f1 5e d7 bb 6f 10 79 bc 83 d5 53 bc
       0.011276829 -0.006572597 -0.015201672 -0.012929323
000050 64 b8 c5 3a c3 f7 e0 bc 6a a2 bb 3c 92 5f a2 bc
       0.001508486 -0.027461892 0.022904593 -0.019820962
000060 aa a7 82 ba ae 7c eb 3b af 9b 33 bc 4d 4c 1a 3c
       -0.0009968181 0.007186494 -0.010962411 0.009417606
000070 92 bd ac bc 19 ef a4 3b 75 6c fa 3a a0 30 7b 3b
       -0.021086488 0.0050333855 0.0019105809 0.0038328543
000080 e1 6e f5 3c 57 2c 8c bb 4b e5 34 3b 73 dd 2c b9
       0.029960098 -0.0042777467 0.002760249 -0.00016485695
000090 3e 81 d0 3b cd 92 4f 3c 53 ae 04 3d 38 67 7f bb
       0.006363063 0.012669277 0.03239281 -0.0038971435
0000a0 4a ce a0 bc ef 65 b0 bc 17 83 e9 3b aa fd 8c bc
       -0.019629616 -0.02153298 0.007126223 -0.0172108
0000b0 f1 0e 1d bc 63 c0 f5 bb b1 28 c6 bb a4 be fe 3c
       -0.009586082 -0.007499741 -0.0060473313 0.031096764
0000c0 4f 8a ba bc e2 39 ae bc fc 8f 8f bc 4a 6a 2e 3c
       -0.022771029 -0.021267835 -0.017524712 0.0106454585
0000d0 c6 67 ab bb c8 62 c2 bb 92 b5 b4 3b de 1f 74 bd
       -0.0052308766 -0.005932186 0.005514809 -0.059600703
0000e0 00 90 13 b3 9e fc 08 bc 83 a9 5e 3b ca 78 76 bc
       -3.4357072e-08 -0.00836101 0.0033975549 -0.015043447
0000f0 18 0a 8a bb 13 c7 dc 3a 0b 59 4c bc 19 7e 96 bb
       -0.004212629 0.0016843997 -0.012472401 -0.0045926687
000100 cf a0 88 bc 32 63 2f bc b4 0d c8 bc 21 79 ba bc
       -0.016678242 -0.010704802 -0.024420597 -0.022762837
000110 f3 0e 44 bc 18 15 fe bb cb 95 5c bc 5a c6 80 3b
       -0.011966455 -0.0077539794 -0.013463448 0.0039298953
000120 c8 22 01 3c 59 b5 de ba fa 88 3e bc 94 3c 42 bd
       0.007881828 -0.0016991302 -0.011629337 -0.047421053
000130 56 4e 77 bc cb 1f 22 bc 83 e7 8d 3b d7 bd ca 3c
       -0.01509436 -0.009895275 0.004330577 0.024748726
000140 80 6d f3 39 19 65 83 bc a9 4d 34 3c 47 8a 84 3b
       0.00046430156 -0.016039418 0.011004844 0.0040448043
000150 20 ad a4 bc 6f 0f d0 bb d2 3b f9 ba 92 e2 78 3c
       -0.020102084 -0.006349496 -0.001901502 0.015190737
000160 d7 0e de bc 0c b2 86 bb 49 6e 4a ba 47 7e b8 bc
       -0.027106686 -0.0041105803 -0.0007722122 -0.022521151
000170 07 32 83 bc ce 8c 88 bc 94 73 f6 3c 3e e0 94 3b
       -0.016015066 -0.016668703 0.030084409 0.0045433333
000180 b7 c4 2d bc ae f7 75 bc de d9 6b bc 69 3b b0 bb
       -0.0106059825 -0.015012665 -0.014395205 -0.005378176
000190 4f b5 65 bd 78 24 2a bc ff 1c 8d bc 26 f1 93 bc
       -0.056081112 -0.010384671 -0.01722574 -0.018059324
0001a0 67 bc 47 bc 33 46 0c 3c 48 57 bf bb e7 16 5c 3c
       -0.012190915 0.008561659 -0.005839262 0.013433195
0001b0 f0 af 30 bc b0 6f 93 bb 0a 5b ab b9 72 76 b4 bc
       -0.010784134 -0.004499398 -0.0003268349 -0.022029135
0001c0 d3 de 86 bc 15 90 fe bc ad cc 01 3d b6 8c 40 bb
       -0.016463673 -0.031074563 0.031689335 -0.0029380745
0001d0 d0 65 97 bc a2 f1 f2 bc 0b 7e 95 3c 4e 11 84 3c
       -0.018481165 -0.029656235 0.018248579 0.016121533
0001e0 b3 10 c5 bc c2 51 d3 ba 3a b0 92 bc 47 ba 72 3c
       -0.024055814 -0.0016122388 -0.017906297 0.01481492
0001f0 c1 d3 a1 3c 29 5a bd bc 54 98 90 3a 91 2c b5 3a
       0.019754292 -0.02311428 0.0011031725 0.0013822486
000200 43 61 81 3f ef 95 81 3f e9 26 81 3f 16 66 80 3f
       1.0107807 1.0123881 1.009 1.0031154
000210 be 9e 7e 3f 39 a1 7e 3f 2f 31 82 3f 0f 4f 7f 3f
       0.9946097 0.99464756 1.017126 0.9973001
000220 88 bf 80 3f 61 e7 7c 3f 16 4d 7b 3f c4 dc 81 3f
       1.0058451 0.98790556 0.981645 1.0145497
000230 06 97 82 3f b1 db 81 3f a1 37 7f 3f fd cb 79 3f
       1.0202339 1.014517 0.9969426 0.97576886
000240 14 69 81 3f a1 b5 82 3f c6 6e 7c 3f db 90 80 3f
       1.0110192 1.0211679 0.98606527 1.0044206
000250 da 6c 7f 3f 08 a7 7c 3f 03 8f 82 3f 33 8e 80 3f
       0.9977547 0.9869237 1.0199894 1.0043396
000260 7f 17 82 3f c2 42 83 3f 92 ee 83 3f 29 88 82 3f
       1.016342 1.0254748 1.0307181 1.0197803
000270 3c 33 79 3f de c1 7e 3f 95 c5 80 3f be 93 80 3f
       0.973438 0.9951457 1.0060297 1.0045087
000280 16 5a 7c 3f a1 80 81 3f 65 31 81 3f 2d 73 80 3f
       0.9857496 1.011738 1.0093199 1.0035149
000290 8a 58 80 3f bb 66 80 3f 48 14 81 3f b9 42 82 3f
       1.002702 1.0031351 1.0084314 1.0176612
0002a0 a0 fe 81 3f 27 f7 83 3f 4a 4d 82 3f 5c bb 7e 3f
       1.015583 1.03098 1.0179837 0.9950464
0002b0 d5 c2 83 3f 55 68 7c 3f 75 b7 79 3f 97 20 81 3f
       1.0293833 0.985967 0.9754556 1.0088071
0002c0 d6 0d 80 3f 5d 30 80 3f f6 65 79 3f 8e 96 80 3f
       1.0004222 1.0014759 0.97421205 1.0045946
0002d0 d7 ab 81 3f a2 09 80 3f a8 36 84 3f 70 fd 84 3f
       1.0130566 1.000294 1.032918 1.0389843
0002e0 ce f4 80 3f 95 02 7e 3f 86 d2 80 3f b1 b6 7e 3f
       1.0074708 0.9922269 1.0064247 0.99497515
0002f0 56 49 7d 3f df d9 82 3f 45 da 7e 3f 98 00 80 3f
       0.98940027 1.0222739 0.995518 1.0000181
000300 e8 d6 7b 3f 8b 38 80 3f 12 29 85 3f 91 48 80 3f
       0.98374796 1.0017256 1.0403159 1.0022146
000310 8c 0a 81 3f 66 7a 81 3f 3c 14 7d 3f 8c 4c 7d 3f
       1.0081344 1.0115478 0.98859 0.98944926
000320 d8 f4 81 3f 8f 45 7d 3f 4a af 80 3f 64 8e 81 3f
       1.0152845 0.98934263 1.0053494 1.0121579
000330 db 1f 83 3f 34 05 7f 3f 99 c5 7e 3f b8 5c 80 3f
       1.0244097 0.99617314 0.9952026 1.0028296
000340 f9 2e 82 3f 96 41 7f 3f ce 3c 7f 3f 9e e8 83 3f
       1.0170585 0.9970945 0.99702156 1.0305364
000350 61 9a 81 3f 9c a7 7c 3f 3b 12 86 3f 5a 82 80 3f
       1.0125238 0.9869325 1.0474313 1.003978
000360 5a b2 86 3f 47 37 85 3f 94 ed 7e 3f cb e8 85 3f
       1.0523179 1.0407494 0.99581265 1.0461668
000370 95 8f 7d 3f d9 6e 7f 3f d0 7a 80 3f 1e bb 7d 3f
       0.99047214 0.99778515 1.0037479 0.99113643
000380 26 ce 81 3f af 3f 7f 3f bb 53 7c 3f c9 da 7d 3f
       1.0141037 0.9970655 0.9856526 0.99161965
000390 7d a3 85 3f 03 e5 7c 3f dd fa 80 3f d2 31 81 3f
       1.0440518 0.98786944 1.0076557 1.0093329
0003a0 51 55 7d 3f 2a 03 7f 3f 60 fe 82 3f ea 6c 7c 3f
       0.9895831 0.996142 1.0233879 0.9860369
0003b0 14 83 7f 3f a6 53 7e 3f 88 a0 7e 3f 03 8c 7c 3f
       0.99809384 0.9934639 0.994637 0.9865114
0003c0 46 ff 80 3f 93 c9 79 3f 7f 15 80 3f 14 18 80 3f
       1.0077903 0.975732 1.000656 1.0007348
0003d0 c2 e3 78 3f c6 01 83 3f 0f fc 80 3f 50 6c 83 3f
       0.9722253 1.0234916 1.0076922 1.0267429
0003e0 18 30 7f 3f 5a 4d 83 3f 53 af 7e 3f 73 67 80 3f
       0.9968276 1.0257981 0.99486274 1.003157
0003f0 9f c0 82 3f da 0d 82 3f 88 ff 7e 3f 19 73 7f 3f
       1.0215033 1.0160477 0.9960866 0.99785

while/MatMul_11 f4 [512, 128]
000000 a9 d2 74 3c 37 f5 be 3b ff 9a 79 3d 45 5e a7 3d
       0.014942803 0.0058275717 0.06093883 0.08172277
000010 88 8e a8 bc f7 ba aa bb e0 b8 82 3d 2a 4e d7 3a
       -0.020575777 -0.005210276 0.06382918 0.0016426493
000020 9a 1e f6 bc 3d bb 20 bd 6a c9 b1 3d e4 03 a2 bd
       -0.030043889 -0.039241064 0.08680995 -0.07910898
000030 d2 a2 75 bc 88 c6 12 3e 01 b4 13 bd 11 1f 2e 3d
       -0.014992433 0.14333546 -0.036060337 0.042510096
000040 e9 e1 e9 3c 27 74 be 3c 3f e3 25 3c 9e f1 cf 3b
       0.028550105 0.023248745 0.0101249805 0.0063459417
000050 4b 78 a1 3d d2 23 ab 3a 5e 60 71 bd 0e f8 be 3b
       0.07884272 0.001305694 -0.058929794 0.0058279103
000060 3e 29 1f bd 7c 93 1f bd 08 2b bc bd 93 0e c5 bc
       -0.03885769 -0.03895901 -0.09187895 -0.024054801
000070 c0 ce a8 3d c7 e2 b5 bd e4 d9 33 bd 0b f6 74 3e
       0.082425594 -0.08881145 -0.04390897 0.23921983
000080 93 39 55 bc 7d 87 e5 3d ae 44 a8 bc cd c2 dd bd
       -0.013014215 0.11207483 -0.020540562 -0.10828171
000090 e2 ef 00 3d 5c 2c f6 bc 11 e0 09 3d 51 20 12 be
       0.03147877 -0.03005045 0.033660952 -0.1427014
0000a0 e6 68 c5 bb 10 7e 75 bd c2 23 c4 3d e6 25 b5 bb
       -0.0060244678 -0.059934676 0.09577133 -0.0055281995
0000b0 41 9c 4d 3c 49 ee 80 3d ef b0 d4 bd b0 97 1b 3c
       0.012549461 0.06295449 -0.1038531 0.009496614
0000c0 fc 56 11 bd 87 92 1a bc e9 5a 82 bd e4 c6 3d 3d
       -0.035483345 -0.009434349 -0.06364996 0.046332255
0000d0 91 bb c3 bd 5c 05 cd bb c3 1e d5 3c c8 ff 9d 3d
       -0.0955726 -0.0062567424 0.026015645 0.07714802
0000e0 34 23 c7 3c db db 03 3d f9 2e 95 bd 1c 1b 7d bb
       0.024308778 0.032192092 -0.0728435 -0.0038620895
0000f0 17 75 00 3d 64 4f 2c bd 2b a5 64 3d f3 a0 c3 bd
       0.031361666 -0.0420679 0.05582158 -0.09552183
000100 44 4d 08 be 27 b0 d3 bc c0 5a 96 3d a1 bb 20 bc
       -0.13310724 -0.025840832 0.07341528 -0.009810359
000110 18 31 68 3c 6c a2 06 3e 0c da 18 3d 50 8c 55 3d
       0.014171861 0.13147897 0.03731732 0.052135766
000120 8b 10 17 3d 1d 14 21 bd 40 b7 71 3d c7 15 8a bc
       0.03688101 -0.039325822 0.05901265 -0.016856087
000130 fc 8c a4 3b 20 14 7e 3c e9 99 11 be 22 ed 17 bd
       0.0050216895 0.015507728 -0.14218868 -0.03709138
000140 84 74 79 3d d2 62 51 3d 0c fd c0 3c 05 b6 fa bc
       0.060902134 0.051119633 0.023558162 -0.030604372
000150 84 02 0e bb fb c1 20 3d a5 f5 71 3d ec 8f 8e 3d
       -0.002166898 0.039247494 0.059072156 0.06961045
000160 8e 60 66 3d a9 30 54 bc 8e 9e 35 3d da 4c 43 3d
       0.056244425 -0.012951055 0.044340663 0.047680713
000170 48 33 ce 3d 13 64 b2 3d 92 d3 5e bb 1d 51 89 bd
       0.10068375 0.08710494 -0.0034000617 -0.06704924
000180 88 f6 aa bd 63 b3 2e bd 2e 75 48 3c 82 de 6d 3d
       -0.08347803 -0.042651545 0.012234969 0.058073528
000190 d4 32 5b bd 04 b1 03 bd da 9c 1d 3a 3c 66 45 3d
       -0.05351527 -0.032151237 0.00060124474 0.0481932
0001a0 d5 60 5d 3d ec 62 03 3d ef 58 d1 39 af fd c6 bd
       0.054047424 0.03207676 0.00039929847 -0.09716355
0001b0 bc e9 1c 3e b3 01 df bd cb 5e 6f bd 69 87 2c bd
       0.15323538 -0.10888996 -0.05844001 -0.042121325
0001c0 e8 42 c7 bd 30 52 be 3c c2 84 c4 3b 62 de 0a 3d
       -0.09729558 0.02323255 0.0059972713 0.033903487
0001d0 4a 9d d6 3c 80 07 42 3d ce a7 09 3e 62 d6 ed 3d
       0.026198048 0.047370434 0.13442919 0.11613156
0001e0 df 4d 61 bc 73 24 fa b9 92 19 a0 bd 69 e8 35 3c
       -0.013751476 -0.00047710873 -0.07817377 0.011102774
0001f0 ad 77 77 3c c8 40 cf bc 53 c6 36 bd 38 4d 66 3d
       0.0151042165 -0.025299445 -0.04462273 0.056225985
000200 68 05 66 bc f1 62 ba 3b 7d 7f ed bc ce fc e1 3c
       -0.014039375 0.0056880643 -0.028991455 0.027586367
000210 21 59 8a 3d 12 d8 04 3d 3a fe ca bb 57 79 d7 bd
       0.06755281 0.032432623 -0.006194857 -0.105211906
000220 83 3b 82 bd b7 22 57 3d 18 c2 9e 3d 8b bc d6 3c
       -0.06359007 0.05252334 0.07751864 0.026212951
000230 4b 14 a3 3b 27 66 dd bc 1b 2d ac 3c 5b a4 75 bd
       0.0049767843 -0.02702625 0.021017602 -0.059971195
000240 c6 10 14 3d 0a f8 bd 3d 1c b9 3e bd b8 92 cf bb
       0.03614881 0.09275825 -0.046563253 -0.006334629
000250 f5 01 b2 bc 8f a9 97 3d 99 9a f0 3c 94 c3 99 3d
       -0.021729449 0.074053876 0.029370593 0.07508007
000260 5b da 5a 3d b8 03 aa 3c 67 a2 de bc d0 1d cf bc
       0.053430896 0.020753726 -0.027177049 -0.02528277
000270 9d 29 18 be 6c 4a 7c 3d a6 ff 8f bd 72 cc 06 3d
       -0.14859624 0.06159441 -0.07031183 0.032909818
000280 9b f0 06 3d 23 ef 1e 3d 33 66 5e bd 25 39 f5 3d
       0.032944303 0.038802277 -0.054296684 0.1197379
000290 ce 9c d9 3d b9 28 a6 3d a1 9a 57 bd d7 df c4 3d
       0.10625611 0.08113236 -0.0526377 0.096130066
0002a0 84 12 64 bd 2e b7 a1 bc 90 af a0 bc 8b fa 1d bd
       -0.05568172 -0.019740667 -0.019614965 -0.038569015
0002b0 bd 72 7c bd 84 b9 b9 bc 5d fd 14 be ae 3a 5b 3c
       -0.06163286 -0.022671469 -0.14549775 0.01338069
0002c0 d9 fc 37 3d 92 be df 3b 4a 2f a8 bc cc a5 9a bd
       0.04491887 0.0068281377 -0.020530362 -0.075511545
0002d0 45 5e ec 3d 33 d6 63 bd 96 4f 8f bb c2 ae cd bb
       0.11541418 -0.0556242 -0.004373501 -0.0062769363
0002e0 39 45 26 bc 1f 36 af bd e8 49 0d bd de af 5b 39
       -0.01014834 -0.08555245 -0.03449431 0.00020950983
0002f0 3c 44 80 3c 6c 10 89 3d c0 b4 c3 3c 73 15 d9 3c
       0.015657537 0.06692585 0.0238899 0.026499486
000300 a2 8a 0a 3d 8d b1 dc 3c 0e f8 8b ba b4 89 be bc
       0.033823617 0.026940132 -0.0010678784 -0.023259021
000310 08 71 83 bc c3 66 71 bd 12 a8 a4 bc 08 4e 59 bc
       -0.016045108 -0.05893589 -0.020099673 -0.013263233
000320 2b f8 cf 3d a1 ae 01 3e e5 02 26 3e 54 c2 ca 3c
       0.10154756 0.12664272 0.16212042 0.024750866
000330 75 51 22 bd f1 aa f9 3c 25 fc b7 3b 4a d6 ba 3d
       -0.039628465 0.030477019 0.005614775 0.09122904
000340 bf 6f 6e 3d 7b 2b b3 bd 0d aa bf bc 20 77 05 3b
       0.058212038 -0.087485276 -0.023396516 0.0020365193
000350 9a 73 35 bd e5 6f b7 3d d6 bb b3 bc 65 71 52 bd
       -0.0442997 0.08956889 -0.021940153 -0.051377673
000360 a0 c7 6f 3a cf b6 42 3d e2 ec e3 3d 01 32 ab bd
       0.0009146873 0.04753762 0.11129166 -0.08359147
000370 2e b5 c2 bc 52 f5 64 3d 38 5b 04 3e a3 fb 8c bc
       -0.023768034 0.05589802 0.12925422 -0.017209833
000380 58 f9 27 bc f9 8a 94 3d ba 48 92 bc db 26 41 bd
       -0.010252319 0.072530694 -0.017856944 -0.047156196
000390 1a 71 4c bd 94 cd 64 bd da a9 5b bd 37 d5 e1 bd
       -0.04991255 -0.055860117 -0.05362878 -0.11026996
0003a0 67 8d 67 bd 01 9f 4e bd 85 d2 5e bd 3d 61 4a bd
       -0.056531336 -0.050444607 -0.054399986 -0.04940914
0003b0 7a c4 80 3d af 90 b8 bc 8c 08 0e 3e 8d da 35 bc
       0.06287475 -0.022529928 0.13870448 -0.01109947
0003c0 a2 33 2b 3c 8f b8 ef 3d 70 90 f4 bb 64 c8 5b 3d
       0.010449322 0.11705124 -0.0074635074 0.053657904
0003d0 be 74 5c 3a 49 b0 7f 3d 3f 07 16 3e bc 93 9b 3d
       0.000840973 0.062423978 0.14651202 0.075965375
0003e0 c6 5a 47 3d c5 bc f0 3d d2 e7 3a bd 8f 57 41 3d
       0.048670553 0.11754755 -0.045631237 0.047202643
0003f0 5e f8 96 3d c2 de d3 bd ad 55 6c bd 56 7b c1 3b
       0.07371591 -0.10345222 -0.057698894 0.0059045954

while/MatMul f4 [512, 234]
000000 bf c5 35 3d 6c 68 e6 3c 32 f9 af bd 4e 9a 0d bd
       0.04437804 0.028125964 -0.08592452 -0.034570985
000010 23 bd 9c bd 6e 35 11 3e fd 4d 85 bd ad be e2 3c
       -0.076532625 0.14180538 -0.06509016 0.027678812
000020 3d ee a2 3d 2e 69 98 3d 47 b3 22 3d 40 b8 c0 3c
       0.079555966 0.074419364 0.039721753 0.023525357
000030 9b f1 1e bc fc 96 38 bd 9b 6e e0 3d 83 ce a8 bc
       -0.009701158 -0.045065865 0.10958596 -0.020606285
000040 42 9a 53 3c 5e 06 07 3e 29 6e 8f bd cb c0 b0 bd
       0.012915196 0.13186023 -0.07003433 -0.08630522
000050 61 97 b2 3b 20 f3 5d bc b0 3e 47 3c 24 4e af 3d
       0.0054501747 -0.013546735 0.012160942 0.08559826
000060 a3 89 91 3d 26 94 62 bc 59 15 b9 bd cc 29 b1 3c
       0.0710633 -0.013829267 -0.09037275 0.021626376
000070 bd ba 2b bd fc f3 72 bc dd e3 89 3d 00 17 f7 bd
       -0.041926134 -0.014828678 0.067329146 -0.12064934
000080 41 26 29 3d a5 31 bc bc 93 25 be bc 4f b4 b7 bd
       0.041296247 -0.022972891 -0.023211276 -0.08969938
000090 f7 c9 00 3c 57 1c d5 bd b9 c6 39 3d 33 0c e7 bb
       0.007860652 -0.10405796 0.045355532 -0.007051015
0000a0 24 b4 b1 bd 88 a8 a9 bc 60 3b 85 3d 7d 39 a1 bd
       -0.08676937 -0.020710245 0.065054655 -0.07872293
0000b0 a3 2a 37 3d 69 42 11 3d 5f 80 a3 bd 13 bc 43 bd
       0.044718396 0.035463724 -0.07983469 -0.047786783
0000c0 10 b4 9d 39 ba 75 46 bd a0 62 de bd f4 14 47 bd
       0.0003007953 -0.048452117 -0.10858655 -0.048603967
0000d0 3b 1d 02 bc f8 12 31 bd d4 ae 46 3d 26 ea 01 3d
       -0.007941539 -0.04323098 0.048506573 0.031717442
0000e0 c5 f1 a3 bd c5 b3 85 bd 53 76 cb bc 17 59 8e bd
       -0.08005098 -0.06528429 -0.024836695 -0.06950586
0000f0 60 70 80 bd 0f 8a 09 bd 52 92 bc bd 58 3f b9 3d
       -0.06271434 -0.03357893 -0.09207596 0.09045285
000100 14 c1 a2 bd e2 00 82 3d 2f 66 1a bd 28 4e 97 bd
       -0.07946983 0.06347825 -0.037695106 -0.07387954
000110 1a 01 4f bc 3e 0f b9 bb eb d4 96 bb ce 0b 9e 3d
       -0.01263454 -0.005647569 -0.0046030185 0.07717095
000120 44 64 8f bc 83 c8 37 bd 06 9a a2 bd 36 b2 91 b9
       -0.017503865 -0.044868957 -0.07939534 -0.00027789333
000130 af aa 30 3d 6f b8 99 3d 59 64 1c bd d9 0e 6b bd
       0.043131527 0.07505881 -0.038181636 -0.057387207
000140 b7 5b ae 3d 71 8a 70 3d dd a7 93 3c bb af 35 bd
       0.08513587 0.058725778 0.01802438 -0.044357043
000150 ed 98 a5 bb 29 fc 8f 3c 02 5a 8c bd 6d 50 8c bd
       -0.0050536306 0.017576294 -0.06853105 -0.068512775
000160 68 ae 96 3d 08 f2 93 bd 48 0a c5 3d aa 17 bb bc
       0.07357484 -0.07223898 0.096211016 -0.022838432
000170 38 3e 2e 3d d5 2d 56 3c 7a 42 5f bc d2 61 10 3d
       0.042539805 0.013072451 -0.013626689 0.03524954
000180 4c ed 28 bb e8 03 77 bd b1 13 88 3d bd 6e 8a bb
       -0.0025776206 -0.06030646 0.06644381 -0.004224627
000190 bd bf 9e bd 2d c6 30 ba d8 ad de 3c d5 17 14 3c
       -0.07751415 -0.00067433977 0.027182505 0.009038885
0001a0 18 05 47 bd c6 b7 21 bd d5 ea 8a 3b 2d 13 8e bd
       -0.048588842 -0.0394819 0.00423942 -0.06937251
0001b0 06 84 8c bc 1a 6b 5f 3c 1f d2 d6 bb e1 33 f6 bc
       -0.017152797 0.013636375 -0.00655581 -0.030054035
0001c0 35 47 9b bd 51 7a 28 3d 15 61 d7 bc 48 0b ad bd
       -0.07581941 0.041132275 -0.02629141 -0.08449417
0001d0 22 fa 95 bc 2a 26 91 bb 1b 4a cb bd 97 de b8 bd
       -0.01830775 -0.0044295983 -0.09926244 -0.09026831
0001e0 04 d6 05 bd 0e e1 8c bc 26 c6 43 bd 07 33 d4 3d
       -0.032674804 -0.017197158 -0.04779639 0.10361295
0001f0 72 5d 52 3d 0d 6f fe bd 6c c7 ca 3b f9 31 91 bc
       0.051358648 -0.12423525 0.0061883237 -0.017724024
000200 96 50 03 3d 02 ca a3 3c c1 03 c0 bc 60 10 e8 3c
       0.032059275 0.019993786 -0.02343929 0.02832812
000210 9f 76 d7 bc e9 b1 d6 3d 7a bf 11 3d 48 9e b1 3c
       -0.02630168 0.104831524 0.035582997 0.02168192
000220 de e7 e7 bc cc 1b 96 bd 88 48 8f bd d6 2a 2f 3c
       -0.028308805 -0.073295206 -0.06996256 0.010691365
000230 f5 36 8e 3d d2 3c f0 bc 19 1e 39 bd c2 69 4d 3d
       0.06944076 -0.029325876 -0.04519472 0.050149687
000240 37 0e 93 3d f4 0a 1e bd ec 63 43 bd f1 1c e2 bc
       0.07180446 -0.038584664 -0.047702715 -0.027601691
000250 4d a8 2a 3d 10 30 8c 3c a9 12 a2 bc 78 1d d4 3d
       0.04166441 0.017112762 -0.019784288 0.10357183
000260 52 93 c9 bd 6b 13 97 bc 6f 71 84 3c 01 9f 17 bd
       -0.09842552 -0.018441876 0.01616737 -0.037016872
000270 46 dc a1 bc 40 e7 b8 bc c6 07 6b bd c5 a3 ca 3d
       -0.019758355 -0.022571206 -0.05738046 0.09894518
000280 54 eb c0 3d 80 d5 aa bd e3 0a a5 bc eb 13 66 3c
       0.09419885 -0.08341503 -0.020146793 0.014042835
000290 54 9c 69 bd 37 d0 69 3d 99 d9 c6 3c 59 cf 4b 3d
       -0.05703385 0.057083335 0.02427368 0.04975829
0002a0 6e 70 f5 3c c7 d1 57 3d b5 44 90 3c ff dd 8c 3c
       0.029960837 0.052690294 0.017610887 0.0171957
0002b0 8d c2 a9 bd 38 15 19 bd 4f 51 bb bd b7 16 87 3d
       -0.08289061 -0.03737375 -0.09146368 0.065961294
0002c0 a5 f3 df bd 70 e7 70 3d a7 27 3e 3c ed 73 89 bc
       -0.109351434 0.058814466 0.011606134 -0.01677891
0002d0 3a f8 e6 3c 9c b4 e5 bc dc 37 7d ba 0d a4 d4 bc
       0.028194536 -0.028040223 -0.0009659508 -0.025957132
0002e0 fd e2 98 bd 14 23 f4 bc ca 98 a2 bd 8d f3 e5 3c
       -0.074651696 -0.029801883 -0.079392985 0.028070236
0002f0 30 58 82 bd ba b2 93 bd 0f 62 6c 3d 78 7e f7 3c
       -0.06364477 -0.07211824 0.057710703 0.030211672
000300 be f2 d5 3d 3b 3f af 3d 63 8d 91 3d 2f 68 f6 3d
       0.1044669 0.08556982 0.071070455 0.1203159
000310 82 46 24 3e d1 25 ab 3c e2 f9 0b bd 51 a1 b5 3c
       0.16042522 0.020892056 -0.034173854 0.022171648
000320 91 2b 8e 3b c7 de 61 bc 08 df 88 3c ac e2 94 3d
       0.0043386896 -0.013786024 0.016707912 0.07269797
000330 05 bc ad 3c 9e aa 15 be d5 42 da 3d b3 51 e2 3c
       0.021207819 -0.14615867 0.106572784 0.027626848
000340 00 79 15 bc 1e 1e 16 bd 91 2c 0c bd 64 cc 89 bc
       -0.009123087 -0.036649816 -0.03422219 -0.016821094
000350 52 ad bd 3d a5 57 86 bb 7e 60 22 bc 61 93 20 bd
       0.09261574 -0.0040998035 -0.009910701 -0.03920305
000360 88 16 84 3c 14 68 90 bd df 21 a9 38 56 29 95 bd
       0.016124025 -0.07051101 8.064857e-05 -0.07283275
000370 15 8f 79 bd 8c 0c 50 3d 52 b3 57 3d 40 c9 83 3d
       -0.06092747 0.050793216 0.052661248 0.0643487
000380 6c 7a da 3c cc b1 6f 3d b2 de d3 3a e2 83 8d bd
       0.026669703 0.05851917 0.0016164391 -0.0690992
000390 67 82 77 bd 07 b4 20 bc 23 4a c8 bd aa 9b 66 bc
       -0.060427096 -0.009808547 -0.097797655 -0.014075199
0003a0 77 c9 a4 3c 90 8f 8f bd 62 e6 c5 bd 33 b2 d9 3b
       0.020115597 -0.07009804 -0.09663083 0.0066435575
0003b0 52 21 b0 bc 88 73 d3 bd 9d f8 88 3c 33 2a aa bd
       -0.021500263 -0.1032477 0.01672011 -0.0830883
0003c0 3c 7a b5 bd d5 d7 07 3e dc b3 60 3d e1 7c 59 bb
       -0.08861205 0.13265927 0.054859027 -0.0033186006
0003d0 21 2f c2 3d 49 6a 86 3c 1c 0f 57 3c c7 10 16 3e
       0.094816454 0.016408103 0.013126161 0.14654838
0003e0 9b 9c 9c 3c b8 b0 94 3d 40 0e 8f 3c 73 fe 4f 3d
       0.019117644 0.07260269 0.01746285 0.05077977
0003f0 55 c1 52 3d 3a 20 ef 3d 3a 5e 65 3d 0f 59 9f bd
       0.051453907 0.116760686 0.055998065 -0.077806585
