tensorflow_lite/sign_language_detect_model.tflite (tflite, 790944 bytes, 8 tensors)

sequential/lstm/Read_2/ReadVariableOp f4 [512]
0	0xbc40e744	-0.011773888
1	0xbcf42ead	-0.029807413
2	0x3c49c7d8	0.012315713
3	0x3d066f5b	0.03282104
4	0x3bf2adce	0.007405973
5	0xbceeff2e	-0.029174414
6	0xbc8c2dbc	-0.017111652
7	0x3cb07ee2	0.021544877
8	0x3a9e241c	0.0012065205
9	0x3c2ea7e5	0.010660146
10	0xbca6d54f	-0.020365385
11	0x3c15ebc4	0.009150449
12	0x3d039b43	0.03213049
13	0x3c9e5fe8	0.019332841
14	0xbc7e5cf0	-0.015525088
15	0xbc3d8fbb	-0.011569913
16	0xbcba03e5	-0.022706935
17	0x3bcbf23e	0.006223946
18	0x3c663d86	0.014052754
19	0xbc0c5847	-0.008565969
20	0xba9c7b7d	-0.0011938658
21	0xbaf2294b	-0.0018475441
22	0x3d0ae625	0.03391089
23	0xbc643559	-0.013928735
24	0x3bc80d06	0.006105068
25	0x3c500f9c	0.012699034
26	0xbc687d2b	-0.014189999
27	0x3c9cda16	0.01914696
28	0xbc37756c	-0.011197429
29	0xbc4603c1	-0.012085856
30	0x3bfd5422	0.0077309767
31	0xbb39902a	-0.0028314688
32	0xbc26846e	-0.01016341
33	0x3ca43d66	0.020048808
34	0xbc06d073	-0.008228409
35	0xbc9f2d33	-0.019430732
36	0xbb922146	-0.004459533
37	0xbc7183c7	-0.014740891
38	0xbc1de12b	-0.009636204
39	0xba5f172c	-0.0008510228
40	0xbad9bc74	-0.001661195
41	0xbba20397	-0.0049442756
42	0xbb834c2a	-0.004006882
43	0xbc90bbcd	-0.017667675
44	0x3c08e37c	0.008355018
45	0xbbdce1f5	-0.0067408034
46	0xbb151899	-0.0022750257
47	0xbcb1b6e6	-0.021693658
48	0x3c49c308	0.0123145655
49	0x3c180340	0.009278119
50	0x3bb0604f	0.0053825746
51	0xbb8efa85	-0.0043633603
52	0xb9c4ba6e	-0.00037522934
53	0x3c8a31e4	0.016869493
54	0xbc365833	-0.011129427
55	0xbcd75031	-0.026283355
56	0xbb10af42	-0.0022077118
57	0xbc80cdb3	-0.015723085
58	0xbbc67a35	-0.0060570487
59	0x3c8202d1	0.015870484
60	0x3c5d3b98	0.013502978
61	0xbb83d6ab	-0.004023393
62	0xbc696c18	-0.014246963
63	0x3c11547d	0.008870241
64	0x3c3c84e0	0.011506289
65	0xbc00c7a4	-0.007860098
66	0x3cd6ffd2	0.026245032
67	0x3bace904	0.005276801
68	0x3b8ab58c	0.004233068
69	0xbc2d3e88	-0.010573991
70	0x3bd6dbb5	0.006556953
71	0x3cfbc86b	0.030735215
72	0x3ce07730	0.027400583
73	0xbc20f70e	-0.009824527
74	0x3563e3c0	8.489551e-07
75	0xbc277e05	-0.0102229165
76	0xba827996	-0.0009954448
77	0x3c905a59	0.017621206
78	0xbcac5579	-0.02103685
79	0x3d0d81a5	0.034547467
80	0xbd23253f	-0.039830443
81	0xbcffe14b	-0.031235358
82	0x3b55c4a1	0.003261842
83	0x3bc5d08d	0.006036824
84	0xbcc754ff	-0.024332521
85	0x3ca5456d	0.020174706
86	0xbb448da5	-0.0029991653
87	0xba505ad4	-0.0007948105
88	0x3d0983a7	0.03357282
89	0x3d00edfd	0.031476963
90	0xbb885ac6	-0.0041612117
91	0x3bca0367	0.0061649564
92	0x3cec6873	0.028858399
93	0x3c41dab5	0.011831929
94	0x3d0580e1	0.03259361
95	0xbab330bc	-0.001367114
96	0xbc09d630	-0.008412883
97	0x3d31f084	0.043442264
98	0xbd0c5843	-0.03426386
99	0x3ca7580d	0.020427728
100	0x3c9cc06c	0.019134723
101	0x3cc80c51	0.024419935
102	0x3cba381c	0.022731833
103	0x3b8739a1	0.004126743
104	0xbc2da387	-0.01059807
105	0x3c462265	0.012093161
106	0xbcb522fe	-0.022111412
107	0xbcd04777	-0.025424702
108	0xbbc804d5	-0.0061040916
109	0x3c19c8d8	0.009386264
110	0x3c0444d9	0.008073055
111	0x3c549b4b	0.012976478
112	0xbc8aaa98	-0.016927049
113	0x3b3386fc	0.002739369
114	0x3d0a0a3b	0.033701163
115	0x3c860cea	0.01636358
116	0xbcb95008	-0.02262117
117	0xbc538aa6	-0.012911474
118	0xbc49aac6	-0.012308782
119	0xbac50c5e	-0.0015033593
120	0xbd0d5207	-0.034502055
121	0xbc4d3158	-0.0125239715
122	0x3bf2be3b	0.007407931
123	0xbd41bdd0	-0.04730016
124	0xbc9b1e9d	-0.018935496
125	0xbc2bb644	-0.010480467
126	0xbba71b06	-0.005099657
127	0xbaa6f0f7	-0.0012736608
128	0x3f8589b1	1.0432645
129	0x3f7b89af	0.98256963
130	0x3f83aae6	1.0286529
131	0x3f7ccdd1	0.9875155
132	0x3f7a5d7a	0.97798884
133	0x3f7c63f4	0.98590016
134	0x3f8067f3	1.0031723
135	0x3f800b22	1.0003397
136	0x3f8168d4	1.0110116
137	0x3f7993a2	0.97490895
138	0x3f7e83be	0.9941977
139	0x3f7f758a	0.99788725
140	0x3f80ec17	1.0072049
141	0x3f7d514d	0.9895218
142	0x3f7c6484	0.98590875
143	0x3f84c528	1.0372667
144	0x3f7ff640	0.9998512
145	0x3f76715e	0.96266735
146	0x3f7d7d64	0.99019456
147	0x3f7715c0	0.9651756
148	0x3f827594	1.0192132
149	0x3f8439ef	1.033018
150	0x3f7f4d51	0.9972735
151	0x3f81f644	1.0153279
152	0x3f7ec54c	0.995198
153	0x3f8244ec	1.0177283
154	0x3f804b06	1.0022895
155	0x3f80f1fa	1.0073845
156	0x3f8379df	1.0271567
157	0x3f80754f	1.00358
158	0x3f7a00b4	0.9765732
159	0x3f7c35d5	0.9851964
160	0x3f79fe6b	0.97653836
161	0x3f8204c8	1.0157709
162	0x3f7f486c	0.9971988
163	0x3f808f06	1.0043647
164	0x3f7c37e4	0.9852278
165	0x3f784888	0.96985674
166	0x3f826650	1.0187473
167	0x3f815acd	1.0105835
168	0x3f824753	1.0178016
169	0x3f80096d	1.0002877
170	0x3f7a9022	0.9787618
171	0x3f7d25c0	0.98885727
172	0x3f8104c5	1.007958
173	0x3f80d816	1.0065944
174	0x3f7fb682	0.9988786
175	0x3f81fb7b	1.0154871
176	0x3f85bf64	1.0449033
177	0x3f809306	1.0044868
178	0x3f7be238	0.9839206
179	0x3f8025e1	1.001156
180	0x3f7c422c	0.9853847
181	0x3f7feea0	0.9997349
182	0x3f7a3e4b	0.977513
183	0x3f80d9d8	1.0066481
184	0x3f7b7386	0.9822315
185	0x3f80cf38	1.0063238
186	0x3f7b7d4f	0.9823808
187	0x3f803fd7	1.0019482
188	0x3f7fb4c8	0.99885225
189	0x3f7cf80b	0.98815984
190	0x3f7c63c4	0.9858973
191	0x3f80b3af	1.0054835
192	0x3f80665c	1.0031238
193	0x3f7a18f9	0.97694355
194	0x3f827d26	1.0194442
195	0x3f8158a3	1.0105175
196	0x3f7a4078	0.9775462
197	0x3f81e7f3	1.014891
198	0x3f81da94	1.014483
199	0x3f7e6a05	0.9938052
200	0x3f856eb8	1.0424414
201	0x3f879304	1.0591741
202	0x3f806fdc	1.0034137
203	0x3f80074c	1.0002227
204	0x3f7f3d6e	0.9970311
205	0x3f7ec04d	0.9951218
206	0x3f79c0f8	0.9756007
207	0x3f7fd9cf	0.99941725
208	0x3f7c653e	0.98591983
209	0x3f8548d2	1.0412848
210	0x3f8266ae	1.0187585
211	0x3f81fea8	1.015584
212	0x3f7d0845	0.98840743
213	0x3f7b048e	0.98053825
214	0x3f8321fc	1.0244746
215	0x3f7eaed0	0.9948549
216	0x3f819414	1.0123315
217	0x3f8606f3	1.0470871
218	0x3f7e8172	0.9941627
219	0x3f7f9c63	0.99848
220	0x3f7c1769	0.9847322
221	0x3f80a882	1.0051425
222	0x3f81e614	1.0148339
223	0x3f8011a0	1.0005379
224	0x3f7d7536	0.99006975
225	0x3f8108b7	1.0080785
226	0x3f797907	0.974503
227	0x3f8186b9	1.0119239
228	0x3f79f0e7	0.9763321
229	0x3f84b5fb	1.0368036
230	0x3f825184	1.0181127
231	0x3f848e4a	1.0355923
232	0x3f815268	1.0103273
233	0x3f7dc2e3	0.991255
234	0x3f7d0d47	0.98848385
235	0x3f7f42d0	0.9971132
236	0x3f7faac6	0.99869955
237	0x3f80b069	1.0053836
238	0x3f8228c2	1.0168688
239	0x3f8014e3	1.0006374
240	0x3f8145f6	1.0099475
241	0x3f80b47e	1.0055082
242	0x3f8067c8	1.0031672
243	0x3f8193af	1.0123194
244	0x3f7e4c07	0.9933476
245	0x3f7a2b09	0.97721916
246	0x3f7e3ac0	0.99308395
247	0x3f7d63fd	0.98980695
248	0x3f801d6d	1.000898
249	0x3f809412	1.0045187
250	0x3f83ba87	1.0291299
251	0x3f82b229	1.021062
252	0x3f80acbf	1.0052718
253	0x3f7fdf1b	0.99949807
254	0x3f8341cb	1.0254453
255	0x3f7c5988	0.98574114

sequential/dense/BiasAdd/ReadVariableOp f4 [64]
0	0x3d0ef226	0.0348989
1	0x3d8a8193	0.067629956
2	0x3bcb3a53	0.006202021
3	0x3d53ed0b	0.051739734
4	0xbc8396d5	-0.016063133
5	0x3d242800	0.04007721
6	0x3dce3eaa	0.10070546
7	0x3daa1426	0.08304624
8	0x3dcd0fc1	0.100127704
9	0x3d0b0164	0.033936873
10	0x3c1b2c9f	0.009471088
11	0xbc74185e	-0.014898388
12	0x3d0503f2	0.032474466
13	0x3d29ce0b	0.041456264
14	0x3b24fad9	0.002517393
15	0x3c09321a	0.008373762
16	0x3d8403bc	0.06446025
17	0xbc5952e4	-0.013264392
18	0x3dcc9b56	0.099905655
19	0xbb7ffe99	-0.0039061664
20	0xbbb87696	-0.005629371
21	0x3c326433	0.010888147
22	0x3d12f6d6	0.035879932
23	0x3da21388	0.079138815
24	0x3d9aac03	0.0755234
25	0x3d6844ed	0.056706358
26	0x3d1c7d2b	0.038205307
27	0xbbb751f3	-0.005594486
28	0x3d959e88	0.07305628
29	0x3c2bb316	0.010479709
30	0x3bf4038b	0.0074467114
31	0xbbf8364d	-0.0075748325
32	0x3d762360	0.06009233
33	0x3cd73f54	0.026275314
34	0x3c905da9	0.017622786
35	0x3b9097f3	0.004412645
36	0x3de37c79	0.11107726
37	0x3da8d674	0.08244029
38	0x3d7801f5	0.06054874
39	0xbc0738f2	-0.008253323
40	0xbba3f2c9	-0.0050033075
41	0x39fc201a	0.00048089103
42	0x3d10768e	0.035269313
43	0x3cd83032	0.026390169
44	0xbd685588	-0.056722194
45	0xbb84a8d0	-0.0040484443
46	0x3c84f5ad	0.016230429
47	0x3dd60bd2	0.10451473
48	0x3be17ad8	0.006881099
49	0x3c5233b4	0.01282971
50	0x3ba511de	0.0050375303
51	0x3cb77137	0.022392852
52	0x3d0286c0	0.03186679
53	0x3dc63e19	0.09679813
54	0x3d98348f	0.074319
55	0x3c30e40b	0.010796557
56	0x3d0a79d6	0.033807598
57	0x3d94afd0	0.07260096
58	0x3d661ab5	0.056177814
59	0x3d1e8a38	0.038706034
60	0x3d11475e	0.03546845
61	0x3d5e907b	0.054337006
62	0x3b5e968f	0.0033964252
63	0x3c124461	0.008927436

sequential/dense_1/BiasAdd/ReadVariableOp f4 [10]
0	0xbb83848e	-0.0040136045
1	0xbd2e44cf	-0.04254609
2	0xbd954c2f	-0.072899215
3	0x3c7c39ad	0.01539461
4	0xbd0bfa42	-0.03417421
5	0x3d9e547d	0.077309586
6	0x3d422aa7	0.047403958
7	0x3b74b9bc	0.0037342152
8	0xbcad35a4	-0.021143742
9	0x3bc93f7e	0.006141602

sequential/dense/MatMul f4 [64, 128]
0	0x3ce59d05	0.028028974
1	0xbe2b3b40	-0.16721821
2	0x3e338a4f	0.1753323
3	0x3a8331e9	0.0010009381
4	0xbe170eb9	-0.1475171
5	0x3c6187a1	0.013765247
6	0x3de7094d	0.11281071
7	0x3e64fd7b	0.2236232
8	0xbaaff2fd	-0.0013423857
9	0xbd8298bf	-0.0637679
10	0xbd77893d	-0.060433615
11	0xbe0f3ad0	-0.13987279
12	0x3ded6654	0.11591783
13	0xbe12edd0	-0.14348531
14	0x3e2faa8c	0.17154902
15	0x3d26e63f	0.040746924
16	0xbdabd765	-0.083906926
17	0xbe620f8b	-0.22076242
18	0x3e1156ce	0.1419327
19	0x3e10f213	0.14154844
20	0xbdde4cb0	-0.10854471
21	0xbde5a4a5	-0.11213044
22	0x3ea95c30	0.33078146
23	0x3d3d6edf	0.046248313
24	0x3e733240	0.23749638
25	0x3e0de571	0.13857056
26	0xbdeb2010	-0.11480725
27	0xbd581a77	-0.052759614
28	0x3dc05d45	0.0939279
29	0x3e35efdf	0.17767285
30	0xbdf019cc	-0.1172367
31	0xbe55c288	-0.20874989
32	0x3d9851d6	0.07437484
33	0x3d2b8b92	0.04188115
34	0x3da4f482	0.08054449
35	0xbd9b6ee4	-0.0758951
36	0x3db086c7	0.08619457
37	0x3dfb62a3	0.12274673
38	0xbd8fa390	-0.07013619
39	0x3dde48d2	0.10853733
40	0xbc882d34	-0.016623117
41	0xbe1e80e6	-0.15478858
42	0x3d0cc512	0.03436763
43	0x3e21589f	0.15756463
44	0x3e57391f	0.21017884
45	0x3db5707d	0.08859346
46	0x3dfa3f81	0.12219144
47	0x3e60c76d	0.21951075
48	0xbdb82624	-0.0899165
49	0xbdd1f50b	-0.10251816
50	0x3dc5519c	0.096347064
51	0x3df84954	0.12123361
52	0xbda4c4e0	-0.080453634
53	0x3d6e48fa	0.058175065
54	0x3d99b953	0.07506051
55	0xbe3f41ed	-0.18677492
56	0xbd12053f	-0.035649534
57	0xbcb1ab5c	-0.021688156
58	0xbcf10f1c	-0.02942615
59	0x3e1b960f	0.15193962
60	0x3dfac1ab	0.122439705
61	0xbdd080b0	-0.10180795
62	0xbe23997b	-0.15976517
63	0x3db95dfa	0.09051128
64	0xbd84955b	-0.064738
65	0x3d51cbc1	0.051219705
66	0xbe7e7ba8	-0.24851859
67	0x3e032dcf	0.12810443
68	0xbd1bab31	-0.038005058
69	0xbdf5c766	-0.12000923
70	0xbe2c2fb1	-0.16815068
71	0xbe73d611	-0.23812129
72	0xbc180285	-0.009277944
73	0xbd3b86a1	-0.04578269
74	0x3e73c08a	0.23803917
75	0x3da6d1ce	0.08145486
76	0x3d7238bb	0.059136134
77	0xbdd9e3fc	-0.10639188
78	0xbdaeda81	-0.0853777
79	0xbdbc2f64	-0.091887265
80	0xbe0a1ebf	-0.13488291
81	0xbd52924d	-0.051409055
82	0xbe7518d9	-0.2393526
83	0x3bf0a189	0.0073434752
84	0x3d1443e1	0.036197547
85	0xbd97a12c	-0.07403788
86	0xbe65edac	-0.22453946
87	0xbddab084	-0.10678199
88	0xbd1c3be5	-0.038143057
89	0x3db756e5	0.08952121
90	0x3e21bc77	0.1579455
91	0x3d380ac1	0.04493213
92	0x3da8897a	0.082293466
93	0xbd1c7a09	-0.03820232
94	0x3c2a8080	0.010406613
95	0xbbb71e4d	-0.005588329
96	0x3dac2c92	0.084069386
97	0xbca3570b	-0.019938966
98	0xbde95c74	-0.11394587
99	0x3e5e4725	0.21706827
100	0x3d48fe19	0.04907045
101	0x3d4b57de	0.049644344
102	0xbdab8703	-0.08375361
103	0xbd88f842	-0.066879764
104	0xbd9825dd	-0.07429097
105	0x3d5d7c51	0.054073635
106	0xbdc193be	-0.09452008
107	0x3e1174bd	0.14204688
108	0x3e08ab8f	0.13346694
109	0x3d998038	0.07495159
110	0x3c5502cb	0.013001154
111	0x3da3e850	0.080032945
112	0xbdc42e7f	-0.09579181
113	0xbbedba1a	-0.007254851
114	0x3dfb106c	0.122589916
115	0x3d625b6c	0.055262968
116	0x3cbba4e9	0.022905784
117	0xbdb4aa7a	-0.08821578
118	0x3e139c95	0.144152
119	0x3e268d9b	0.16264956
120	0x3c237992	0.009977715
121	0xbc630c62	-0.013857933
122	0xbd927bef	-0.07152545
123	0x3c3503be	0.0110482555
124	0xbd8429ac	-0.06453261
125	0xbe3220f2	-0.1739538
126	0xbe2a87f1	-0.1665342
127	0x3df497cf	0.11943018
128	0xbe1fe74c	-0.15615577
129	0xbe690699	-0.22756423
130	0xbe0b64cd	-0.13612671
131	0x3e5d9a70	0.21640944
132	0x3deac29c	0.114629
133	0xbe845752	-0.2584787
134	0x3e11a79b	0.14224093
135	0xbd149834	-0.036277965
136	0xbe5cb03c	-0.21551603
137	0x3daf0d12	0.08547415
138	0xbe84d635	-0.25944677
139	0xbd9694d1	-0.07352603
140	0x3dbf6e9f	0.09347271
141	0x3ca62192	0.02027968
142	0x3e1e01b7	0.15430342
143	0xbd439dc6	-0.047757886
144	0x3e1c190f	0.15243934
145	0xbe82329d	-0.2542924
146	0xbc1f5af6	-0.009726277
147	0x3e1979ba	0.14987841
148	0xbc01fa5d	-0.007933226
149	0xbe14635d	-0.14491029
150	0x3cf08dca	0.029364485
151	0x3b7649d8	0.0037580635
152	0x3e0e2946	0.13882932
153	0xbd5eb4dd	-0.054371703
154	0x3d8799f4	0.06621161
155	0xbe31ead9	-0.17374744
156	0xbddecaef	-0.1087855
157	0xbe2fb494	-0.17158729
158	0x3d4f892e	0.050667934
159	0x3cca52f0	0.02469775
160	0x3e28df78	0.16491497
161	0x3e360c46	0.1777812
162	0x3dba564f	0.09098493
163	0x3e7beacb	0.24601285
164	0xbd4d504a	-0.050125398
165	0x3e462d1a	0.19353142
166	0x3e597bdb	0.21238653
167	0xbcb8091a	-0.022465277
168	0xbe10f8a5	-0.1415735
169	0x3e7ab062	0.24481347
170	0x3ceabb69	0.028653817
171	0xbdea99aa	-0.1145509
172	0x3e1d6878	0.15371883
173	0xbe4c3149	-0.19940676
174	0xbdb0b7ad	-0.086287834
175	0xbdb178aa	-0.08665593
176	0xbe23ad42	-0.15984061
177	0x3daf81ef	0.08569705
178	0xbdbe9696	-0.09306066
179	0x3dbdb3e1	0.09262825
180	0xbdbd96d7	-0.09257286
181	0xbe22403b	-0.15844814
182	0x3d7744d9	0.060368393
183	0x3d2a10e9	0.041520033
184	0x3e5f5273	0.21808796
185	0x3ba0aba2	0.0049032727
186	0x3da25a78	0.07927412
187	0xbe11501d	-0.14190717
188	0x3cc89743	0.02448619
189	0xbe2f88cd	-0.17142029
190	0xbd203585	-0.03911354
191	0x3d0efd06	0.03490927
192	0x3cbcc3e7	0.023042632
193	0xbe2effc3	-0.17089753
194	0xbdc114c6	-0.0942779
195	0xbe7372ef	-0.23774312
196	0x3e398429	0.18116821
197	0xbd8f5fc1	-0.070006855
198	0xbe7e9b27	-0.24863873
199	0xbe49d6f0	-0.19710898
200	0xbe294d68	-0.16533434
201	0xbbf69d8a	-0.0075261043
202	0xbd2fc952	-0.042916603
203	0x3e49c072	0.19702318
204	0x3db152bf	0.08658361
205	0xbe5c3cfe	-0.21507642
206	0xbd16291e	-0.036660306
207	0xbc8ea7aa	-0.017413933
208	0x3d9bf5df	0.076152556
209	0xbe3af89a	-0.18258896
210	0xbde73ca7	-0.112908654
211	0x3a90bb1e	0.0011042093
212	0x3e22d956	0.1590322
213	0xbe8e8597	-0.27836296
214	0x3d2d1872	0.04225964
215	0x3d9e0a41	0.077167995
216	0x3e270996	0.1631225
217	0x3df29400	0.11844635
218	0x3d994b3d	0.07485054
219	0xbe020f60	-0.12701178
220	0x3eb5f562	0.35538775
221	0xbd96a362	-0.073553815
222	0x3d0d8db4	0.034558967
223	0x3baedbf2	0.005336278
224	0xbe03ac99	-0.1285881
225	0xbead038d	-0.33791772
226	0xbc71fadf	-0.014769285
227	0x3d4dc3a7	0.050235417
228	0x3e416596	0.18886408
229	0xbdfcef74	-0.123503596
230	0x3bcd926d	0.006273559
231	0x3e3b9cd8	0.1832155
232	0xbe020807	-0.12698375
233	0xbd367a1c	-0.044550046
234	0xbd8eaeb4	-0.06966916
235	0x3e72f12f	0.23724817
236	0x3e2c9c17	0.16856419
237	0xbdb23cdb	-0.087030135
238	0xbd062965	-0.03275432
239	0xbb4fe096	-0.0031719557
240	0x3e902044	0.28149617
241	0x3dfe8088	0.12426859
242	0x3d01db96	0.031703554
243	0xbc7dc572	-0.015488969
244	0xbc1f0305	-0.00970531
245	0xbba7e84e	-0.0051241284
246	0xbdc6f1d3	-0.09714093
247	0x3de0a87a	0.10969634
248	0x3e46135d	0.19343324
249	0x3e498252	0.1967862
250	0xbd7ecf22	-0.062209256
251	0x3e378e4f	0.1792538
252	0x3e25185b	0.16122572
253	0x3d0d7e53	0.0345443
254	0xbd61b650	-0.055105507
255	0x3d91d3f4	0.07120505

sequential/dense_1/MatMul f4 [10, 64]
0	0xbd2c77e4	-0.042106524
1	0x3e918c70	0.28427458
2	0x3ea3aac1	0.31966212
3	0x3e999332	0.29995114
4	0xbe826afd	-0.2547225
5	0x3dd35d1a	0.10320492
6	0xbea13da3	-0.31492338
7	0xbe84c263	-0.25929555
8	0x3e3dca20	0.18534136
9	0xbe8f0c85	-0.2793924
10	0xbdb40939	-0.087908216
11	0x3dfa3e09	0.122188635
12	0xbe9bd956	-0.30439252
13	0xbe93c9d4	-0.2886492
14	0x3e481018	0.1953739
15	0xbe4b0b6a	-0.19828573
16	0x3ea8c196	0.32960194
17	0xbe5a559a	-0.21321717
18	0xbd4a87ee	-0.04944604
19	0xbc3b157e	-0.011418698
20	0x3e1eba9c	0.15500873
21	0xbea392fa	-0.31948072
22	0xbe0b2436	-0.13588032
23	0xbecbb5a4	-0.39787018
24	0x3d37e6cf	0.04489785
25	0xbeae243b	-0.34012017
26	0xbea33de2	-0.3188315
27	0xbd6613cf	-0.056171235
28	0xbb6b41a0	-0.003589727
29	0xbe99e2bc	-0.30055797
30	0xbe364ac4	-0.17801958
31	0xbec53c76	-0.3852269
32	0xbe8a37bc	-0.26995647
33	0xbe3389f6	-0.17533097
34	0xbe75482b	-0.23953311
35	0xbe82ba44	-0.25532734
36	0x3e077fbb	0.13232319
37	0xbd908205	-0.07056049
38	0xbe5e6224	-0.21717125
39	0x3eabe78d	0.33575097
40	0xbeb50bae	-0.35360473
41	0xbe669ecb	-0.22521512
42	0x3e86bd59	0.26316336
43	0x3ddbd4ce	0.10733949
44	0x3e801507	0.25016043
45	0xbe95271b	-0.29131398
46	0x3e4ed66a	0.2019898
47	0xbe838fa9	-0.25695542
48	0xbd835852	-0.0641333
49	0xbe607601	-0.21920015
50	0x3e0a8eb4	0.13531
51	0x3c9ccb11	0.019139798
52	0xbe4a1a9f	-0.19736718
53	0x3e659437	0.2241982
54	0xba079db4	-0.0005173341
55	0x3cf0e829	0.029407578
56	0xbd3ffb89	-0.046870742
57	0x3e25adcf	0.16179584
58	0x3e19b4ad	0.15010329
59	0x3e97c7dc	0.29644668
60	0x3ea12a21	0.31477454
61	0x3e626712	0.2210963
62	0x3dedca75	0.11610881
63	0xbde4b976	-0.11168186
64	0xbe8b68a9	-0.27228287
65	0xbe5ebe96	-0.2175239
66	0x3d801904	0.06254771
67	0xbe0ca952	-0.13736466
68	0x3e91e645	0.28495994
69	0x3df97766	0.121809766
70	0x3e7b465b	0.24538557
71	0xbeda9dea	-0.42698604
72	0x3e19edea	0.15032163
73	0xbe7f6c84	-0.24943739
74	0x3e524d0e	0.20537207
75	0x3eb9a4b9	0.36258486
76	0x3d87fe81	0.0664034
77	0xbea2e0d3	-0.31812152
78	0xbe8d5c25	-0.27609363
79	0x3e870afb	0.26375565
80	0x3e89f1db	0.26942334
81	0xbe09ff74	-0.13476354
82	0x3e919449	0.28433445
83	0x3e85a9d1	0.26106122
84	0xbe41ad33	-0.18913727
85	0x3e377cdb	0.17918722
86	0x3e3fad98	0.18718565
87	0xbea90c62	-0.3301726
88	0xbe2dc0aa	-0.16968027
89	0xbccc5e62	-0.024947349
90	0x3d7677bf	0.060172793
91	0xbdb1e1c2	-0.08685638
92	0x3e259c1e	0.16172835
93	0xbe409f9f	-0.1881089
94	0xbea45dcd	-0.32102814
95	0xbea2f79f	-0.31829545
96	0xbe615400	-0.220047
97	0x3e04e124	0.1297651
98	0x3e7461db	0.23865454
99	0x3e38bfcb	0.18041913
100	0x3e7da16d	0.2476861
101	0xbe8837bd	-0.26605025
102	0x3cfa77cd	0.030574704
103	0xbe082f6b	-0.13299339
104	0x3e799fe6	0.24377403
105	0x3c8dea33	0.017323589
106	0x3e92f755	0.28704324
107	0xbe7c1b8c	-0.24619883
108	0xbea76f4a	-0.32702094
109	0x3e29513f	0.16534899
110	0xbe1516a8	-0.14559424
111	0xbe156551	-0.1458943
112	0x3e5dc5eb	0.21657531
113	0xbef07ad0	-0.46968699
114	0xbe507db3	-0.2036045
115	0x3dd5c9d6	0.10438888
116	0xbd333b5e	-0.04375779
117	0x3e766a1f	0.2406392
118	0x3d8488e6	0.06471424
119	0xbe7d3283	-0.247263
120	0xbe3ccb22	-0.18436864
121	0x3db01201	0.08597184
122	0xbe7a44d5	-0.2444032
123	0xbea20f49	-0.31652287
124	0xbe90d4fe	-0.282875
125	0x3cff862e	0.031191912
126	0x3e139b81	0.14414789
127	0x3d6ed341	0.058306936
128	0xbea6677c	-0.32500827
129	0x3e67495e	0.22586581
130	0xbe7bb96e	-0.24582455
131	0x3e9f0c39	0.31064013
132	0xbe9fe705	-0.3123094
133	0x3b35c497	0.0027735585
134	0x3e4a8e71	0.197809
135	0x3e9bcd6a	0.30430156
136	0x3d3eb82c	0.04656236
137	0x3ea18dbe	0.31553453
138	0xbe407b91	-0.18797137
139	0xbd1c6387	-0.038180854
140	0x3e28dbdc	0.1649012
141	0xbe4349a6	-0.19071063
142	0x3e452d1d	0.1925549
143	0xbe013eb9	-0.12621583
144	0x3e8a7265	0.270404
145	0xbea8bc17	-0.32956
146	0xbedbc19e	-0.42921156
147	0xbed5327d	-0.41640082
148	0x3e6731d1	0.22577597
149	0xbeb5956f	-0.3546557
150	0xbeece9b6	-0.46272057
151	0x3e493c18	0.1965183
152	0xbef11d16	-0.47092503
153	0x3e6e8d16	0.23296008
154	0x3ec9e955	0.3943583
155	0xbeb31e3e	-0.3498401
156	0xbeb01e54	-0.3439814
157	0xbe424b4a	-0.18974033
158	0x3d1dc405	0.038517017
159	0xbe57717a	-0.21039382
160	0x3e918060	0.28418255
161	0x3bee11da	0.0072653117
162	0xbeab05df	-0.33402917
163	0x3e3619da	0.17783299
164	0x3d282a53	0.04105599
165	0x3d938d9d	0.07204745
166	0xbe8926d1	-0.26787427
167	0xbe6f6469	-0.23378147
168	0xbec36e1f	-0.38169953
169	0xbd138dad	-0.036023784
170	0xbe2342c4	-0.15943438
171	0xbeb81bc2	-0.35958678
172	0x3eaec098	0.34131312
173	0xbe4559ca	-0.19272533
174	0x3dac66de	0.08418058
175	0xbea536a6	-0.32268256
176	0x3d6a8746	0.057257913
177	0xbc16b2e1	-0.0091979215
178	0xbe621ef8	-0.22082126
179	0xbe7b5dc3	-0.24547486
180	0xbdc7999a	-0.09746094
181	0x3d6d4dfd	0.057935704
182	0x3e31caf2	0.17362574
183	0x3d74949f	0.05971205
184	0xbeca171f	-0.39470765
185	0xbea95afc	-0.33077228
186	0x3da421ec	0.080142826
187	0x3e1d50cf	0.15362857
188	0xbe94f88e	-0.29095882
189	0x3cdc9bfa	0.026929844
190	0xbdba6ecd	-0.09103165
191	0x3e6f54ba	0.23372164
192	0xbe84c93b	-0.25934777
193	0xbe87d2f3	-0.2652813
194	0x3d8cefc4	0.06881669
195	0x3ca91efd	0.02064466
196	0xbd9a777e	-0.075423226
197	0xbe696c4c	-0.22795218
198	0x3b62ea3f	0.0034624485
199	0xbea430a5	-0.32068363
200	0xbe88aad2	-0.26692826
201	0xbdf078d5	-0.11741797
202	0xbebf0350	-0.37307215
203	0xbe23aae1	-0.15983154
204	0xbdde38b5	-0.1085066
205	0x3d94f679	0.072735734
206	0xbed12705	-0.40850082
207	0xbeb112cf	-0.34584662
208	0xbe91ee88	-0.28502297
209	0xbe6f24ac	-0.23353833
210	0x3e7b7d8a	0.24559608
211	0x3e0a89df	0.13529156
212	0xbe967dc9	-0.2939284
213	0xbd768d13	-0.060193133
214	0x3e8663bd	0.2624797
215	0x3e5b5829	0.21420349
216	0x3ccab35c	0.024743728
217	0x3e970ce5	0.29502025
218	0xbe0472b4	-0.12934381
219	0x3e95f5f5	0.29289213
220	0xbeb732a2	-0.35780817
221	0x3ea3118b	0.31849322
222	0xbe7041a2	-0.23462537
223	0xbe0c465b	-0.13698713
224	0x3e9cec67	0.3064911
225	0x3e0ef4dc	0.13960594
226	0xbe495c6e	-0.19664165
227	0xbed35706	-0.4127733
228	0xbe5a3b64	-0.21311718
229	0x3e37a8bd	0.17935462
230	0xbe8f0c5c	-0.27939117
231	0x3df183ff	0.117927544
232	0xbe9788e5	-0.2959663
233	0x3e0fc4b0	0.14039874
234	0xbea97398	-0.33096004
235	0x3e70f633	0.23531418
236	0xbe540a0b	-0.20706956
237	0xbea02c06	-0.31283587
238	0xbe110f75	-0.14166053
239	0x3e176ac1	0.14786817
240	0xbe8ab268	-0.27089238
241	0x3daa8baf	0.08327424
242	0x3e7964a0	0.24354792
243	0xbd53cbfd	-0.05170821
244	0x3d4889b1	0.048959438
245	0x3ea82341	0.32839397
246	0xbd485f76	-0.048919164
247	0x3b1db783	0.002406568
248	0xbdd76616	-0.10517518
249	0x3d62df37	0.055388656
250	0xbd30abaa	-0.04313246
251	0x3e7e263c	0.24819273
252	0xbe01e5a4	-0.12685257
253	0xbe953312	-0.29140526
254	0x3d0ed4d3	0.034870934
255	0x3ea93024	0.3304454

sequential/lstm/Read_2/ReadVariableOp1 f4 [512]
0	0xbc40e744	-0.011773888
1	0xbcf42ead	-0.029807413
2	0x3c49c7d8	0.012315713
3	0x3d066f5b	0.03282104
4	0x3bf2adce	0.007405973
5	0xbceeff2e	-0.029174414
6	0xbc8c2dbc	-0.017111652
7	0x3cb07ee2	0.021544877
8	0x3a9e241c	0.0012065205
9	0x3c2ea7e5	0.010660146
10	0xbca6d54f	-0.020365385
11	0x3c15ebc4	0.009150449
12	0x3d039b43	0.03213049
13	0x3c9e5fe8	0.019332841
14	0xbc7e5cf0	-0.015525088
15	0xbc3d8fbb	-0.011569913
16	0xbcba03e5	-0.022706935
17	0x3bcbf23e	0.006223946
18	0x3c663d86	0.014052754
19	0xbc0c5847	-0.008565969
20	0xba9c7b7d	-0.0011938658
21	0xbaf2294b	-0.0018475441
22	0x3d0ae625	0.03391089
23	0xbc643559	-0.013928735
24	0x3bc80d06	0.006105068
25	0x3c500f9c	0.012699034
26	0xbc687d2b	-0.014189999
27	0x3c9cda16	0.01914696
28	0xbc37756c	-0.011197429
29	0xbc4603c1	-0.012085856
30	0x3bfd5422	0.0077309767
31	0xbb39902a	-0.0028314688
32	0xbc26846e	-0.01016341
33	0x3ca43d66	0.020048808
34	0xbc06d073	-0.008228409
35	0xbc9f2d33	-0.019430732
36	0xbb922146	-0.004459533
37	0xbc7183c7	-0.014740891
38	0xbc1de12b	-0.009636204
39	0xba5f172c	-0.0008510228
40	0xbad9bc74	-0.001661195
41	0xbba20397	-0.0049442756
42	0xbb834c2a	-0.004006882
43	0xbc90bbcd	-0.017667675
44	0x3c08e37c	0.008355018
45	0xbbdce1f5	-0.0067408034
46	0xbb151899	-0.0022750257
47	0xbcb1b6e6	-0.021693658
48	0x3c49c308	0.0123145655
49	0x3c180340	0.009278119
50	0x3bb0604f	0.0053825746
51	0xbb8efa85	-0.0043633603
52	0xb9c4ba6e	-0.00037522934
53	0x3c8a31e4	0.016869493
54	0xbc365833	-0.011129427
55	0xbcd75031	-0.026283355
56	0xbb10af42	-0.0022077118
57	0xbc80cdb3	-0.015723085
58	0xbbc67a35	-0.0060570487
59	0x3c8202d1	0.015870484
60	0x3c5d3b98	0.013502978
61	0xbb83d6ab	-0.004023393
62	0xbc696c18	-0.014246963
63	0x3c11547d	0.008870241
64	0x3c3c84e0	0.011506289
65	0xbc00c7a4	-0.007860098
66	0x3cd6ffd2	0.026245032
67	0x3bace904	0.005276801
68	0x3b8ab58c	0.004233068
69	0xbc2d3e88	-0.010573991
70	0x3bd6dbb5	0.006556953
71	0x3cfbc86b	0.030735215
72	0x3ce07730	0.027400583
73	0xbc20f70e	-0.009824527
74	0x3563e3c0	8.489551e-07
75	0xbc277e05	-0.0102229165
76	0xba827996	-0.0009954448
77	0x3c905a59	0.017621206
78	0xbcac5579	-0.02103685
79	0x3d0d81a5	0.034547467
80	0xbd23253f	-0.039830443
81	0xbcffe14b	-0.031235358
82	0x3b55c4a1	0.003261842
83	0x3bc5d08d	0.006036824
84	0xbcc754ff	-0.024332521
85	0x3ca5456d	0.020174706
86	0xbb448da5	-0.0029991653
87	0xba505ad4	-0.0007948105
88	0x3d0983a7	0.03357282
89	0x3d00edfd	0.031476963
90	0xbb885ac6	-0.0041612117
91	0x3bca0367	0.0061649564
92	0x3cec6873	0.028858399
93	0x3c41dab5	0.011831929
94	0x3d0580e1	0.03259361
95	0xbab330bc	-0.001367114
96	0xbc09d630	-0.008412883
97	0x3d31f084	0.043442264
98	0xbd0c5843	-0.03426386
99	0x3ca7580d	0.020427728
100	0x3c9cc06c	0.019134723
101	0x3cc80c51	0.024419935
102	0x3cba381c	0.022731833
103	0x3b8739a1	0.004126743
104	0xbc2da387	-0.01059807
105	0x3c462265	0.012093161
106	0xbcb522fe	-0.022111412
107	0xbcd04777	-0.025424702
108	0xbbc804d5	-0.0061040916
109	0x3c19c8d8	0.009386264
110	0x3c0444d9	0.008073055
111	0x3c549b4b	0.012976478
112	0xbc8aaa98	-0.016927049
113	0x3b3386fc	0.002739369
114	0x3d0a0a3b	0.033701163
115	0x3c860cea	0.01636358
116	0xbcb95008	-0.02262117
117	0xbc538aa6	-0.012911474
118	0xbc49aac6	-0.012308782
119	0xbac50c5e	-0.0015033593
120	0xbd0d5207	-0.034502055
121	0xbc4d3158	-0.0125239715
122	0x3bf2be3b	0.007407931
123	0xbd41bdd0	-0.04730016
124	0xbc9b1e9d	-0.018935496
125	0xbc2bb644	-0.010480467
126	0xbba71b06	-0.005099657
127	0xbaa6f0f7	-0.0012736608
128	0x3f8589b1	1.0432645
129	0x3f7b89af	0.98256963
130	0x3f83aae6	1.0286529
131	0x3f7ccdd1	0.9875155
132	0x3f7a5d7a	0.97798884
133	0x3f7c63f4	0.98590016
134	0x3f8067f3	1.0031723
135	0x3f800b22	1.0003397
136	0x3f8168d4	1.0110116
137	0x3f7993a2	0.97490895
138	0x3f7e83be	0.9941977
139	0x3f7f758a	0.99788725
140	0x3f80ec17	1.0072049
141	0x3f7d514d	0.9895218
142	0x3f7c6484	0.98590875
143	0x3f84c528	1.0372667
144	0x3f7ff640	0.9998512
145	0x3f76715e	0.96266735
146	0x3f7d7d64	0.99019456
147	0x3f7715c0	0.9651756
148	0x3f827594	1.0192132
149	0x3f8439ef	1.033018
150	0x3f7f4d51	0.9972735
151	0x3f81f644	1.0153279
152	0x3f7ec54c	0.995198
153	0x3f8244ec	1.0177283
154	0x3f804b06	1.0022895
155	0x3f80f1fa	1.0073845
156	0x3f8379df	1.0271567
157	0x3f80754f	1.00358
158	0x3f7a00b4	0.9765732
159	0x3f7c35d5	0.9851964
160	0x3f79fe6b	0.97653836
161	0x3f8204c8	1.0157709
162	0x3f7f486c	0.9971988
163	0x3f808f06	1.0043647
164	0x3f7c37e4	0.9852278
165	0x3f784888	0.96985674
166	0x3f826650	1.0187473
167	0x3f815acd	1.0105835
168	0x3f824753	1.0178016
169	0x3f80096d	1.0002877
170	0x3f7a9022	0.9787618
171	0x3f7d25c0	0.98885727
172	0x3f8104c5	1.007958
173	0x3f80d816	1.0065944
174	0x3f7fb682	0.9988786
175	0x3f81fb7b	1.0154871
176	0x3f85bf64	1.0449033
177	0x3f809306	1.0044868
178	0x3f7be238	0.9839206
179	0x3f8025e1	1.001156
180	0x3f7c422c	0.9853847
181	0x3f7feea0	0.9997349
182	0x3f7a3e4b	0.977513
183	0x3f80d9d8	1.0066481
184	0x3f7b7386	0.9822315
185	0x3f80cf38	1.0063238
186	0x3f7b7d4f	0.9823808
187	0x3f803fd7	1.0019482
188	0x3f7fb4c8	0.99885225
189	0x3f7cf80b	0.98815984
190	0x3f7c63c4	0.9858973
191	0x3f80b3af	1.0054835
192	0x3f80665c	1.0031238
193	0x3f7a18f9	0.97694355
194	0x3f827d26	1.0194442
195	0x3f8158a3	1.0105175
196	0x3f7a4078	0.9775462
197	0x3f81e7f3	1.014891
198	0x3f81da94	1.014483
199	0x3f7e6a05	0.9938052
200	0x3f856eb8	1.0424414
201	0x3f879304	1.0591741
202	0x3f806fdc	1.0034137
203	0x3f80074c	1.0002227
204	0x3f7f3d6e	0.9970311
205	0x3f7ec04d	0.9951218
206	0x3f79c0f8	0.9756007
207	0x3f7fd9cf	0.99941725
208	0x3f7c653e	0.98591983
209	0x3f8548d2	1.0412848
210	0x3f8266ae	1.0187585
211	0x3f81fea8	1.015584
212	0x3f7d0845	0.98840743
213	0x3f7b048e	0.98053825
214	0x3f8321fc	1.0244746
215	0x3f7eaed0	0.9948549
216	0x3f819414	1.0123315
217	0x3f8606f3	1.0470871
218	0x3f7e8172	0.9941627
219	0x3f7f9c63	0.99848
220	0x3f7c1769	0.9847322
221	0x3f80a882	1.0051425
222	0x3f81e614	1.0148339
223	0x3f8011a0	1.0005379
224	0x3f7d7536	0.99006975
225	0x3f8108b7	1.0080785
226	0x3f797907	0.974503
227	0x3f8186b9	1.0119239
228	0x3f79f0e7	0.9763321
229	0x3f84b5fb	1.0368036
230	0x3f825184	1.0181127
231	0x3f848e4a	1.0355923
232	0x3f815268	1.0103273
233	0x3f7dc2e3	0.991255
234	0x3f7d0d47	0.98848385
235	0x3f7f42d0	0.9971132
236	0x3f7faac6	0.99869955
237	0x3f80b069	1.0053836
238	0x3f8228c2	1.0168688
239	0x3f8014e3	1.0006374
240	0x3f8145f6	1.0099475
241	0x3f80b47e	1.0055082
242	0x3f8067c8	1.0031672
243	0x3f8193af	1.0123194
244	0x3f7e4c07	0.9933476
245	0x3f7a2b09	0.97721916
246	0x3f7e3ac0	0.99308395
247	0x3f7d63fd	0.98980695
248	0x3f801d6d	1.000898
249	0x3f809412	1.0045187
250	0x3f83ba87	1.0291299
251	0x3f82b229	1.021062
252	0x3f80acbf	1.0052718
253	0x3f7fdf1b	0.99949807
254	0x3f8341cb	1.0254453
255	0x3f7c5988	0.98574114

while/MatMul_11 f4 [512, 128]
0	0x3ca3c2b3	0.0199903
1	0x3e1d7e55	0.15380223
2	0xbd76a5b3	-0.060216617
3	0x3d3afd29	0.04565159
4	0x3d0fa48c	0.035069034
5	0x3e1712ef	0.14753316
6	0xbe368005	-0.17822273
7	0x3d84349b	0.06455346
8	0x373f66d8	1.1408432e-05
9	0xbdfe817d	-0.12427042
10	0x3d0784e7	0.03308573
11	0x3ccf5ff1	0.025314303
12	0x3c5b920c	0.0134015195
13	0xbe48bb61	-0.1960273
14	0x3e1993b6	0.14997754
15	0xbdce7f9e	-0.10082935
16	0x3d93efd2	0.072234765
17	0x3d84ac13	0.06478133
18	0xbd1ea7a0	-0.03873408
19	0xbe0eabbf	-0.13932703
20	0xbe69ff8a	-0.22851387
21	0x3dfa81ac	0.12231764
22	0xbd5da712	-0.05411441
23	0xbe184673	-0.14870624
24	0xbc4627f0	-0.012094483
25	0xbd516ac9	-0.05112723
26	0x3da0d6e5	0.07853488
27	0xbca1078b	-0.019656917
28	0x3dc054a7	0.09391146
29	0xbd0c27f7	-0.0342178
30	0x3db54355	0.08850733
31	0x3ce0b2e0	0.027429044
32	0x3d5e2349	0.05423287
33	0x3d48de51	0.049040142
34	0xbde22fae	-0.110442504
35	0xbe3b9a0f	-0.18320487
36	0x3d19e0d4	0.03756793
37	0xbc9e08db	-0.019291332
38	0xbe12beb6	-0.14330563
39	0x3c6929b2	0.014231132
40	0xbdb725f0	-0.08942783
41	0xbc856f2f	-0.016288368
42	0xbd83c18f	-0.06433403
43	0xbdc7ac6a	-0.09749682
44	0xbda531fe	-0.08066176
45	0x3cbfa046	0.023391854
46	0x3dd11125	0.10208348
47	0xbbefb389	-0.0073151034
48	0x3e0f2054	0.13977176
49	0x3dfc32fc	0.12314412
50	0x3dd6599f	0.104663126
51	0xbd4dcb58	-0.05024275
52	0x3d2f3073	0.042770814
53	0xbd042cc2	-0.032269247
54	0x3e004207	0.12525187
55	0x3cf8e606	0.030383121
56	0x3e1d4dac	0.1536166
57	0x3b5247c3	0.003208623
58	0xbcc45f4d	-0.023971224
59	0xbce1c300	-0.027558804
60	0x3cc6710a	0.024223823
61	0x3e0abb57	0.13548027
62	0xbe00966a	-0.12557378
63	0x3c35e881	0.0111027965
64	0x3d35e6e5	0.04440965
65	0xbd7d3676	-0.061819516
66	0x3d986319	0.074407764
67	0x3d64728b	0.0557733
68	0x3cb8ad7e	0.022543665
69	0xbcdc240f	-0.026872663
70	0x3dd4f26c	0.10397801
71	0x3e1f0f8b	0.15533273
72	0xbcfa95cc	-0.030589007
73	0xbd41d5b9	-0.047322962
74	0xbe5e39a5	-0.21701677
75	0xbc91c2cf	-0.017793087
76	0x3c1085d6	0.0088209715
77	0x3cc234fa	0.023706902
78	0xbda584f6	-0.08082001
79	0x3d1d221d	0.03836261
80	0x3e110ad7	0.14164291
81	0xbcb44812	-0.022007022
82	0x3dee218b	0.116274916
83	0x3d8b34e0	0.067971945
84	0xbd02d893	-0.031944823
85	0xbd10db0c	-0.03536515
86	0x3d950a36	0.07277338
87	0xba9c8e86	-0.0011944331
88	0xbe09f2a4	-0.13471466
89	0x3dd264ef	0.10273158
90	0xbc26b07f	-0.010173916
91	0x3d53378a	0.051566638
92	0xbe20bf58	-0.15697992
93	0x3c5fc62c	0.013658088
94	0xbbcd7e3f	-0.006271153
95	0x3de4c067	0.1116951
96	0xbc130a09	-0.008974561
97	0x3dee74e9	0.116433926
98	0xbc1c158d	-0.0095266225
99	0xbe21c55a	-0.1579794
100	0xbe0d43bf	-0.13795374
101	0xbcd6fec8	-0.026244536
102	0xbd321ba7	-0.043483403
103	0xbdd1bb7f	-0.1024084
104	0x3daf0953	0.085467
105	0xbcbd754c	-0.02312722
106	0x3d98baf0	0.074575305
107	0xbe1a815a	-0.15088406
108	0xbd89a3c5	-0.0672069
109	0x3c319b67	0.010840273
110	0xbdd813f4	-0.10550681
111	0x3d469c68	0.048489004
112	0xbc87aa51	-0.016560705
113	0x3e5e253d	0.21693893
114	0xbd6f4eb6	-0.058424674
115	0x3d0d48b2	0.034493156
116	0x3d93e04f	0.07220518
117	0xbdc302d7	-0.09522026
118	0x3db7615e	0.08954118
119	0x3b7a3ebd	0.0038184368
120	0xbcb85017	-0.022499127
121	0xbcf2402a	-0.029571611
122	0xbe4a5e7e	-0.19762608
123	0xbdd8b14f	-0.10580694
124	0xbe2bd48e	-0.16780302
125	0xbdffe383	-0.12494566
126	0xbdf5f3a9	-0.12009365
127	0xbc9f1b73	-0.019422268
128	0xbc9730a2	-0.018455807
129	0xbc5181de	-0.01278731
130	0x3c91665e	0.017749008
131	0x3ddb29f6	0.10701363
132	0xbda904ef	-0.08252894
133	0xbcf48434	-0.029848196
134	0x3c723dce	0.014785243
135	0xbcfb48d7	-0.030674381
136	0xbdcf1388	-0.10111147
137	0x3daa3783	0.08311369
138	0x3d03c71c	0.032172307
139	0xbc767a0c	-0.015043747
140	0xbe066468	-0.1312424
141	0xbdefa53d	-0.117014386
142	0x3d4aec0b	0.049541514
143	0x3d51ba7f	0.051203247
144	0x3e408710	0.18801522
145	0xbcc77865	-0.0243494
146	0xbdee61b1	-0.11639727
147	0xbca2eacd	-0.019887352
148	0x3c80d703	0.015727526
149	0x3dda122e	0.10647999
150	0x3d788162	0.060670264
151	0x3d668ddc	0.05628763
152	0xbcfbb8cb	-0.030727765
153	0x3de59525	0.11210088
154	0x3b283410	0.0025665797
155	0xbe0653d5	-0.13117917
156	0x3be32309	0.0069316668
157	0xbe00f554	-0.12593585
158	0xbd349e4d	-0.04409628
159	0xbe131e82	-0.14367107
160	0x3dc17d19	0.094476886
161	0x3d3d46f3	0.04621024
162	0x3dd9a77d	0.10627649
163	0x3dde05d6	0.10840957
164	0x3db3e8ea	0.08784659
165	0x3dae7739	0.08518834
166	0x3dd74730	0.10511625
167	0xbd8caa79	-0.068684526
168	0x3c34e66d	0.011041266
169	0xbc393fe7	-0.011306739
170	0x3e517964	0.20456463
171	0x3d361f8e	0.044463687
172	0xbc13d29b	-0.00902238
173	0x3c0f173c	0.008733567
174	0x3dadde5d	0.08489678
175	0xbe0f791c	-0.14011043
176	0xbde04285	-0.109501876
177	0xbdc9d0cb	-0.09854277
178	0xbc848d84	-0.016180761
179	0x3c6873b7	0.014187745
180	0xbd240d12	-0.040051527
181	0xbbc8f5b6	-0.0061328067
182	0x3e53dba7	0.2068926
183	0x3e4060d4	0.18786937
184	0x3cf9eedb	0.030509403
185	0xbdde7884	-0.1086283
186	0xbe14b7de	-0.14523265
187	0xbe26ee2b	-0.16301791
188	0xbb8e4812	-0.0043420875
189	0xbd00b8b7	-0.031426158
190	0xbd8745b5	-0.066050924
191	0x3c2c03e5	0.010498975
192	0x3d81e8a2	0.06343199
193	0xbcd9365b	-0.026515177
194	0x3e21ec22	0.15812734
195	0xbd1e2e1e	-0.0386182
196	0xbb2df0bf	-0.00265412
197	0x3d06a915	0.032876093
198	0xbd676ae7	-0.056498434
199	0xbc56a6c6	-0.013101285
200	0x3dda8afd	0.10671041
201	0xba195435	-0.00058490346
202	0xbcb00b09	-0.021489637
203	0xbc91af20	-0.017783701
204	0x3d8b4fb0	0.068023086
205	0xbce0e810	-0.027454406
206	0xbc3d03f5	-0.011536588
207	0x3d84237b	0.0645208
208	0xbbe897bd	-0.0070981667
209	0xbceef730	-0.029170603
210	0x3d726bbd	0.05918478
211	0xbe478b2b	-0.19486682
212	0x3b76962d	0.0037626133
213	0x3bc607fb	0.006043432
214	0xbe28bf7a	-0.16479293
215	0xbca83c8d	-0.020536685
216	0xbccac2c1	-0.024751069
217	0x3a86ab84	0.0010274504
218	0x3e842c63	0.25815114
219	0x3dd0024c	0.10156688
220	0xbd512450	-0.05106002
221	0x3c1eb10a	0.009685764
222	0xbe18f28f	-0.14936279
223	0x3d861247	0.06546455
224	0x3d2ae411	0.041721407
225	0x3d9ff472	0.07810296
226	0x3df18963	0.117937826
227	0xbd4a85f5	-0.049444158
228	0xbbbb607a	-0.005718288
229	0x3d96b507	0.07358747
230	0x3d616ce7	0.055035498
231	0xbd318b27	-0.043345597
232	0x3da5a851	0.080887444
233	0x3e1cc95e	0.1531119
234	0xbd35a037	-0.044342246
235	0xbdb54b23	-0.08852222
236	0x3e7a37e9	0.2443539
237	0xbcbfc2f9	-0.0234084
238	0xbc88ca88	-0.016698137
239	0x3d5c7702	0.053824432
240	0xbe452737	-0.1925324
241	0x3c78cafa	0.015185112
242	0xbc9fd54b	-0.019510886
243	0x3d88c889	0.06678874
244	0x3bdf43a3	0.006813483
245	0x3d292616	0.041296087
246	0x3df9180d	0.121627904
247	0xbcf3263e	-0.029681321
248	0x3d787656	0.06065973
249	0x3decaeab	0.11556753
250	0xbd90b263	-0.070652746
251	0xbc9295e2	-0.017893735
252	0xbdf037f9	-0.11729426
253	0xbd721b89	-0.05910829
254	0x3bd1df5f	0.0064048017
255	0xbc69e7bb	-0.01427644

while/MatMul f4 [512, 234]
0	0xbd8cefc1	-0.06881667
1	0x3d20a029	0.03921524
2	0x3d072ea4	0.033003464
3	0x3d1ee3a3	0.03879131
4	0xbd3c11f1	-0.045915548
5	0xbc94934a	-0.01813664
6	0xbc307003	-0.010768893
7	0xbd0be578	-0.034154385
8	0xbd7ffc94	-0.062496737
9	0xbcc73a4a	-0.024319787
10	0x3b1db255	0.0024062593
11	0xbd3b4c17	-0.04572686
12	0x38d7f1df	0.00010297051
13	0x3cffa802	0.031208042
14	0xbcd18f9c	-0.025581174
15	0x3c8094c2	0.015695933
16	0xbd325e8a	-0.04354719
17	0xbd7b762f	-0.061392006
18	0x3d944a10	0.07240689
19	0x3d2a2952	0.041543312
20	0x3d7e8063	0.062134158
21	0x3d0530d5	0.032517273
22	0x3cbabbcd	0.022794629
23	0x3d8fb704	0.07017329
24	0x3db04eb2	0.0860876
25	0xbcaeecd2	-0.02135316
26	0xbd0c1ac5	-0.034205217
27	0x3afdb377	0.0019355853
28	0x3d921009	0.07131965
29	0x3c9aaff5	0.018882731
30	0xbb8bf963	-0.0042716726
31	0x3db985df	0.09058737
32	0xbd9d2e7d	-0.076748826
33	0xbd1ae82b	-0.03781907
34	0x3d8930f9	0.06698794
35	0xbd22a3ce	-0.039706998
36	0xbc965937	-0.018353088
37	0x3d42d82d	0.047569443
38	0xbd8df054	-0.069306046
39	0x3d4490a8	0.047989517
40	0xbd1f468e	-0.038885646
41	0xbd5ff8fc	-0.05468081
42	0xbaa16104	-0.0012312238
43	0xbc6afe02	-0.014342787
44	0xbdad2b36	-0.084555075
45	0x3cdccc73	0.026952958
46	0x3dba5ad8	0.09099358
47	0x3b9a8ff6	0.0047168685
48	0xbd91ab44	-0.071127445
49	0xbd1a46fb	-0.03766535
50	0x3d96d83c	0.07365462
51	0xbd69b2f3	-0.057055425
52	0x3ddf5b46	0.10906081
53	0xbc8465b9	-0.016161786
54	0xbd1bfc3a	-0.03808234
55	0x3caf1fca	0.021377463
56	0x3d5c914e	0.05384951
57	0x3cbd2cb1	0.0230926
58	0x3daa4660	0.08314204
59	0x3d202935	0.039101798
60	0xbdaf0c19	-0.08547229
61	0x3c28ba6c	0.010298353
62	0x3db0b226	0.08627729
63	0xbd40fa4a	-0.047113694
64	0x3d9630c1	0.07333518
65	0x3d3b982b	0.045799416
66	0xbd0e5262	-0.034746535
67	0xbcb5f139	-0.02220975
68	0xbe3e5fc4	-0.18591219
69	0x3d2ff427	0.04295745
70	0x3d24cb77	0.0402331
71	0xbe9fc9e6	-0.31208724
72	0xbd271ae0	-0.040797114
73	0xbd881af9	-0.066457696
74	0xbea79930	-0.3273406
75	0xbd730a2b	-0.05933587
76	0xbb900c6e	-0.004396013
77	0xbe4a358a	-0.19746986
78	0xbcf95545	-0.030436167
79	0x3c7f24b9	0.01557272
80	0xbe78efa8	-0.24310172
81	0xbc23c976	-0.0099967625
82	0xbc808959	-0.015690492
83	0xbe533d5f	-0.2062888
84	0x3c048e8f	0.008090629
85	0x3da80683	0.08204367
86	0xbe2c2527	-0.16811047
87	0x3d69ab34	0.057048038
88	0xbb48062e	-0.0030521262
89	0xbe6eeca0	-0.23332453
90	0xbd87ba11	-0.06627286
91	0x3d1f976a	0.03896276
92	0xbe7a8607	-0.2446519
93	0x3d670b1e	0.056407087
94	0x3cada5ba	0.021197189
95	0xbe8008e6	-0.2500679
96	0xbd1f7808	-0.03893283
97	0x3dd32bfe	0.10311125
98	0xbe045821	-0.12924244
99	0x3d713f97	0.058898535
100	0x3cd54e63	0.026038354
101	0xbe343a79	-0.1760043
102	0x3dd8c2be	0.10584019
103	0xbd9782a6	-0.07397966
104	0xbdaf9e81	-0.08575154
105	0x3d849c7f	0.06475162
106	0x3d94d42c	0.07267031
107	0xbde6f2b4	-0.11276761
108	0x3d53754b	0.05162553
109	0x3dd250be	0.102693066
110	0xbe166a73	-0.14689045
111	0xbd8ce479	-0.06879515
112	0x3cec084b	0.028812548
113	0xbe0dca7b	-0.13846771
114	0xbd5f4cd2	-0.05451662
115	0x3cdc3614	0.026881255
116	0xbe3ffb35	-0.18748172
117	0xbd84ae01	-0.06478501
118	0xbd3f7034	-0.046737865
119	0xbe26ecaf	-0.16301225
120	0xbc007075	-0.007839312
121	0x3dcd9fb6	0.10040228
122	0xbdba758a	-0.0910445
123	0xbd7305ef	-0.05933183
124	0x3d383d81	0.04498053
125	0xbe237411	-0.15962245
126	0x3d0677a4	0.032828942
127	0x3ce5eeac	0.02806791
128	0xbcdb5902	-0.02677584
129	0x3d964909	0.07338149
130	0xbdaf4336	-0.08557741
131	0x3dd38380	0.10327816
132	0xbdd42a2d	-0.10359607
133	0x3da5a61e	0.08088325
134	0x3daf08e8	0.085466206
135	0x3d4f1a9a	0.05056248
136	0x3cae95d2	0.021311674
137	0x3d3e27f9	0.04642484
138	0xbd08789b	-0.033318143
139	0x3cabb6dd	0.02096122
140	0x3d7581d9	0.059938285
141	0x3d666e56	0.05625757
142	0x3dad9a27	0.08476668
143	0x3cc644a9	0.024202662
144	0x3cad6376	0.02116559
145	0xbd97c623	-0.074108385
146	0x3c3d4df6	0.011554232
147	0xbb12e053	-0.002241154
148	0x3c9009f2	0.017582867
149	0xbe30b88c	-0.17257899
150	0x3bb65158	0.005563896
151	0x3d570b64	0.052501097
152	0x3d68c72a	0.056830563
153	0x3c14a925	0.00907353
154	0xbcab4d5f	-0.020910917
155	0xbe231454	-0.15925723
156	0xbc9081c2	-0.017639998
157	0xbd76adab	-0.060224216
158	0x3d50ce24	0.05097784
159	0x3d5e0792	0.05420644
160	0x3d8abc55	0.06774203
161	0xbc2d059a	-0.010560418
162	0xbcf422b4	-0.029801704
163	0x3b0cf66e	0.0021509188
164	0x3dd66061	0.104676016
165	0x3cb7fc3c	0.022459142
166	0x3cb233c0	0.021753192
167	0x3d6bb79d	0.057548154
168	0xbc8042bc	-0.015656821
169	0x3d43038e	0.047610812
170	0xbc96cd8d	-0.018408561
171	0xbddb63b7	-0.107123785
172	0xbd428607	-0.0474911
173	0xbd52bfd4	-0.051452473
174	0x3de5626f	0.11200415
175	0xbd2f9762	-0.04286898
176	0x3d9a365d	0.075299
177	0x3d2f03d2	0.042728253
178	0xbd175970	-0.03695053
179	0xbdc16630	-0.09443319
180	0xbb9095c7	-0.004412386
181	0x3dc4217c	0.09576699
182	0x3d817a4d	0.06322155
183	0xbce28889	-0.027652996
184	0x3d4b7cd9	0.04967961
185	0xbbcd6778	-0.006268438
186	0x3d774af3	0.06037421
187	0xbb35d521	-0.0027745443
188	0x3c79d640	0.015248835
189	0x3d8869c4	0.06660798
190	0x3dc5b9a9	0.096545525
191	0x3dd1575d	0.10221741
192	0x3e089926	0.13339671
193	0xbd20a250	-0.039217293
194	0xbcc763fb	-0.024339667
195	0x3e303d3d	0.1721086
196	0xbdee264c	-0.11628398
197	0x3cfd5857	0.030925913
198	0x3c6ca4e3	0.014443609
199	0xbd4abe5e	-0.049497955
200	0x3de60fca	0.1123348
201	0x3c5a4ce6	0.013323998
202	0x3bb17732	0.0054158205
203	0x3e125475	0.1429003
204	0x3d8962cf	0.06708299
205	0x3ccf1d4f	0.02528253
206	0x3dc1bae6	0.09459476
207	0x3db00f90	0.08596718
208	0xbdcc7771	-0.09983719
209	0xbd295dc6	-0.041349195
210	0x3e0a9e63	0.13536982
211	0xbcee1635	-0.029063324
212	0x3bca0f08	0.0061663426
213	0x3ddf7f1c	0.10912916
214	0xbd200a68	-0.039072424
215	0xbd8241eb	-0.06360229
216	0x3e422caa	0.1896235
217	0xbd4d555f	-0.050130244
218	0xbd380d07	-0.0449343
219	0x3d8c15e1	0.068401106
220	0xbd41c48f	-0.047306594
221	0xbd1d5669	-0.038412485
222	0xbb119a63	-0.0022217266
223	0xbde5e301	-0.11224938
224	0x3d8ab83d	0.06773422
225	0xbba89249	-0.0051443917
226	0xbd2c835c	-0.04211746
227	0x3e8badbc	0.27280986
228	0x3c7d441e	0.015458135
229	0xbe191deb	-0.14952819
230	0x3d4bd8f5	0.049767453
231	0x3d75ea90	0.06003815
232	0xbd84464c	-0.064587206
233	0xbc40375a	-0.011731947
234	0x3d88b649	0.06675393
235	0x3ce1d65f	0.02756804
236	0x3c5fcfa6	0.013660347
237	0x3d5d0c04	0.053966537
238	0x3d847a80	0.064686775
239	0x3de6a091	0.11261094
240	0xbd98183a	-0.07426496
241	0x3db61d31	0.088922866
242	0x3d233bcf	0.03985196
243	0x3d580e77	0.05274817
244	0xbd3e3dda	-0.046445705
245	0xbbdfd2e5	-0.0068305605
246	0xbd4548c0	-0.048165083
247	0x3dad8aaf	0.084737174
248	0x3d844a78	0.06459516
249	0x3c527ece	0.012847615
250	0x3dbdea35	0.09273187
251	0x3d8ba612	0.06818785
252	0xbc638ad1	-0.013888077
253	0x3cf606df	0.030032573
254	0xbd87ff23	-0.0664046
255	0x3c6f7c80	0.014617085
