tensorflow_lite/sign_language_detect_model.tflite (tflite, 554608 bytes, 8 tensors)

sequential/lstm/Read_2/ReadVariableOp f4 [1024]
0	0xbc112af9	-0.008860343
1	0xbc8aa3e5	-0.016923854
2	0x3b19d739	0.002347423
3	0xbcf1619b	-0.029465487
4	0xbc75f486	-0.015011912
5	0xbb5e59ac	-0.003392796
6	0x38380977	4.3877833e-05
7	0x3ca470a0	0.020073235
8	0xbbd7cc2a	-0.0065856175
9	0x3cd840a4	0.02639801
10	0xbbd1d3b1	-0.0064034094
11	0x3b5923cd	0.0033132911
12	0xbc037b0f	-0.008024945
13	0xbcd59420	-0.026071608
14	0x3a1bc05d	0.0005941445
15	0xbac265b8	-0.001483134
16	0xbc81cf00	-0.015845776
17	0x3ccb3ee6	0.024810266
18	0xbc0b5e72	-0.008506404
19	0xbcda8968	-0.026676849
20	0xbb599577	-0.003320066
21	0xbc54480b	-0.0129566295
22	0xbc0a553c	-0.008443173
23	0x3c2ba691	0.010476724
24	0x3c187292	0.009304659
25	0x3c533081	0.012889982
26	0xbca3955b	-0.01996868
27	0x3ca35fc2	0.019943122
28	0xbb8bf5fd	-0.0042712674
29	0xba9a1100	-0.0011754334
30	0xbce94830	-0.028476804
31	0xbc4ebef6	-0.012618771
32	0x3baedf24	0.005336659
33	0x3bf5e557	0.007504146
34	0x3cbad086	0.02280451
35	0x3b5d2843	0.0033745922
36	0xbc339fb2	-0.010963367
37	0x3c6214d3	0.01379891
38	0x3b842cc5	0.0040336573
39	0x3bc24bdc	0.0059294533
40	0xbc56bd75	-0.0131066935
41	0xbc37fd38	-0.011229806
42	0xbbbf8b4a	-0.005845462
43	0xbabfcbbb	-0.001463286
44	0xbc53daf6	-0.012930622
45	0xbbb65f10	-0.0055655316
46	0x3c2e9f5d	0.010658112
47	0xbc82241d	-0.01588636
48	0x383aaffd	4.4509758e-05
49	0xbc275352	-0.010212736
50	0xbc09e6b5	-0.008416821
51	0xbb75a375	-0.0037481461
52	0xbc93cd11	-0.01804212
53	0x3c841961	0.016125383
54	0xbc09f386	-0.008419877
55	0x3c0cf4b4	0.008603264
56	0xbbc1f1e5	-0.0059187287
57	0xbbb56ad1	-0.005536415
58	0x3caba7a9	0.02095397
59	0xbca931cd	-0.02065363
60	0xbcc1482a	-0.02359398
61	0x3b16b6b8	0.0022997092
62	0x3ba5664c	0.005047595
63	0xbca7be07	-0.020476354
64	0xbb22cfea	-0.0024843165
65	0xbc636853	-0.013879853
66	0x3bc6500f	0.006052024
67	0x3c12d9ce	0.0089630615
68	0xbc3cb891	-0.011518613
69	0xbc29b2e5	-0.010357593
70	0x3ca65bb1	0.020307394
71	0x3bad57b0	0.005289994
72	0x3c6b001d	0.014343289
73	0xbc1ebecd	-0.009689045
74	0x3b4417ac	0.0029921336
75	0xbc8d8c88	-0.017278925
76	0xbc6ff98e	-0.014646901
77	0x3d0f276f	0.034949716
78	0x3ad96ec6	0.0016588799
79	0x3c752135	0.01496153
80	0xbc17aeb2	-0.009257959
81	0x3b42d77f	0.0029730496
82	0xbb812d3d	-0.0039421604
83	0x3b23098a	0.0024877512
84	0x3c28ef49	0.010310956
85	0xbb673742	-0.003528074
86	0xbc703f34	-0.014663506
87	0xbbdb43e7	-0.006691444
88	0xbc8e53f5	-0.017374018
89	0x3c30fffc	0.010803219
90	0x3c3e4f85	0.011615639
91	0xbad6cb2d	-0.0016387455
92	0xbbbd5e06	-0.0057790307
93	0xbb4dca68	-0.003140116
94	0x3c809f1e	0.015700873
95	0x3c788570	0.015168533
96	0x3c5dfb04	0.013548616
97	0xbba0a848	-0.004902873
98	0xbc6cc298	-0.014450692
99	0xbc11b3ab	-0.008892934
100	0xbab59a80	-0.0013855249
101	0x3b5a19b2	0.0033279476
102	0x3c962e50	0.01833263
103	0x3c8017ea	0.015636403
104	0x3c36e0c9	0.011161991
105	0x3b81c2eb	0.0039600036
106	0xbc47ab7a	-0.012186879
107	0xbc899a6b	-0.016797265
108	0x3b70e7e0	0.0036759302
109	0xbc3e45a8	-0.011613287
110	0x3ce39bf9	0.027784334
111	0x3a44acf4	0.00075025787
112	0x3ba13e8e	0.004920787
113	0xbbe897bc	-0.0070981663
114	0xbab62022	-0.0013895074
115	0x3cb170b0	0.021660179
116	0x3ccb020d	0.024781251
117	0xbc506dd7	-0.0127215
118	0xbb8ae957	-0.004239242
119	0xbbaaeef5	-0.005216474
120	0xbc0c3a90	-0.008558884
121	0x3a01e3e6	0.0004954919
122	0x3adddc77	0.0016926666
123	0x3bbe9ebe	0.0058172634
124	0xba89fa44	-0.0010526855
125	0xbc809296	-0.015694898
126	0xbb05e827	-0.0020432563
127	0x3d2353f0	0.03987497
128	0xbc130f21	-0.008975775
129	0xbc71ffaf	-0.014770432
130	0xbc64a284	-0.013954762
131	0xbc7a8749	-0.015291044
132	0x3c59db4f	0.013296916
133	0xbaa2feab	-0.0012435516
134	0x3c87e8ef	0.016590564
135	0x3c4914ee	0.012273056
136	0xbc1c43ba	-0.009537632
137	0xbc51f8ee	-0.012815697
138	0xbc1d586f	-0.009603604
139	0x3ad4f5ef	0.001624761
140	0xbbbbbe1a	-0.005729449
141	0x3ce77d9a	0.028258134
142	0x3cd7db03	0.02634955
143	0xba40bd17	-0.00073523953
144	0xbc572398	-0.013131045
145	0x3cee5466	0.029092979
146	0x3cccbc46	0.02499212
147	0x3cbd2537	0.023089034
148	0x3b9c8386	0.004776421
149	0x3c0db0eb	0.008648138
150	0xbc5c48a6	-0.013445055
151	0x3b982e64	0.004644202
152	0x3b843fa6	0.004035908
153	0xbb895dda	-0.004192096
154	0x3cac2be7	0.021017028
155	0xbc17ae6f	-0.009257897
156	0xbba8b036	-0.005147959
157	0xbc34c8b4	-0.0110341795
158	0x3ccf3487	0.025293602
159	0x3a996460	0.0011702888
160	0xbc67aa20	-0.014139682
161	0xbc927910	-0.017879993
162	0xbc064565	-0.008195256
163	0xbcb6973e	-0.022288915
164	0xbb882e8e	-0.0041559404
165	0xbc629981	-0.0138305435
166	0xba15cc0d	-0.0005714305
167	0x39b4cf19	0.00034486575
168	0xbc8c4676	-0.017123442
169	0xbc60e956	-0.013727507
170	0xbcb2d778	-0.02183126
171	0x3c06972f	0.008214756
172	0xbb89aa48	-0.0042012073
173	0x3b429c84	0.0029695341
174	0xbc1739db	-0.009230102
175	0xbc07bdb9	-0.0082849795
176	0xbcb2bc7e	-0.021818396
177	0xbcb1c306	-0.02169944
178	0x3c3f67a3	0.011682424
179	0xbbda650d	-0.006664878
180	0xbce6ef61	-0.028190317
181	0xbc92175f	-0.01783341
182	0x3bdffdd9	0.006835681
183	0xbc755171	-0.01497303
184	0xbc2b5c32	-0.010458993
185	0xbc8f5037	-0.017494304
186	0x3bb74e71	0.0055940677
187	0x3cf631cf	0.030053047
188	0xbcb49a25	-0.022046158
189	0x3bbaacba	0.00569686
190	0xbc8aa9ac	-0.016926609
191	0xbc2aceb9	-0.010425263
192	0xbb57b61f	-0.003291495
193	0xbaae45df	-0.001329597
194	0xbc3e75a3	-0.0116247265
195	0xba926242	-0.0011168199
196	0xba97ada2	-0.0011572132
197	0x3bfb521e	0.0076697012
198	0xb9d5dce0	-0.0004079109
199	0x3b83e427	0.0040250006
200	0xbc00d7b0	-0.007863924
201	0x3ac4d408	0.0015016804
202	0xbca0cabb	-0.01962792
203	0x3bcbc8ac	0.0062189903
204	0x3c960c07	0.018316282
205	0xbbfdcd61	-0.0077454303
206	0x3c239ee8	0.009986617
207	0x3c372bb8	0.011179857
208	0xbc93489f	-0.017978964
209	0x3c90e590	0.017687589
210	0x3cb0f899	0.021602916
211	0x3c443c95	0.0119773345
212	0x3c68f93d	0.014219579
213	0xbb027d4e	-0.0019911113
214	0xbc897e1a	-0.016783763
215	0x3c6b4ec0	0.014362037
216	0xbcda59c3	-0.02665413
217	0xba634528	-0.0008669668
218	0xbbd54554	-0.0065085087
219	0xbb22b4c3	-0.002482698
220	0x3a418312	0.0007381897
221	0xbc9ac18e	-0.018891122
222	0x3c853f12	0.016265426
223	0xb9e332c3	-0.00043334634
224	0xbba11d4f	-0.004916824
225	0xbc967244	-0.018365033
226	0x3a4d501a	0.00078320655
227	0x3c420d75	0.011844029
228	0x3a15cb1c	0.00057141646
229	0xba2446c7	-0.000626665
230	0xbbe95aa3	-0.0071214004
231	0x3cbfefe8	0.023429826
232	0x3c1aea86	0.009455329
233	0xbca39096	-0.019966405
234	0x3baa3dac	0.00519534
235	0x3bd87aaf	0.006606422
236	0x3d1e4bc3	0.03864647
237	0xbb7582aa	-0.0037461915
238	0xbc8daf80	-0.017295599
239	0x3bb20590	0.005432792
240	0xbc2d5f4e	-0.010581804
241	0xbbb0964f	-0.005389012
242	0xbc6051f7	-0.013691417
243	0xbc5cc0f9	-0.013473743
244	0xbb567541	-0.0032723697
245	0xbc139811	-0.009008423
246	0x3c3fd949	0.01170952
247	0x3c5a2917	0.013315461
248	0x3b104ced	0.0022018508
249	0x3be1e100	0.006893277
250	0x3adce2ea	0.0016852294
251	0xbb92bf26	-0.004478353
252	0xbbab16a4	-0.005221205
253	0x3c25ffe6	0.010131812
254	0x3b84912e	0.004045627
255	0x3c0c7c09	0.008574494

sequential/dense/BiasAdd/ReadVariableOp f4 [128]
0	0x3c8b22c4	0.016984351
1	0x398537f5	0.00025409428
2	0x3c26d357	0.010182223
3	0x3cd79b02	0.02631903
4	0x3cdba84b	0.026813647
5	0x3d2dfeaa	0.042479195
6	0x3cf896f0	0.03034541
7	0x3ca4c1dc	0.02011197
8	0x3c2251a1	0.009907157
9	0x3c31abc1	0.010844172
10	0x3d3b1434	0.045673564
11	0x3cb77527	0.02239473
12	0x3ba91f8a	0.0051612305
13	0x3ce2fe86	0.027709257
14	0x3d1cd259	0.03828654
15	0x3d1cf30a	0.038317718
16	0x3d2546dd	0.040350784
17	0x3d51479f	0.051093694
18	0x3cad6c12	0.021169696
19	0x3ce9c8e0	0.028538167
20	0x3c98ad93	0.018637454
21	0x3c504dbf	0.012713849
22	0xbb951462	-0.004549549
23	0x3d5f359b	0.05449448
24	0x3d0c99b6	0.034326278
25	0x3c1e670a	0.009668121
26	0x3c3a20d3	0.011360365
27	0x3d2d5414	0.04231651
28	0x3d12c8b8	0.03583595
29	0x3c881a68	0.016614154
30	0x3d168fea	0.03675834
31	0x3ca56c88	0.020193353
32	0x3d0e4743	0.03473593
33	0x3b99ae77	0.0046899873
34	0xbc5c1bff	-0.013434409
35	0xba9b3459	-0.0011841162
36	0x3d0531ae	0.03251808
37	0xbccecb2d	-0.025243366
38	0x3cfec859	0.031101393
39	0x3d773c4a	0.06036023
40	0x3d03a566	0.032140158
41	0x3cc99185	0.024605522
42	0x3cf200c3	0.029541379
43	0x3cd23b62	0.025663082
44	0x3cc4efe1	0.024040164
45	0x3ce3ed6c	0.027823173
46	0x3d1128cf	0.03543931
47	0x3c6533ce	0.013989402
48	0x3cdaed3a	0.026724447
49	0x3ca45182	0.020058397
50	0x3cece9b0	0.028920025
51	0xbc9812aa	-0.018563587
52	0x3cfbda5c	0.03074377
53	0x3cbb7668	0.022883609
54	0x3c9db5a8	0.01925166
55	0x3d005225	0.03132834
56	0x3d0635a3	0.032765996
57	0x3d480bdb	0.04883943
58	0x3ce49192	0.027901445
59	0x3d03b13b	0.032151442
60	0x3d01cd4c	0.031689927
61	0x3b2c0fef	0.0026254614
62	0x3c3ad705	0.011403804
63	0x3c9ca3e8	0.019121125
64	0x3d076808	0.033058196
65	0x3c947393	0.018121516
66	0x3d01c3b1	0.031680766
67	0x3d0213f9	0.03175733
68	0x3c34b284	0.01102889
69	0x3d16453d	0.036687125
70	0x3ce63894	0.02810315
71	0x3ab5522a	0.0013833691
72	0x3ba4beb3	0.005027616
73	0x3cda6eee	0.026664224
74	0x3d020a4d	0.031748105
75	0x3d0806a5	0.03320946
76	0x3d21716b	0.039414804
77	0x3d1c17a5	0.038108487
78	0x3d5187c4	0.051154867
79	0x3d11ce0b	0.03559689
80	0x3d1adaa9	0.037806187
81	0x3d19ec2c	0.037578747
82	0x3cb87e17	0.022521062
83	0x3c42c8cb	0.011888693
84	0x3ce64c09	0.028112428
85	0x3bf9b4ef	0.007620446
86	0x3cb4811d	0.022034222
87	0x3d4bd8fe	0.049767487
88	0x3b85264c	0.0040634032
89	0x3c847db7	0.016173227
90	0xbd2a9bc8	-0.04165247
91	0x3c0893ca	0.008336017
92	0x3c89d3f7	0.016824706
93	0x3d176171	0.03695816
94	0x3cb95a07	0.022625936
95	0x3c9ccd18	0.019140765
96	0xba1f9e2a	-0.0006088937
97	0x3d28bfe0	0.04119861
98	0x3cc6fde4	0.024290986
99	0x3d1f59e3	0.038904082
100	0x3d24cb25	0.040232796
101	0x3d261c94	0.040554598
102	0x3d1eafff	0.03874206
103	0xbbc16b3e	-0.005902677
104	0x3d41bf0f	0.04730135
105	0x3ca79825	0.02045829
106	0xbb1d6ece	-0.0024022344
107	0x3d0ac234	0.033876613
108	0x3b102ac7	0.0021998154
109	0x3be4af0c	0.006978875
110	0x3b3a7052	0.0028448296
111	0x3cfa6594	0.030566014
112	0x3d228e22	0.03968633
113	0x3d39c748	0.045356065
114	0x3cf11aec	0.029431783
115	0x3cb2d893	0.021831786
116	0x3c297158	0.010341965
117	0x3cee023b	0.029053798
118	0x3c5e36a4	0.013562832
119	0x3cb88731	0.022525402
120	0x3d392eb0	0.04521054
121	0x3c9993fd	0.018747324
122	0x3d45964d	0.04823904
123	0x3c61ad49	0.013774225
124	0x3b8ce3fb	0.0042996383
125	0x3d1392f7	0.03602883
126	0x3ccb68ac	0.024830185
127	0x3cd0e102	0.025497917

sequential/dense_1/BiasAdd/ReadVariableOp f4 [10]
0	0xbbe14d98	-0.006875705
1	0x3c0430a0	0.008068234
2	0xbcdb227d	-0.026749844
3	0x3ba2ef56	0.0049723787
4	0x3b7b53d7	0.0038349533
5	0x3c055f3d	0.008140382
6	0xbbd11e18	-0.0063817613
7	0x3b3b3f8a	0.0028571808
8	0xbc09c383	-0.00840843
9	0x3b0adc6d	0.0021188513

sequential/dense/MatMul i1 [128, 256] scale=0.0022508185 zero_point=0
0	0xdc	-0.08102947
1	0xec	-0.04501637
2	0xd7	-0.09228356
3	0xe4	-0.06302292
4	0x30	0.10803929
5	0x0f	0.033762276
6	0x23	0.07877865
7	0xce	-0.11254093
8	0x39	0.12829666
9	0xd6	-0.09453438
10	0x06	0.013504911
11	0x22	0.076527834
12	0x00	0.0
13	0xc4	-0.1350491
14	0x0e	0.03151146
15	0x1c	0.06302292
16	0x40	0.14405239
17	0xf2	-0.03151146
18	0xc7	-0.12829666
19	0xcf	-0.11029011
20	0xdf	-0.07427701
21	0x26	0.0855311
22	0x12	0.040514734
23	0x2d	0.101286836
24	0xc6	-0.13054748
25	0xcf	-0.11029011
26	0xcb	-0.119293384
27	0x3f	0.14180157
28	0xf2	-0.03151146
29	0x12	0.040514734
30	0x00	0.0
31	0x0d	0.029260641
32	0x26	0.0855311
33	0x06	0.013504911
34	0x30	0.10803929
35	0x30	0.10803929
36	0xf7	-0.020257367
37	0x23	0.07877865
38	0xe6	-0.058521282
39	0x2c	0.099036016
40	0xe5	-0.0607721
41	0xef	-0.038263917
42	0xb3	-0.17331302
43	0xd3	-0.101286836
44	0x48	0.16205893
45	0x27	0.08778192
46	0xfc	-0.009003274
47	0x2c	0.099036016
48	0xdc	-0.08102947
49	0x16	0.049518008
50	0xd8	-0.09003274
51	0x0f	0.033762276
52	0x11	0.038263917
53	0x3f	0.14180157
54	0xf6	-0.022508185
55	0x0b	0.024759004
56	0x06	0.013504911
57	0x16	0.049518008
58	0x33	0.11479174
59	0x1a	0.058521282
60	0xe1	-0.06977537
61	0x2b	0.096785195
62	0x0c	0.027009822
63	0x17	0.051768824
64	0x11	0.038263917
65	0x3a	0.13054748
66	0x1d	0.06527374
67	0xf4	-0.027009822
68	0x22	0.076527834
69	0xc7	-0.12829666
70	0xfd	-0.0067524556
71	0x0c	0.027009822
72	0x21	0.07427701
73	0xf5	-0.024759004
74	0x1a	0.058521282
75	0xf7	-0.020257367
76	0x2b	0.096785195
77	0xde	-0.076527834
78	0x0a	0.022508185
79	0xef	-0.038263917
80	0x12	0.040514734
81	0xde	-0.076527834
82	0x21	0.07427701
83	0xf0	-0.036013097
84	0x37	0.12379502
85	0x15	0.04726719
86	0xd2	-0.10353765
87	0xe0	-0.07202619
88	0xd1	-0.10578847
89	0x41	0.1463032
90	0xd1	-0.10578847
91	0x15	0.04726719
92	0xf8	-0.018006548
93	0xcd	-0.11479174
94	0xf6	-0.022508185
95	0x15	0.04726719
96	0x00	0.0
97	0x13	0.04276555
98	0xf9	-0.01575573
99	0xe2	-0.06752455
100	0x04	0.009003274
101	0x1c	0.06302292
102	0xe5	-0.0607721
103	0x1a	0.058521282
104	0x2d	0.101286836
105	0x20	0.07202619
106	0x3c	0.1350491
107	0xe5	-0.0607721
108	0x0b	0.024759004
109	0xdc	-0.08102947
110	0xed	-0.04276555
111	0xe6	-0.058521282
112	0xe0	-0.07202619
113	0xd4	-0.099036016
114	0xf2	-0.03151146
115	0xd6	-0.09453438
116	0xd5	-0.096785195
117	0x1d	0.06527374
118	0xe6	-0.058521282
119	0x9d	-0.22283104
120	0xcb	-0.119293384
121	0xd1	-0.10578847
122	0x39	0.12829666
123	0x3f	0.14180157
124	0x35	0.119293384
125	0xe2	-0.06752455
126	0xdf	-0.07427701
127	0xf1	-0.033762276
128	0xc3	-0.13729993
129	0x1f	0.06977537
130	0x0a	0.022508185
131	0xf4	-0.027009822
132	0x19	0.056270465
133	0xe7	-0.056270465
134	0xf1	-0.033762276
135	0x1d	0.06527374
136	0x1d	0.06527374
137	0x06	0.013504911
138	0xf7	-0.020257367
139	0x16	0.049518008
140	0xdf	-0.07427701
141	0xf4	-0.027009822
142	0x2d	0.101286836
143	0x28	0.09003274
144	0x05	0.011254093
145	0xf0	-0.036013097
146	0x0b	0.024759004
147	0x14	0.04501637
148	0xc0	-0.14405239
149	0x30	0.10803929
150	0xe5	-0.0607721
151	0xcc	-0.117042564
152	0xec	-0.04501637
153	0xff	-0.0022508185
154	0x27	0.08778192
155	0xdd	-0.07877865
156	0x1b	0.0607721
157	0xfe	-0.004501637
158	0xfc	-0.009003274
159	0xf9	-0.01575573
160	0xff	-0.0022508185
161	0xd7	-0.09228356
162	0x23	0.07877865
163	0xe3	-0.06527374
164	0xd5	-0.096785195
165	0xd1	-0.10578847
166	0x2c	0.099036016
167	0x1a	0.058521282
168	0xc6	-0.13054748
169	0x34	0.117042564
170	0xe7	-0.056270465
171	0xe2	-0.06752455
172	0x39	0.12829666
173	0xea	-0.049518008
174	0x45	0.15530647
175	0xd9	-0.08778192
176	0x2a	0.09453438
177	0x05	0.011254093
178	0xff	-0.0022508185
179	0x01	0.0022508185
180	0x29	0.09228356
181	0x09	0.020257367
182	0xe5	-0.0607721
183	0x02	0.004501637
184	0x13	0.04276555
185	0x0d	0.029260641
186	0x01	0.0022508185
187	0xd1	-0.10578847
188	0xce	-0.11254093
189	0xe9	-0.051768824
190	0x38	0.12604584
191	0xee	-0.040514734
192	0x03	0.0067524556
193	0xd2	-0.10353765
194	0x2a	0.09453438
195	0x0d	0.029260641
196	0xe6	-0.058521282
197	0x2a	0.09453438
198	0xcf	-0.11029011
199	0xe2	-0.06752455
200	0xf2	-0.03151146
201	0x42	0.14855403
202	0x2a	0.09453438
203	0xc1	-0.14180157
204	0xf1	-0.033762276
205	0x1f	0.06977537
206	0x29	0.09228356
207	0x2d	0.101286836
208	0xc2	-0.13955075
209	0xff	-0.0022508185
210	0x1b	0.0607721
211	0x2f	0.10578847
212	0xf8	-0.018006548
213	0xeb	-0.04726719
214	0xdf	-0.07427701
215	0xfb	-0.011254093
216	0x1b	0.0607721
217	0x01	0.0022508185
218	0xe2	-0.06752455
219	0x05	0.011254093
220	0xee	-0.040514734
221	0x1f	0.06977537
222	0xd7	-0.09228356
223	0xd6	-0.09453438
224	0xe9	-0.051768824
225	0x41	0.1463032
226	0xda	-0.0855311
227	0x33	0.11479174
228	0xd7	-0.09228356
229	0x15	0.04726719
230	0x3e	0.13955075
231	0x0d	0.029260641
232	0xf4	-0.027009822
233	0x01	0.0022508185
234	0xd3	-0.101286836
235	0xe9	-0.051768824
236	0xe7	-0.056270465
237	0xe7	-0.056270465
238	0xe3	-0.06527374
239	0xfd	-0.0067524556
240	0xe7	-0.056270465
241	0x36	0.1215442
242	0xea	-0.049518008
243	0x11	0.038263917
244	0x23	0.07877865
245	0x38	0.12604584
246	0x0f	0.033762276
247	0xd7	-0.09228356
248	0x35	0.119293384
249	0x0f	0.033762276
250	0xe5	-0.0607721
251	0xcc	-0.117042564
252	0xea	-0.049518008
253	0xee	-0.040514734
254	0x13	0.04276555
255	0x08	0.018006548

sequential/dense_1/MatMul i1 [10, 128] scale=0.002844434 zero_point=0
0	0xd8	-0.11377736
1	0xdc	-0.102399625
2	0x26	0.10808849
3	0x0d	0.03697764
4	0x25	0.105244055
5	0xce	-0.1422217
6	0x28	0.11377736
7	0xea	-0.062577546
8	0xdf	-0.09386632
9	0xb8	-0.20479925
10	0x23	0.09955519
11	0x54	0.23893246
12	0xc7	-0.16213274
13	0xc6	-0.16497718
14	0x04	0.011377736
15	0x01	0.002844434
16	0x32	0.1422217
17	0xae	-0.23324358
18	0x1b	0.07679972
19	0xae	-0.23324358
20	0xea	-0.062577546
21	0xbd	-0.19057707
22	0xf8	-0.022755472
23	0xb4	-0.21617699
24	0xb6	-0.21048811
25	0x2f	0.1336884
26	0xe7	-0.07111085
27	0x37	0.15644386
28	0x39	0.16213274
29	0xeb	-0.059733115
30	0xb9	-0.20195481
31	0x0c	0.034133207
32	0x24	0.102399625
33	0xb2	-0.22186585
34	0x02	0.005688868
35	0x0d	0.03697764
36	0xc3	-0.17351048
37	0xc2	-0.17635491
38	0xff	-0.002844434
39	0x06	0.017066604
40	0xf7	-0.025599906
41	0x33	0.14506613
42	0xb8	-0.20479925
43	0x33	0.14506613
44	0xca	-0.15359944
45	0xa0	-0.27306566
46	0x3f	0.17919934
47	0xfa	-0.017066604
48	0xe9	-0.06542198
49	0xdb	-0.105244055
50	0xec	-0.05688868
51	0xc6	-0.16497718
52	0xac	-0.23893246
53	0xf4	-0.034133207
54	0xb6	-0.21048811
55	0xa7	-0.25315464
56	0x17	0.06542198
57	0xae	-0.23324358
58	0x42	0.18773264
59	0x2b	0.12231066
60	0x4b	0.21333255
61	0xda	-0.10808849
62	0x1d	0.08248859
63	0x06	0.017066604
64	0xc2	-0.17635491
65	0x2b	0.12231066
66	0x3c	0.17066604
67	0x2e	0.13084397
68	0xdd	-0.09955519
69	0x41	0.18488821
70	0xa8	-0.25031018
71	0xbc	-0.19342151
72	0xb6	-0.21048811
73	0x06	0.017066604
74	0x05	0.01422217
75	0xd3	-0.12799953
76	0xa4	-0.26168793
77	0x41	0.18488821
78	0xd6	-0.11946623
79	0x3b	0.1678216
80	0xe0	-0.09102189
81	0xdc	-0.102399625
82	0x2a	0.11946623
83	0x53	0.23608802
84	0xd2	-0.13084397
85	0x02	0.005688868
86	0x29	0.11662179
87	0x35	0.150755
88	0xf4	-0.034133207
89	0x54	0.23893246
90	0xc4	-0.17066604
91	0xbd	-0.19057707
92	0xf1	-0.04266651
93	0xe8	-0.068266414
94	0xc9	-0.15644386
95	0x56	0.24462132
96	0xaf	-0.23039915
97	0x47	0.20195481
98	0x10	0.045510944
99	0x27	0.110932924
100	0x20	0.09102189
101	0x26	0.10808849
102	0x55	0.24177688
103	0x16	0.062577546
104	0xc7	-0.16213274
105	0x10	0.045510944
106	0xe5	-0.07679972
107	0xac	-0.23893246
108	0x2b	0.12231066
109	0xda	-0.10808849
110	0xcc	-0.14791057
111	0xd8	-0.11377736
112	0xc7	-0.16213274
113	0xff	-0.002844434
114	0x9a	-0.29013225
115	0x20	0.09102189
116	0xce	-0.1422217
117	0x1d	0.08248859
118	0x2e	0.13084397
119	0x56	0.24462132
120	0xcb	-0.150755
121	0xcb	-0.150755
122	0xce	-0.1422217
123	0xc1	-0.17919934
124	0xc4	-0.17066604
125	0x3b	0.1678216
126	0xf6	-0.02844434
127	0x49	0.20764369
128	0x49	0.20764369
129	0xf1	-0.04266651
130	0xec	-0.05688868
131	0x02	0.005688868
132	0x4c	0.21617699
133	0xd3	-0.12799953
134	0xb0	-0.22755472
135	0xb3	-0.21902142
136	0x02	0.005688868
137	0xd0	-0.13653283
138	0xef	-0.04835538
139	0xbb	-0.19626595
140	0xab	-0.24177688
141	0xd9	-0.110932924
142	0xea	-0.062577546
143	0xed	-0.054044247
144	0x0f	0.04266651
145	0x0b	0.031288773
146	0xd7	-0.11662179
147	0xba	-0.19911037
148	0x19	0.07111085
149	0x0f	0.04266651
150	0xea	-0.062577546
151	0xb8	-0.20479925
152	0xbe	-0.18773264
153	0xdb	-0.105244055
154	0xbb	-0.19626595
155	0x30	0.13653283
156	0x0c	0.034133207
157	0x19	0.07111085
158	0x41	0.18488821
159	0xd4	-0.12515509
160	0xcd	-0.14506613
161	0xa8	-0.25031018
162	0xc6	-0.16497718
163	0x11	0.04835538
164	0x3c	0.17066604
165	0xfc	-0.011377736
166	0x20	0.09102189
167	0xfd	-0.008533302
168	0x3c	0.17066604
169	0x4a	0.21048811
170	0x14	0.05688868
171	0xc6	-0.16497718
172	0x22	0.09671076
173	0xdd	-0.09955519
174	0xaa	-0.24462132
175	0xb5	-0.21333255
176	0xbe	-0.18773264
177	0x35	0.150755
178	0x3d	0.17351048
179	0x18	0.068266414
180	0xca	-0.15359944
181	0x32	0.1422217
182	0x47	0.20195481
183	0xd5	-0.12231066
184	0x20	0.09102189
185	0xb5	-0.21333255
186	0x4c	0.21617699
187	0x1f	0.08817746
188	0x18	0.068266414
189	0xf5	-0.031288773
190	0xf1	-0.04266651
191	0x31	0.13937727
192	0xd0	-0.13653283
193	0xff	-0.002844434
194	0xe1	-0.08817746
195	0xeb	-0.059733115
196	0x2a	0.11946623
197	0x1c	0.07964415
198	0xc1	-0.17919934
199	0xd6	-0.11946623
200	0x4e	0.22186585
201	0x45	0.19626595
202	0xb9	-0.20195481
203	0xc6	-0.16497718
204	0x32	0.1422217
205	0x46	0.19911037
206	0x08	0.022755472
207	0x26	0.10808849
208	0xe4	-0.07964415
209	0xaf	-0.23039915
210	0xd6	-0.11946623
211	0xe4	-0.07964415
212	0x4a	0.21048811
213	0xc9	-0.15644386
214	0xc0	-0.18204378
215	0x52	0.23324358
216	0x51	0.23039915
217	0xc6	-0.16497718
218	0x52	0.23324358
219	0x1b	0.07679972
220	0x21	0.09386632
221	0xf9	-0.019911038
222	0xae	-0.23324358
223	0xdb	-0.105244055
224	0x0e	0.039822076
225	0x20	0.09102189
226	0xe2	-0.08533302
227	0x11	0.04835538
228	0x21	0.09386632
229	0x1d	0.08248859
230	0x2b	0.12231066
231	0x09	0.025599906
232	0xc7	-0.16213274
233	0xc7	-0.16213274
234	0x50	0.22755472
235	0xe3	-0.08248859
236	0x9b	-0.28728783
237	0x0d	0.03697764
238	0xda	-0.10808849
239	0x52	0.23324358
240	0xf6	-0.02844434
241	0x5c	0.26168793
242	0x03	0.008533302
243	0x45	0.19626595
244	0xdf	-0.09386632
245	0x10	0.045510944
246	0xe2	-0.08533302
247	0x1f	0.08817746
248	0xaa	-0.24462132
249	0x01	0.002844434
250	0xf7	-0.025599906
251	0x2d	0.12799953
252	0x37	0.15644386
253	0xd0	-0.13653283
254	0xe5	-0.07679972
255	0xb9	-0.20195481

sequential/lstm/Read_2/ReadVariableOp1 f4 [1024]
0	0xbc112af9	-0.008860343
1	0xbc8aa3e5	-0.016923854
2	0x3b19d739	0.002347423
3	0xbcf1619b	-0.029465487
4	0xbc75f486	-0.015011912
5	0xbb5e59ac	-0.003392796
6	0x38380977	4.3877833e-05
7	0x3ca470a0	0.020073235
8	0xbbd7cc2a	-0.0065856175
9	0x3cd840a4	0.02639801
10	0xbbd1d3b1	-0.0064034094
11	0x3b5923cd	0.0033132911
12	0xbc037b0f	-0.008024945
13	0xbcd59420	-0.026071608
14	0x3a1bc05d	0.0005941445
15	0xbac265b8	-0.001483134
16	0xbc81cf00	-0.015845776
17	0x3ccb3ee6	0.024810266
18	0xbc0b5e72	-0.008506404
19	0xbcda8968	-0.026676849
20	0xbb599577	-0.003320066
21	0xbc54480b	-0.0129566295
22	0xbc0a553c	-0.008443173
23	0x3c2ba691	0.010476724
24	0x3c187292	0.009304659
25	0x3c533081	0.012889982
26	0xbca3955b	-0.01996868
27	0x3ca35fc2	0.019943122
28	0xbb8bf5fd	-0.0042712674
29	0xba9a1100	-0.0011754334
30	0xbce94830	-0.028476804
31	0xbc4ebef6	-0.012618771
32	0x3baedf24	0.005336659
33	0x3bf5e557	0.007504146
34	0x3cbad086	0.02280451
35	0x3b5d2843	0.0033745922
36	0xbc339fb2	-0.010963367
37	0x3c6214d3	0.01379891
38	0x3b842cc5	0.0040336573
39	0x3bc24bdc	0.0059294533
40	0xbc56bd75	-0.0131066935
41	0xbc37fd38	-0.011229806
42	0xbbbf8b4a	-0.005845462
43	0xbabfcbbb	-0.001463286
44	0xbc53daf6	-0.012930622
45	0xbbb65f10	-0.0055655316
46	0x3c2e9f5d	0.010658112
47	0xbc82241d	-0.01588636
48	0x383aaffd	4.4509758e-05
49	0xbc275352	-0.010212736
50	0xbc09e6b5	-0.008416821
51	0xbb75a375	-0.0037481461
52	0xbc93cd11	-0.01804212
53	0x3c841961	0.016125383
54	0xbc09f386	-0.008419877
55	0x3c0cf4b4	0.008603264
56	0xbbc1f1e5	-0.0059187287
57	0xbbb56ad1	-0.005536415
58	0x3caba7a9	0.02095397
59	0xbca931cd	-0.02065363
60	0xbcc1482a	-0.02359398
61	0x3b16b6b8	0.0022997092
62	0x3ba5664c	0.005047595
63	0xbca7be07	-0.020476354
64	0xbb22cfea	-0.0024843165
65	0xbc636853	-0.013879853
66	0x3bc6500f	0.006052024
67	0x3c12d9ce	0.0089630615
68	0xbc3cb891	-0.011518613
69	0xbc29b2e5	-0.010357593
70	0x3ca65bb1	0.020307394
71	0x3bad57b0	0.005289994
72	0x3c6b001d	0.014343289
73	0xbc1ebecd	-0.009689045
74	0x3b4417ac	0.0029921336
75	0xbc8d8c88	-0.017278925
76	0xbc6ff98e	-0.014646901
77	0x3d0f276f	0.034949716
78	0x3ad96ec6	0.0016588799
79	0x3c752135	0.01496153
80	0xbc17aeb2	-0.009257959
81	0x3b42d77f	0.0029730496
82	0xbb812d3d	-0.0039421604
83	0x3b23098a	0.0024877512
84	0x3c28ef49	0.010310956
85	0xbb673742	-0.003528074
86	0xbc703f34	-0.014663506
87	0xbbdb43e7	-0.006691444
88	0xbc8e53f5	-0.017374018
89	0x3c30fffc	0.010803219
90	0x3c3e4f85	0.011615639
91	0xbad6cb2d	-0.0016387455
92	0xbbbd5e06	-0.0057790307
93	0xbb4dca68	-0.003140116
94	0x3c809f1e	0.015700873
95	0x3c788570	0.015168533
96	0x3c5dfb04	0.013548616
97	0xbba0a848	-0.004902873
98	0xbc6cc298	-0.014450692
99	0xbc11b3ab	-0.008892934
100	0xbab59a80	-0.0013855249
101	0x3b5a19b2	0.0033279476
102	0x3c962e50	0.01833263
103	0x3c8017ea	0.015636403
104	0x3c36e0c9	0.011161991
105	0x3b81c2eb	0.0039600036
106	0xbc47ab7a	-0.012186879
107	0xbc899a6b	-0.016797265
108	0x3b70e7e0	0.0036759302
109	0xbc3e45a8	-0.011613287
110	0x3ce39bf9	0.027784334
111	0x3a44acf4	0.00075025787
112	0x3ba13e8e	0.004920787
113	0xbbe897bc	-0.0070981663
114	0xbab62022	-0.0013895074
115	0x3cb170b0	0.021660179
116	0x3ccb020d	0.024781251
117	0xbc506dd7	-0.0127215
118	0xbb8ae957	-0.004239242
119	0xbbaaeef5	-0.005216474
120	0xbc0c3a90	-0.008558884
121	0x3a01e3e6	0.0004954919
122	0x3adddc77	0.0016926666
123	0x3bbe9ebe	0.0058172634
124	0xba89fa44	-0.0010526855
125	0xbc809296	-0.015694898
126	0xbb05e827	-0.0020432563
127	0x3d2353f0	0.03987497
128	0xbc130f21	-0.008975775
129	0xbc71ffaf	-0.014770432
130	0xbc64a284	-0.013954762
131	0xbc7a8749	-0.015291044
132	0x3c59db4f	0.013296916
133	0xbaa2feab	-0.0012435516
134	0x3c87e8ef	0.016590564
135	0x3c4914ee	0.012273056
136	0xbc1c43ba	-0.009537632
137	0xbc51f8ee	-0.012815697
138	0xbc1d586f	-0.009603604
139	0x3ad4f5ef	0.001624761
140	0xbbbbbe1a	-0.005729449
141	0x3ce77d9a	0.028258134
142	0x3cd7db03	0.02634955
143	0xba40bd17	-0.00073523953
144	0xbc572398	-0.013131045
145	0x3cee5466	0.029092979
146	0x3cccbc46	0.02499212
147	0x3cbd2537	0.023089034
148	0x3b9c8386	0.004776421
149	0x3c0db0eb	0.008648138
150	0xbc5c48a6	-0.013445055
151	0x3b982e64	0.004644202
152	0x3b843fa6	0.004035908
153	0xbb895dda	-0.004192096
154	0x3cac2be7	0.021017028
155	0xbc17ae6f	-0.009257897
156	0xbba8b036	-0.005147959
157	0xbc34c8b4	-0.0110341795
158	0x3ccf3487	0.025293602
159	0x3a996460	0.0011702888
160	0xbc67aa20	-0.014139682
161	0xbc927910	-0.017879993
162	0xbc064565	-0.008195256
163	0xbcb6973e	-0.022288915
164	0xbb882e8e	-0.0041559404
165	0xbc629981	-0.0138305435
166	0xba15cc0d	-0.0005714305
167	0x39b4cf19	0.00034486575
168	0xbc8c4676	-0.017123442
169	0xbc60e956	-0.013727507
170	0xbcb2d778	-0.02183126
171	0x3c06972f	0.008214756
172	0xbb89aa48	-0.0042012073
173	0x3b429c84	0.0029695341
174	0xbc1739db	-0.009230102
175	0xbc07bdb9	-0.0082849795
176	0xbcb2bc7e	-0.021818396
177	0xbcb1c306	-0.02169944
178	0x3c3f67a3	0.011682424
179	0xbbda650d	-0.006664878
180	0xbce6ef61	-0.028190317
181	0xbc92175f	-0.01783341
182	0x3bdffdd9	0.006835681
183	0xbc755171	-0.01497303
184	0xbc2b5c32	-0.010458993
185	0xbc8f5037	-0.017494304
186	0x3bb74e71	0.0055940677
187	0x3cf631cf	0.030053047
188	0xbcb49a25	-0.022046158
189	0x3bbaacba	0.00569686
190	0xbc8aa9ac	-0.016926609
191	0xbc2aceb9	-0.010425263
192	0xbb57b61f	-0.003291495
193	0xbaae45df	-0.001329597
194	0xbc3e75a3	-0.0116247265
195	0xba926242	-0.0011168199
196	0xba97ada2	-0.0011572132
197	0x3bfb521e	0.0076697012
198	0xb9d5dce0	-0.0004079109
199	0x3b83e427	0.0040250006
200	0xbc00d7b0	-0.007863924
201	0x3ac4d408	0.0015016804
202	0xbca0cabb	-0.01962792
203	0x3bcbc8ac	0.0062189903
204	0x3c960c07	0.018316282
205	0xbbfdcd61	-0.0077454303
206	0x3c239ee8	0.009986617
207	0x3c372bb8	0.011179857
208	0xbc93489f	-0.017978964
209	0x3c90e590	0.017687589
210	0x3cb0f899	0.021602916
211	0x3c443c95	0.0119773345
212	0x3c68f93d	0.014219579
213	0xbb027d4e	-0.0019911113
214	0xbc897e1a	-0.016783763
215	0x3c6b4ec0	0.014362037
216	0xbcda59c3	-0.02665413
217	0xba634528	-0.0008669668
218	0xbbd54554	-0.0065085087
219	0xbb22b4c3	-0.002482698
220	0x3a418312	0.0007381897
221	0xbc9ac18e	-0.018891122
222	0x3c853f12	0.016265426
223	0xb9e332c3	-0.00043334634
224	0xbba11d4f	-0.004916824
225	0xbc967244	-0.018365033
226	0x3a4d501a	0.00078320655
227	0x3c420d75	0.011844029
228	0x3a15cb1c	0.00057141646
229	0xba2446c7	-0.000626665
230	0xbbe95aa3	-0.0071214004
231	0x3cbfefe8	0.023429826
232	0x3c1aea86	0.009455329
233	0xbca39096	-0.019966405
234	0x3baa3dac	0.00519534
235	0x3bd87aaf	0.006606422
236	0x3d1e4bc3	0.03864647
237	0xbb7582aa	-0.0037461915
238	0xbc8daf80	-0.017295599
239	0x3bb20590	0.005432792
240	0xbc2d5f4e	-0.010581804
241	0xbbb0964f	-0.005389012
242	0xbc6051f7	-0.013691417
243	0xbc5cc0f9	-0.013473743
244	0xbb567541	-0.0032723697
245	0xbc139811	-0.009008423
246	0x3c3fd949	0.01170952
247	0x3c5a2917	0.013315461
248	0x3b104ced	0.0022018508
249	0x3be1e100	0.006893277
250	0x3adce2ea	0.0016852294
251	0xbb92bf26	-0.004478353
252	0xbbab16a4	-0.005221205
253	0x3c25ffe6	0.010131812
254	0x3b84912e	0.004045627
255	0x3c0c7c09	0.008574494

while/MatMul_11 i1 [1024, 256] scale=0.002083795 zero_point=0
0	0xd8	-0.0833518
1	0x0c	0.025005538
2	0x36	0.11252493
3	0x04	0.00833518
4	0x09	0.018754154
5	0xf7	-0.018754154
6	0xe7	-0.052094873
7	0xe0	-0.06668144
8	0x1a	0.054178666
9	0x27	0.081268005
10	0xfc	-0.00833518
11	0xfb	-0.010418975
12	0xfd	-0.0062513845
13	0x00	0.0
14	0x13	0.039592102
15	0x22	0.070849024
16	0x05	0.010418975
17	0x03	0.0062513845
18	0xfe	-0.00416759
19	0x26	0.079184204
20	0xd9	-0.081268005
21	0x0f	0.031256925
22	0x02	0.00416759
23	0xed	-0.039592102
24	0x11	0.035424512
25	0x15	0.043759692
26	0x25	0.07710041
27	0xf5	-0.022921745
28	0x00	0.0
29	0x4c	0.15836841
30	0x0b	0.022921745
31	0x05	0.010418975
32	0x0f	0.031256925
33	0x19	0.052094873
34	0x02	0.00416759
35	0x16	0.04584349
36	0xf5	-0.022921745
37	0x0b	0.022921745
38	0x1a	0.054178666
39	0x20	0.06668144
40	0xdc	-0.07501662
41	0x29	0.08543559
42	0x09	0.018754154
43	0x17	0.047927283
44	0xf6	-0.02083795
45	0xfc	-0.00833518
46	0xfb	-0.010418975
47	0x16	0.04584349
48	0x00	0.0
49	0xe0	-0.06668144
50	0xfc	-0.00833518
51	0xd1	-0.09793836
52	0xf4	-0.025005538
53	0xf1	-0.031256925
54	0xeb	-0.043759692
55	0x25	0.07710041
56	0x11	0.035424512
57	0xef	-0.035424512
58	0xca	-0.11252493
59	0xf6	-0.02083795
60	0x12	0.03750831
61	0xec	-0.0416759
62	0xfd	-0.0062513845
63	0xd7	-0.08543559
64	0xc6	-0.12086011
65	0x02	0.00416759
66	0x1f	0.064597644
67	0xdd	-0.072932824
68	0xfb	-0.010418975
69	0x03	0.0062513845
70	0xf2	-0.029173128
71	0x19	0.052094873
72	0x0e	0.029173128
73	0x09	0.018754154
74	0xec	-0.0416759
75	0x17	0.047927283
76	0xfb	-0.010418975
77	0x1e	0.06251385
78	0x00	0.0
79	0x0f	0.031256925
80	0xf0	-0.03334072
81	0xe5	-0.056262463
82	0xf8	-0.01667036
83	0x08	0.01667036
84	0xe0	-0.06668144
85	0xfc	-0.00833518
86	0x10	0.03334072
87	0x14	0.0416759
88	0xf9	-0.014586564
89	0x0a	0.02083795
90	0xf6	-0.02083795
91	0x1a	0.054178666
92	0xfe	-0.00416759
93	0xfd	-0.0062513845
94	0xe9	-0.047927283
95	0xe9	-0.047927283
96	0x06	0.012502769
97	0x1a	0.054178666
98	0x06	0.012502769
99	0xde	-0.070849024
100	0x03	0.0062513845
101	0x13	0.039592102
102	0xfa	-0.012502769
103	0xe6	-0.054178666
104	0xfe	-0.00416759
105	0x1e	0.06251385
106	0x03	0.0062513845
107	0xca	-0.11252493
108	0xec	-0.0416759
109	0x05	0.010418975
110	0x03	0.0062513845
111	0x10	0.03334072
112	0xcd	-0.10627354
113	0x24	0.07501662
114	0xfc	-0.00833518
115	0xfb	-0.010418975
116	0x0f	0.031256925
117	0x01	0.002083795
118	0x06	0.012502769
119	0x0d	0.027089333
120	0xfb	-0.010418975
121	0x17	0.047927283
122	0x01	0.002083795
123	0xed	-0.039592102
124	0x25	0.07710041
125	0x22	0.070849024
126	0xf2	-0.029173128
127	0xdc	-0.07501662
128	0xfa	-0.012502769
129	0x2d	0.09377077
130	0xe4	-0.058346257
131	0xf9	-0.014586564
132	0x0f	0.031256925
133	0xec	-0.0416759
134	0xe5	-0.056262463
135	0x13	0.039592102
136	0xe5	-0.056262463
137	0x01	0.002083795
138	0xe8	-0.050011076
139	0xea	-0.04584349
140	0xda	-0.079184204
141	0xff	-0.002083795
142	0xe5	-0.056262463
143	0xf4	-0.025005538
144	0x22	0.070849024
145	0xeb	-0.043759692
146	0xf2	-0.029173128
147	0xf8	-0.01667036
148	0x18	0.050011076
149	0xd3	-0.09377077
150	0x0d	0.027089333
151	0xdc	-0.07501662
152	0x27	0.081268005
153	0xf8	-0.01667036
154	0xf7	-0.018754154
155	0x21	0.06876523
156	0xec	-0.0416759
157	0x01	0.002083795
158	0x3b	0.1229439
159	0xfd	-0.0062513845
160	0x01	0.002083795
161	0x15	0.043759692
162	0xe8	-0.050011076
163	0xfd	-0.0062513845
164	0x35	0.11044113
165	0x1e	0.06251385
166	0x05	0.010418975
167	0xc5	-0.1229439
168	0xe3	-0.060430054
169	0xf0	-0.03334072
170	0xe3	-0.060430054
171	0xe5	-0.056262463
172	0x02	0.00416759
173	0x0e	0.029173128
174	0xfe	-0.00416759
175	0xe4	-0.058346257
176	0x10	0.03334072
177	0x0f	0.031256925
178	0xfd	-0.0062513845
179	0x06	0.012502769
180	0xd7	-0.08543559
181	0xff	-0.002083795
182	0x04	0.00833518
183	0x20	0.06668144
184	0x18	0.050011076
185	0xdb	-0.07710041
186	0xf8	-0.01667036
187	0x38	0.11669251
188	0x08	0.01667036
189	0xdf	-0.06876523
190	0x06	0.012502769
191	0xe9	-0.047927283
192	0x03	0.0062513845
193	0x19	0.052094873
194	0xfa	-0.012502769
195	0x1f	0.064597644
196	0x1b	0.056262463
197	0x12	0.03750831
198	0x1c	0.058346257
199	0xf1	-0.031256925
200	0xf3	-0.027089333
201	0xee	-0.03750831
202	0x0b	0.022921745
203	0xf6	-0.02083795
204	0xfc	-0.00833518
205	0xf7	-0.018754154
206	0x09	0.018754154
207	0xf3	-0.027089333
208	0xf8	-0.01667036
209	0x1c	0.058346257
210	0xeb	-0.043759692
211	0x09	0.018754154
212	0x4b	0.15628462
213	0xf8	-0.01667036
214	0xfc	-0.00833518
215	0x13	0.039592102
216	0x32	0.104189746
217	0x0b	0.022921745
218	0x04	0.00833518
219	0xf5	-0.022921745
220	0xe9	-0.047927283
221	0x19	0.052094873
222	0x13	0.039592102
223	0x23	0.072932824
224	0x0a	0.02083795
225	0x1f	0.064597644
226	0x05	0.010418975
227	0xe8	-0.050011076
228	0x05	0.010418975
229	0x1b	0.056262463
230	0x07	0.014586564
231	0xe1	-0.064597644
232	0x1a	0.054178666
233	0xe2	-0.06251385
234	0xe4	-0.058346257
235	0xfb	-0.010418975
236	0x1b	0.056262463
237	0xfe	-0.00416759
238	0x03	0.0062513845
239	0xc7	-0.11877631
240	0x05	0.010418975
241	0x11	0.035424512
242	0xf5	-0.022921745
243	0xf6	-0.02083795
244	0xf8	-0.01667036
245	0xfd	-0.0062513845
246	0xd4	-0.09168698
247	0xe7	-0.052094873
248	0xef	-0.035424512
249	0xe3	-0.060430054
250	0xf7	-0.018754154
251	0x23	0.072932824
252	0x08	0.01667036
253	0x16	0.04584349
254	0xfa	-0.012502769
255	0x19	0.052094873

while/MatMul i1 [1024, 234] scale=0.0024065487 zero_point=0
0	0x05	0.012032744
1	0x23	0.0842292
2	0xed	-0.045724425
3	0x01	0.0024065487
4	0xf7	-0.021658938
5	0x08	0.01925239
6	0xfd	-0.007219646
7	0x03	0.007219646
8	0xe1	-0.074603006
9	0xe2	-0.07219646
10	0x01	0.0024065487
11	0xda	-0.09144885
12	0x0a	0.024065487
13	0xf7	-0.021658938
14	0xc5	-0.14198637
15	0xf1	-0.03609823
16	0xec	-0.048130974
17	0xe3	-0.06978992
18	0xe5	-0.06497681
19	0x14	0.048130974
20	0xf0	-0.03850478
21	0xfc	-0.009626195
22	0x27	0.093855396
23	0xfb	-0.012032744
24	0xec	-0.048130974
25	0x27	0.093855396
26	0xff	-0.0024065487
27	0x0a	0.024065487
28	0x01	0.0024065487
29	0xd0	-0.11551434
30	0xe2	-0.07219646
31	0x18	0.05775717
32	0xe8	-0.05775717
33	0x0f	0.03609823
34	0xf5	-0.026472036
35	0xed	-0.045724425
36	0xf6	-0.024065487
37	0x22	0.081822656
38	0xe9	-0.05535062
39	0xfd	-0.007219646
40	0x1b	0.06497681
41	0xd9	-0.093855396
42	0x0c	0.028878585
43	0x11	0.040911328
44	0xf1	-0.03609823
45	0x11	0.040911328
46	0xfd	-0.007219646
47	0x12	0.043317877
48	0xec	-0.048130974
49	0x1a	0.06257027
50	0x18	0.05775717
51	0xe3	-0.06978992
52	0xf8	-0.01925239
53	0x00	0.0
54	0xfa	-0.014439292
55	0x0e	0.033691682
56	0x04	0.009626195
57	0xde	-0.081822656
58	0xfa	-0.014439292
59	0xf2	-0.033691682
60	0xf2	-0.033691682
61	0x24	0.08663575
62	0x13	0.045724425
63	0x25	0.089042306
64	0xee	-0.043317877
65	0x16	0.05294407
66	0x04	0.009626195
67	0x0a	0.024065487
68	0xec	-0.048130974
69	0x29	0.0986685
70	0xef	-0.040911328
71	0xfb	-0.012032744
72	0x0f	0.03609823
73	0x13	0.045724425
74	0xf8	-0.01925239
75	0xf7	-0.021658938
76	0xf0	-0.03850478
77	0xe4	-0.067383364
78	0x0e	0.033691682
79	0xfb	-0.012032744
80	0xdd	-0.0842292
81	0x0c	0.028878585
82	0x1d	0.06978992
83	0xf0	-0.03850478
84	0xfd	-0.007219646
85	0xf9	-0.016845841
86	0xe1	-0.074603006
87	0xf6	-0.024065487
88	0x20	0.07700956
89	0xf4	-0.028878585
90	0x11	0.040911328
91	0xf4	-0.028878585
92	0xbf	-0.15642567
93	0x13	0.045724425
94	0x00	0.0
95	0xd1	-0.113107786
96	0x18	0.05775717
97	0x1d	0.06978992
98	0xee	-0.043317877
99	0xfc	-0.009626195
100	0x08	0.01925239
101	0xf9	-0.016845841
102	0x02	0.0048130974
103	0x06	0.014439292
104	0xd6	-0.101075046
105	0x0b	0.026472036
106	0x13	0.045724425
107	0xd2	-0.11070124
108	0x04	0.009626195
109	0x11	0.040911328
110	0xd6	-0.101075046
111	0x1b	0.06497681
112	0x0f	0.03609823
113	0xdb	-0.089042306
114	0x0e	0.033691682
115	0x12	0.043317877
116	0xe0	-0.07700956
117	0xfc	-0.009626195
118	0x13	0.045724425
119	0xd4	-0.10588814
120	0x13	0.045724425
121	0x1d	0.06978992
122	0xec	-0.048130974
123	0x2a	0.101075046
124	0xf1	-0.03609823
125	0xdf	-0.07941611
126	0x0b	0.026472036
127	0xd6	-0.101075046
128	0xe7	-0.060163718
129	0x03	0.007219646
130	0x02	0.0048130974
131	0x0a	0.024065487
132	0x13	0.045724425
133	0xd8	-0.09626195
134	0xed	-0.045724425
135	0xef	-0.040911328
136	0x07	0.016845841
137	0xfb	-0.012032744
138	0xdd	-0.0842292
139	0xff	-0.0024065487
140	0x0e	0.033691682
141	0x07	0.016845841
142	0xda	-0.09144885
143	0xf0	-0.03850478
144	0x05	0.012032744
145	0xee	-0.043317877
146	0x07	0.016845841
147	0xe3	-0.06978992
148	0x10	0.03850478
149	0xd7	-0.0986685
150	0xdf	-0.07941611
151	0x16	0.05294407
152	0xd7	-0.0986685
153	0x12	0.043317877
154	0x13	0.045724425
155	0xed	-0.045724425
156	0xef	-0.040911328
157	0x08	0.01925239
158	0x04	0.009626195
159	0xf6	-0.024065487
160	0x09	0.021658938
161	0xff	-0.0024065487
162	0xe4	-0.067383364
163	0xea	-0.05294407
164	0x13	0.045724425
165	0xe6	-0.06257027
166	0xe8	-0.05775717
167	0xec	-0.048130974
168	0x03	0.007219646
169	0x06	0.014439292
170	0xff	-0.0024065487
171	0x04	0.009626195
172	0x0e	0.033691682
173	0xe8	-0.05775717
174	0x03	0.007219646
175	0xe4	-0.067383364
176	0x07	0.016845841
177	0x07	0.016845841
178	0xea	-0.05294407
179	0x17	0.05535062
180	0x09	0.021658938
181	0x03	0.007219646
182	0xee	-0.043317877
183	0xfd	-0.007219646
184	0xf4	-0.028878585
185	0x3a	0.13957983
186	0xda	-0.09144885
187	0x17	0.05535062
188	0xe2	-0.07219646
189	0x1c	0.067383364
190	0x3c	0.14439292
191	0x04	0.009626195
192	0x22	0.081822656
193	0x1b	0.06497681
194	0x03	0.007219646
195	0x18	0.05775717
196	0x0f	0.03609823
197	0x26	0.09144885
198	0x12	0.043317877
199	0xf0	-0.03850478
200	0x2d	0.108294696
201	0x30	0.11551434
202	0xf0	-0.03850478
203	0x1c	0.067383364
204	0xfd	-0.007219646
205	0x23	0.0842292
206	0xf4	-0.028878585
207	0xf3	-0.031285133
208	0x0b	0.026472036
209	0x2a	0.101075046
210	0x27	0.093855396
211	0x34	0.12514053
212	0x3e	0.14920601
213	0x09	0.021658938
214	0x14	0.048130974
215	0x47	0.17086495
216	0x20	0.07700956
217	0x26	0.09144885
218	0x4d	0.18530425
219	0x06	0.014439292
220	0x15	0.050537523
221	0x0d	0.031285133
222	0x28	0.09626195
223	0xf0	-0.03850478
224	0x15	0.050537523
225	0xdf	-0.07941611
226	0x17	0.05535062
227	0x11	0.040911328
228	0x09	0.021658938
229	0x11	0.040911328
230	0x01	0.0024065487
231	0x09	0.021658938
232	0x16	0.05294407
233	0xf9	-0.016845841
234	0xeb	-0.050537523
235	0x16	0.05294407
236	0x0b	0.026472036
237	0x10	0.03850478
238	0x1a	0.06257027
239	0x15	0.050537523
240	0xf4	-0.028878585
241	0xf3	-0.031285133
242	0xf6	-0.024065487
243	0x01	0.0024065487
244	0x06	0.014439292
245	0x1a	0.06257027
246	0xf1	-0.03609823
247	0x1a	0.06257027
248	0xf4	-0.028878585
249	0xfc	-0.009626195
250	0x0d	0.031285133
251	0x10	0.03850478
252	0xf4	-0.028878585
253	0xf5	-0.026472036
254	0xe7	-0.060163718
255	0x12	0.043317877
